Bipedal-Walker/weights-hardcore/1checkpoint_critic_t.pth (torch_old, 799893 bytes, 11 tensors)

fcs1.weight f4 [600, 24]
-0.10256368 -0.22224188 -0.1883132 -0.30428687 0.11377609 0.13439415 0.20076935 0.10065725
-0.055674184 0.10580615 0.05072583 -0.2485844 -0.0044942484 -0.10367763 -0.122979224 -0.056328084
-0.11590103 -0.04008125 -0.04382759 -0.14224878 -0.1022532 -0.0665478 -0.1624141 -0.053572506
0.005009703 0.047069095 -0.13316116 -0.027466435 -0.25084847 0.062858574 -0.014240372 0.041096002
-0.11296971 -0.1835268 -0.13195814 0.052927572 -0.015448226 0.25496382 0.08329154 0.032756396
0.22303605 -0.08537916 0.016087057 0.21219039 -0.04600057 0.028669547 -0.15399072 -0.03989282
0.28580028 0.24667136 0.19791989 -0.22725922 0.630291 -0.05734941 0.19850364 -0.05866432
0.047358 -0.54376704 0.0671681 0.14135557 0.03646449 0.21899208 0.27867275 0.30088842
-0.19663647 0.5383578 0.0100481715 -0.64506805 0.118149005 0.35804865 0.17593151 0.19802329
0.725731 -0.2475048 0.6065624 0.5817909 0.35119188 0.10020023 0.61147493 0.04698031
-0.059794262 -0.18228938 -0.075930506 -0.039615005 -0.04281659 0.0077228043 0.323804 0.08782191
0.14651237 0.23242268 0.041990574 0.06809069 -0.15392022 -0.24114245 -0.13328375 -0.09442662
9.783053e-09 7.984063e-10 -1.42120244e-08 -5.6447186e-10 -3.2289364e-08 9.063794e-09 4.0278028e-08 -6.146206e-09
-1.8705226e-08 4.0658417e-08 -2.7862352e-09 -3.011332e-08 -1.1341947e-08 1.03639755e-08 3.2395708e-09 2.7997915e-09
2.1704838e-09 -3.0118714e-09 5.819762e-09 2.275697e-09 2.0201072e-09 1.90614e-09 -1.5401213e-09 3.4975697e-10
1.3038193e-06 1.0419835e-08 -4.272042e-08 1.6297892e-07 -6.72424e-07 -3.2380316e-07 3.2759033e-07 3.0616347e-06
-4.820181e-07 3.4586085e-07 5.3046655e-08 -7.630207e-07 3.435659e-07 2.1343583e-07 -9.686283e-09 4.3474408e-08
7.0240326e-08 5.6341566e-08 -1.1282118e-07 -2.8721368e-08 1.7355582e-08 -1.0308369e-07 -4.143706e-08 1.564896e-08
-0.037105367 -0.07818993 -0.027724108 0.060673527 -0.036949042 -0.034526754 -0.08137317 -0.01477014
0.02310681 -0.05405693 0.019870328 -0.17922036 0.007506476 -0.006223709 1.7105474 0.48713708
-0.0153236985 -0.45143634 -0.37523228 0.1604269 -0.49021015 -0.064949445 -0.19422469 -0.34406444
-0.2694378 0.09873049 0.0021383024 -0.054004062 -0.15152302 -0.044723436 -0.12080851 -0.06660203
-0.13248649 0.035194352 0.25920707 -0.078203954 0.28600582 -0.020364963 -0.1540846 0.02806925
-0.1583448 -0.014066196 -0.052423358 0.18482703 -0.024839485 0.15914832 -0.09318704 0.06797048
0.17957905 -0.12190001 -0.030076308 0.9613034 -0.04024768 0.03514008 -0.017244825 -0.3461453
0.37967962 0.022369016 0.15077306 0.052566424 0.18530151 -0.054505058 -0.14562695 -0.042397123
-0.24191602 -0.117061615 0.17006825 0.17158024 0.01763013 0.08231737 -0.09838453 0.05665338
-0.024143005 0.35318056 0.22924362 -0.2695762 -0.05452747 -0.0024354632 -0.026086906 -0.0022422988
-0.033690687 0.03798044 0.031632792 0.042233862 0.017462423 -0.00809662 0.30635458 0.17968856
0.2898802 -2.2605493 0.08572037 -0.09838655 0.099758744 0.059803393 -0.062312014 0.112243466
0.22675808 0.5168195 -0.63307357 -0.01990067 0.14715531 0.032684423 -0.08786976 0.045525167
0.03954658 -0.00045198156 0.029068677 0.15881227 -0.00607384 0.028546557 0.023084454 0.47472948
00000000: e80c d2bd 6093 63be 2dd5 40be 7dcb 9bbe
00000010: 7003 e93d 9f9e 093e 7b96 4d3e 6325 ce3d
00000020: 9d0a 64bd e5b0 d83d e3c5 4f3d e98c 7ebe
00000030: 7d44 93bb f054 d4bd 88dc fbbd 47b8 66bd
00000040: 855d edbd 3d2c 24bd 8f84 33bd aaa9 11be
00000050: 206a d1bd 374a 88bd e24f 26be d86e 5bbd
00000060: 6f28 a43b 86cb 403d 665b 08be 4a01 e1bc
00000070: 366f 80be ffbb 803d 7350 69bc 4854 283d
00000080: aa5c e7bd 73ee 3bbe 0920 07be 95ca 583d
00000090: 8e1a 7dbc 9e8a 823e c194 aa3d 922b 063d
000000a0: 9063 643e 45db aebd 01c9 833c 7048 593e
000000b0: 186b 3cbd 66dc ea3c beaf 1dbe a766 23bd
000000c0: 6a54 923e 6b97 7c3e 83ab 4a3e a4b6 68be
000000d0: c05a 213f 37e7 6abd 8a44 4b3e ff49 70bd
000000e0: 76fa 413d 5134 0bbf 6e8f 893d 84bf 103e
000000f0: ca5b 153d 763f 603e 32ae 8e3e 0c0e 9a3e
00000100: 125b 49be d1d1 093f 16a1 243c 2e23 25bf
00000110: 1bf8 f13d 2752 b73e 6427 343e 9ec6 4a3e
00000120: 82c9 393f e671 7dbe ac47 1b3f 40f0 143f
00000130: 6ccf b33e c735 cd3d 9f89 1c3f 6d6e 403d
00000140: d4ea 74bd 11aa 3abe 7481 9bbd 5843 22bd
00000150: 7360 2fbd 940f fd3b a3c9 a53e f9db b33d
00000160: 5707 163e 3600 6e3e 4ffe 2b3d 2273 8b3d
00000170: 439d 1dbe 0cee 76be 897b 08be be62 c1bd
00000180: 5212 2832 d976 5b30 2529 74b2 2d29 1bb0
00000190: 88ae 0ab3 fdb6 1b32 29fe 2c33 9a2e d3b1
000001a0: 3aad a0b2 67a0 2e33 f877 3fb1 f255 01b3
000001b0: 69da 42b2 3f0d 3232 229f 5e31 7466 4031
000001c0: 8e27 1531 67f9 4eb1 2bf7 c731 7c62 1c31
000001d0: 1ad2 0a31 2bfd 0231 33ac d3b0 eb47 c02f
000001e0: e4fe ae35 eb02 3332 997b 37b3 4eff 2e34
000001f0: a080 34b5 2bd7 adb4 acdf af34 7c76 4d36
00000200: 0864 01b5 c1ae b934 6ad5 6333 62d2 4cb5
00000210: 5673 b834 cb2c 6534 b968 26b2 9eb8 3a33
00000220: 07d7 9633 35fc 7133 1a48 f2b3 f5b6 f6b2
00000230: 5415 9532 dc5e ddb3 87f8 31b3 6d6c 8632
00000240: ccfb 17bd 0b22 a0bd ab1d e3bc ce84 783d
00000250: e157 17bd ed6b 0dbd faa6 a6bd 75fe 71bc
00000260: 7e4a bd3c cd6a 5dbd 19c7 a23c 8b85 37be
00000270: e2f8 f53b 41f0 cbbb 38f3 da3f 086a f93e
00000280: 4010 7bbc aa22 e7be 721e c0be f346 243e
00000290: d3fc fabe 3704 85bd d6e2 46be 3729 b0be
000002a0: c0f3 89be 3633 ca3d c322 0c3b 5d33 5dbd
000002b0: da28 1bbe ec2f 37bd 746a f7bd a566 88bd
000002c0: 8aaa 07be f427 103d cab6 843e 6529 a0bd
000002d0: 5b6f 923e 6cd4 a6bc 5ac8 1dbe 7cf1 e53c
000002e0: 2425 22be e775 66bc e0b9 56bd 4c43 3d3e
000002f0: 2d7c cbbc c7f7 223e d9d8 bebd 1b34 8b3d
00000300: 92e3 373e b6a6 f9bd 9762 f6bc fb17 763f
00000310: c0da 24bd 0bef 0f3d 0545 8dbc f539 b1be
00000320: 5e65 c23e 3a3f b73c 4164 1a3e e44f 573d
00000330: aebf 3d3e b240 5fbd 3b1f 15be 9ba8 2dbd
00000340: d5b8 77be 00be efbd 5f26 2e3e bbb2 2f3e
00000350: 106d 903c 0296 a83d d47d c9bd 600d 683d
00000360: 8dc7 c5bc 15d4 b43e d7be 6a3e e405 8abe
00000370: 3258 5fbd 4b9c 1fbb 35b4 d5bc 88f3 12bb
00000380: 3fff 09bd 6191 1b3d 6391 013d 6afd 2c3d
00000390: 5b0d 8f3c b0a7 04bc 82da 9c3e 4700 383e
000003a0: 2d6b 943e d7ac 10c0 298e af3d e37e c9bd
000003b0: 504e cc3d 67f4 743d e23a 7fbd e7df e53d
000003c0: 4533 683e 484e 043f 1c11 22bf bb06 a3bc
000003d0: e2af 163e 1ae0 053d 10f5 b3bd 9978 3a3d
000003e0: 98fb 213d f0f7 ecb9 6f21 ee3c af9f 223e
000003f0: 1007 c7bb 78da e93c 9c1b bd3c be0f f33e

fcs1.bias f4 [600]
4.992006e-06 -7.1844363e-07 2.7855788e-06 -4.3888076e-06 -6.2101e-15 -4.0264005e-09 -7.4114185e-05 1.5093436e-06
-4.727221e-06 8.9153655e-05 -5.752787e-06 3.5401907e-05 -5.770546e-12 2.887511e-07 5.0907694e-13 -1.8434721e-05
-4.9935034e-06 -2.5544341e-05 1.2748447e-15 1.2480714e-06 1.0242763e-05 -5.2429573e-06 -1.070401e-13 5.5985615e-06
9.4920165e-12 -4.8997285e-06 3.2525127e-10 1.6323425e-07 2.7883063e-06 1.0028263e-13 -2.5162726e-07 -7.8567615e-07
5.1068093e-07 7.4613156e-11 -1.7068645e-06 1.3735519e-11 3.689163e-12 -1.8964876e-05 4.13235e-07 3.121401e-05
4.1851643e-05 -6.0770077e-07 -1.9610072e-06 6.8748234e-09 -2.8737865e-08 -1.5889304e-05 7.594707e-06 -1.1021175e-13
5.084543e-10 5.590946e-06 1.43056e-07 5.621085e-06 -9.317419e-06 2.0682356e-12 -7.377857e-10 -4.5138727e-06
-2.2371023e-05 1.991882e-06 7.955063e-11 -8.696084e-12 5.6552374e-10 -7.3792094e-06 -3.8207945e-06 -1.1603506e-05
4.704366e-06 1.34660795e-05 8.60443e-07 1.805959e-06 -1.2974783e-06 2.420166e-06 -8.012551e-06 -2.4633857e-16
-1.4454171e-08 2.8880913e-14 -1.3323522e-08 -4.093109e-07 -4.5649414e-14 -1.7586713e-06 -6.2231106e-06 -8.782276e-06
7.638877e-12 -8.484747e-06 -1.0149944e-15 -1.3247505e-06 2.6448038e-06 -8.781084e-06 -5.2814795e-15 4.182463e-06
-6.614135e-06 8.3560635e-06 8.309579e-07 -1.8204025e-06 -2.7960208e-05 -2.5354126e-12 -1.10503435e-14 2.151452e-05
3.5252368e-05 1.4777271e-05 -4.3684036e-06 -4.737457e-09 -2.7762171e-06 -3.9053602e-06 -6.0904e-11 -6.343751e-14
-1.3732487e-06 -1.0117412e-05 -4.8833804e-09 -1.3967716e-12 1.3841743e-05 3.66476e-06 3.834906e-07 -3.872562e-06
-2.3564817e-14 1.8549775e-07 -8.2084784e-07 5.7095103e-06 -1.3836715e-09 -1.0832682e-05 1.3751836e-05 2.8224258e-15
2.6587175e-05 -5.9036806e-06 -1.7716802e-05 3.1674574e-10 8.994054e-06 2.1695876e-06 -4.683079e-06 7.4066975e-08
-9.028238e-16 -9.813714e-07 -3.777999e-07 5.0833765e-10 -1.0882809e-06 1.4502054e-05 3.5753164e-05 -7.19961e-14
1.2015624e-06 -2.5991923e-07 2.6670997e-09 2.3077013e-05 4.317331e-13 1.936471e-12 3.3724007e-10 9.356375e-06
-2.2307304e-12 -1.920883e-06 -1.3715025e-07 1.5750984e-15 -1.449704e-06 3.4233522e-06 5.3807535e-06 8.809759e-06
9.607772e-06 -8.247991e-05 -4.6664506e-11 4.5268397e-15 2.0702845e-15 4.658781e-06 1.022824e-12 1.0504012e-06
4.7848885e-06 -1.3357874e-06 1.4132249e-08 2.6684585e-10 -4.1026796e-14 6.208696e-06 -7.1464515e-11 6.038267e-13
-2.1166752e-06 -5.4960526e-07 1.6576785e-05 5.2341393e-15 -1.4587625e-06 6.0110415e-05 -3.654174e-11 -1.148427e-08
1.2622951e-11 -7.691526e-06 4.0128543e-07 -1.9793246e-13 -4.7592675e-06 1.6372826e-06 7.973971e-07 2.452918e-10
1.014365e-06 -1.5922093e-06 -1.3914985e-05 -4.2286747e-13 1.6049126e-12 -2.0200437e-13 4.4673893e-06 -7.735625e-10
8.54186e-06 -1.7498089e-05 -2.8651368e-07 -1.4501866e-05 -7.1703944e-06 3.159443e-07 -2.6114647e-05 -1.4531919e-06
1.345488e-05 -4.2768716e-10 -3.0768032e-07 -2.4875238e-10 -1.3561564e-05 -1.096888e-05 -7.633143e-11 -2.2803545e-06
-2.2837984e-13 -5.378977e-07 9.88901e-07 6.6632088e-06 6.49664e-06 6.720748e-06 1.3287323e-10 2.091954e-08
2.6931627e-06 -5.2702844e-06 -7.6787666e-07 -1.0811786e-05 -3.1625113e-05 -6.192402e-06 -2.2241907e-10 -1.1352197e-05
-8.993565e-06 1.2570663e-07 9.3178805e-06 3.115882e-12 -1.6456531e-06 -1.7211629e-06 3.6684986e-07 -5.0642997e-13
4.235607e-12 -1.2848565e-06 -7.3215256e-10 -4.1511153e-06 -2.1151578e-13 4.6613275e-07 1.3067426e-09 2.5593465e-06
9.861353e-06 6.9815346e-06 2.4490819e-06 9.0080135e-07 -1.7836675e-05 8.337248e-06 -8.8954985e-06 -2.5253457e-06
5.6897106e-06 2.9509156e-06 4.4209814e-06 4.2147765e-09 9.155172e-06 3.7593613e-06 -2.55779e-06 1.4964536e-05
00000000: 0181 a736 12db 40b5 e1ef 3a36 9243 93b6
00000010: 10be dfa7 9858 8ab1 c06d 9bb8 a794 ca35
00000020: 859e 9eb6 01f8 ba38 1008 c1b6 827c 1438
00000030: 7508 cbac a605 9b34 dc4a 0f2b 43a4 9ab7
00000040: de8d a7b6 0e48 d6b7 78b9 b726 6883 a735
00000050: 55d8 2b37 a9ec afb6 6b08 f1a9 47db bb36
00000060: 3efc 262d 5968 a4b6 0ccf b22f 7d45 2f34
00000070: bd1e 3b36 00d1 e129 6317 87b4 41e7 52b5
00000080: ba15 0935 7913 a42e 6b17 e5b5 47a3 712d
00000090: 07cd 812c c316 9fb7 96da dd34 caeb 0238
000000a0: dc89 2f38 e120 23b5 d999 03b6 9637 ec31
000000b0: 3cdb f6b2 054a 85b7 09d6 fe36 c02c f8a9
000000c0: 4ac3 0b30 dc99 bb36 ef9a 1934 c19c bc36
000000d0: 0352 1cb7 058a 112c 0ecd 4ab0 df75 97b6
000000e0: 68a9 bbb7 46ac 0536 06ef ae2e aefb 18ad
000000f0: 3273 1b30 ed9a f7b6 6034 80b6 aeac 42b7
00000100: 32da 9d36 5fec 6137 31f9 6635 4764 f235
00000110: 0425 aeb5 236a 2236 a56d 06b7 2801 8ea5
00000120: 1e52 78b2 6d11 0229 78e5 64b2 43bf dbb4
00000130: 3196 4da9 7c0b ecb5 1dd0 d0b6 9757 13b7
00000140: 7262 062d b659 0eb7 af46 92a6 15ce b1b5
00000150: 627d 3136 7852 13b7 0d49 bea7 1557 8c36
00000160: fdee ddb6 0531 0c37 fe0e 5f35 8e54 f4b5
00000170: 178c eab7 ef69 32ac b710 47a8 147a b437
00000180: f1db 1338 e5eb 7737 4d94 92b6 1dc7 a2b1
00000190: 0c4f 3ab6 ca0a 83b6 e7ed 85ae 3cd9 8ea9
000001a0: 7750 b8b5 f4bd 29b7 abca a7b1 0094 c4ab
000001b0: d539 6837 19f0 7536 8ce2 cd34 0ef1 81b6
000001c0: c540 d4a8 3c2d 4734 3c58 5cb5 5294 bf36
000001d0: 9d2b beb0 04be 35b7 b0b7 6637 9160 4b27
000001e0: 8607 df37 3b18 c6b6 8b9e 94b7 0022 ae2f
000001f0: 2be5 1637 3b99 1136 5823 9db6 c00e 9f33
00000200: 521c 82a6 aab7 83b5 6cd4 cab4 15bb 0b30
00000210: 0c11 92b5 d94d 7337 abf5 1538 ed1e a2a9
00000220: 5f45 a135 078b 8bb4 1d48 3731 8295 c137
00000230: 4c0b f32a 5c44 082c 5266 b92f 53f9 1c37
00000240: 44f9 1cac 85e8 00b6 9343 13b4 e0fe e226
00000250: 7393 c2b5 bebc 6536 528c b436 a0cd 1337
00000260: 1131 2137 11f9 acb8 903b 4dae ba18 a327
00000270: 022e 1527 a052 9c36 1ef3 8f2b 83fb 8c35
00000280: e18d a036 4e49 b3b5 4aca 7232 37b3 922f
00000290: adc4 38a9 4b54 d036 f226 9dae 4df6 292b
000002a0: 340c 0eb6 9688 13b5 600e 8b37 6a94 bc27
000002b0: b3ca c3b5 111f 7c38 57b6 20ae 5b4c 45b2
000002c0: b810 5e2d da0a 01b7 4070 d734 26da 5eaa
000002d0: ccb1 9fb6 9ac0 db35 b60c 5635 c0d9 862f
000002e0: 5125 8835 e5b3 d5b5 6874 69b7 a00d eeaa
000002f0: 12df e12b cc6f 63aa 95e6 9536 9fa2 54b0
00000300: 024f 0f37 dcc8 92b7 24d2 99b4 0a4d 73b7
00000310: 3899 f0b6 0e9f a934 c710 dbb7 4b0b c3b5
00000320: 45bc 6137 9e1f ebaf 432f a5b4 c9c0 88af
00000330: 7986 63b7 fb06 38b7 c6da a7ae 3108 19b6
00000340: 0191 80aa 0c64 10b5 61ba 8435 8794 df36
00000350: b6fd d936 c982 e136 7d18 122f 8eb2 b332
00000360: 2fbc 3436 66d7 b0b6 1520 4eb5 4464 35b7
00000370: 35a5 04b8 54c8 cfb6 678d 74af 5175 3eb7
00000380: 11e3 16b7 faf9 0634 fe53 1c37 bd42 5b2c
00000390: 36e0 dcb5 b502 e7b5 76f3 c434 208c 0eab
000003a0: f506 952c 5573 acb5 a840 49b0 cf49 8bb6
000003b0: 4625 6eaa cc40 fa34 eb98 b330 3dc1 2b36
000003c0: 3072 2537 ed42 ea36 e85a 2436 99ce 7135
000003d0: f89f 95b7 35e0 0b37 e03d 15b7 1c79 29b6
000003e0: 3eea be36 5808 4636 f157 9436 91d1 9031
000003f0: 2a99 1937 5649 7c36 7fa6 2bb6 3110 7b37

fcs2.weight f4 [300, 600]
0.0018488667 -0.008510723 -0.3202657 -0.10310884 -7.34977e-09 -2.071002e-08 -0.13081998 -0.082017615
-0.08428968 -0.26369527 0.2098907 -0.04184515 1.7384516e-05 -0.2880062 1.0274261e-08 -0.10890421
-0.3910703 0.12005596 -8.548083e-05 0.046962164 -0.035985198 -0.1781674 -1.6617416e-09 -0.03298304
1.2061311e-06 -0.15914366 -3.77102e-05 -0.042824764 0.1718516 -1.7432603e-07 -0.12175085 0.121202156
-0.0686457 4.12413e-06 0.19898981 -2.5826847e-07 3.5627822e-06 -0.15908442 0.047085993 -0.11441452
0.16949056 -0.07926397 -0.10364012 0.0027052213 -0.005348917 -0.27720338 0.051510647 2.0687153e-08
1.1872625e-05 -0.10608024 -0.1495946 -0.03861295 0.075814135 6.681411e-08 1.3218906e-07 0.1321019
0.024452398 0.053785775 3.642268e-05 -1.7728878e-06 3.1458933e-07 0.118746184 -0.09645181 0.17685091
-0.12888196 -0.056409363 0.14153706 -0.05352984 -0.027418075 0.023688 0.053601228 5.453003e-07
-3.0944335e-08 0.0012562094 0.0013835476 -0.018212788 1.7076547e-07 -0.05512211 -0.2757417 0.063076764
5.3181253e-07 0.047580715 1.4974893e-11 -4.869271e-05 0.14068377 -0.22425294 8.38535e-10 0.10369299
0.13561463 0.14080961 0.046454106 -0.037069384 -0.29791117 4.863748e-07 3.6661976e-07 0.003830949
-0.037496828 0.0035868715 0.015159012 0.0013279393 0.028118392 0.13195239 -1.680302e-05 4.5969744e-09
-0.021815386 0.21763526 7.903764e-07 2.1419822e-07 -0.13987496 -0.14158872 0.08267007 0.10908415
-0.00042201875 0.17035547 0.07836514 0.079436325 0.0003147146 0.07355428 0.25422764 -0.0006946035
-0.13546678 -0.031805437 -0.22546451 -5.185893e-06 -0.13531494 0.16661422 0.21769834 1.821813e-05
-3.2020935e-07 0.14927137 -0.16049106 0.0003869452 -0.21011539 -0.10048106 0.14011252 -5.5153175e-09
-0.15846719 0.14470704 -1.6401255e-08 0.12671064 -5.378796e-09 2.9485718e-06 7.20903e-05 0.031679396
-3.3093617e-08 -0.12238543 0.009154287 0.00018630702 0.08100419 -0.3426846 -0.11063683 -0.25811112
0.18579513 0.020654226 -0.0006184485 1.8968827e-09 0.00014667373 -0.10386233 -2.5056105e-08 0.016507817
0.12826158 0.043281164 0.003991141 8.090444e-05 -4.3680437e-08 0.033228952 1.8497451e-07 -2.0125236e-07
-0.17136233 0.05851205 -0.065565914 -1.1902657e-07 -0.035423797 -0.057547152 3.2417645e-06 4.6398636e-06
8.5043474e-08 0.1335715 -0.0039219083 6.194522e-08 0.17771402 -0.12981024 0.020370515 0.018480571
-0.062387988 0.14647533 -0.112921596 -5.2555357e-08 -3.734924e-07 1.8673288e-07 -0.15328594 0.007219039
0.25968227 0.015066967 0.09628491 -0.17276168 0.05148987 -0.03543368 0.018464793 0.08703812
0.14254427 -2.4494068e-07 0.07037431 -2.327463e-09 0.0125889 0.060802937 3.5455912e-05 0.07494782
1.5556473e-07 -0.085974365 0.16258655 -0.05766888 0.033053055 -0.1582835 1.6604481e-05 -0.007949105
0.006450737 0.13301854 -0.058405764 0.34148765 0.0982691 -0.012652185 -1.8945122e-05 0.005249916
-0.23441713 -0.00683591 0.17736867 -2.6428233e-07 -0.13369411 -0.035065304 -0.17843804 4.7701736e-09
6.180484e-07 -0.031425446 1.532935e-06 -0.000528823 -4.1563417e-06 0.019610528 0.0006603279 0.06903515
-0.32087588 0.13226561 0.008554915 0.12500648 -0.15520655 -0.19305155 -0.24780725 -0.10315138
0.06324321 -0.009792947 -0.024770815 0.0005399947 -0.096047916 -0.13590318 -0.35144097 -0.028087744
00000000: ac55 f23a 8f70 0bbc def9 a3be ba2a d3bd
00000010: 4389 fcb1 d1e5 b1b2 acf5 05be daf8 a7bd
00000020: 11a0 acbd 1103 87be 96ed 563e d265 2bbd
00000030: f7d4 9137 8c75 93be ae82 3032 2c09 dfbd
00000040: 5e3a c8be e6df f53d 2c44 b3b8 665b 403d
00000050: 3765 13bd 8471 36be 5663 e4b0 3919 07bd
00000060: 59e2 a135 8ef6 22be 052b 1eb8 0569 2fbd
00000070: def9 2f3e 602e 3bb4 8258 f9bd d638 f83d
00000080: 1e96 8cbd 0262 8a36 fcc3 4b3e 26a8 8ab4
00000090: 2218 6f36 07e7 22be 3edd 403d 2952 eabd
000000a0: ef8e 2d3e 2655 a2bd 4541 d4bd 154a 313b
000000b0: f845 afbb 9aed 8dbe d4fc 523d 88b3 b132
000000c0: 8930 4737 9940 d9bd 542f 19be 9d28 1ebd
000000d0: 7144 9b3d 727b 8f33 daef 0d34 b845 073e
000000e0: 6550 c83c 794e 5c3d 8ec4 1838 f6f3 edb5
000000f0: d4e4 a834 3331 f33d 8788 c5bd 6818 353e
00000100: a2f9 03be 810d 67bd 17ef 103e 1b42 5bbd
00000110: df9b e0bc 560d c23c f68c 5b3d c060 1235
00000120: a8e7 04b3 65a7 a43a 2758 b53a fc32 95bc
00000130: a85b 3734 b9c7 61bd 042e 8dbe 642e 813d
00000140: e1c1 0e35 ffe3 423d 76b8 832d 663b 4cb8
00000150: 680f 103e 90a2 65be a87e 6630 fe5c d43d
00000160: 90de 0a3e 6530 103e a946 3e3d 11d6 17bd
00000170: d087 98be 6c8f 0235 d6d3 c434 a910 7b3b
00000180: 4696 19bd b811 6b3b 815d 783c 400e ae3a
00000190: 8b58 e63c 871e 073e 36f4 8cb7 6af3 9d31
000001a0: 2eb6 b2bc c7db 5e3e 412a 5435 5cfe 6534
000001b0: 623b 0fbe a2fc 10be ed4e a93d 8367 df3d
000001c0: 6642 ddb9 aa71 2e3e e77d a03d 83af a23d
000001d0: 4700 a539 a0a3 963d 202a 823e 0d16 36ba
000001e0: ceb7 0abe 6b46 02bd 2be0 66be 7b02 aeb6
000001f0: 0090 0abe eb9c 2a3e 50ec 5e3e 23d3 9837
00000200: 3de9 abb4 98da 183e c557 24be e8de ca39
00000210: 7d28 57be 04c9 cdbd a879 0f3e 3f81 bdb1
00000220: 3945 22be 152e 143e bee2 8cb2 6fc0 013e
00000230: 64d0 b8b1 14e0 4536 2f2f 9738 41c2 013d
00000240: d122 0eb3 36a5 fabd ddfb 153c 695b 4339
00000250: 86e5 a53d 5b74 afbe 9095 e2bd 2427 84be
00000260: 1441 3e3e 0d33 a93c 601f 22ba 505a 0231
00000270: 6ecc 1939 c6b5 d4bd f53a d7b2 673b 873c
00000280: 0157 033e 9747 313d 1ec8 823b 3eab a938
00000290: 269b 3bb3 151b 083d 689d 4634 d417 58b4
000002a0: 9b79 2fbe 55aa 6f3d 6c47 86bd 8d9b ffb3
000002b0: 8b18 11bd 90b6 6bbd 178d 5936 20b0 9b36
000002c0: 25a1 b633 f8c6 083e 5a83 80bb bf06 8533
000002d0: aafa 353e faec 04be 11e0 a63c 9164 973c
000002e0: 8c8a 7fbd a1fd 153e 7043 e7bd 3ab9 61b3
000002f0: 6884 c8b4 be80 4834 fdf6 1cbe b08d ec3b
00000300: 13f5 843e 71db 763c 0631 c53d 70e8 30be
00000310: 0be7 523d e822 11bd 7a43 973c 0b41 b23d
00000320: 20f7 113e 6480 83b4 6820 903d 29f1 1fb1
00000330: ac41 4e3c 800c 793d 7fb6 1438 3e7e 993d
00000340: 4f09 2734 5413 b0bd 177d 263e 3436 6cbd
00000350: a462 073d 1215 22be da49 8b37 f73c 02bc
00000360: b460 d33b 0336 083e e23a 6fbd 78d7 ae3e
00000370: 4f41 c93d 1c4b 4fbc 57ec 9eb7 7d07 ac3b
00000380: 0b0b 70be c5ff dfbb 22a0 353e b0e2 8db4
00000390: 1ce7 08be a3a0 0fbd 76b8 36be e4e6 a331
000003a0: f6e7 2535 f8b7 00bd 3fbf cd35 b6a0 0aba
000003b0: b476 8bb6 42a6 a03c db19 2d3a 4d62 8d3d
000003c0: d849 a4be a370 073e ea29 0c3c b301 003e
000003d0: 77ee 1ebe 4eaf 45be 2fc1 7dbe 0841 d3bd
000003e0: a885 813d 9972 20bc 2aec cabc 6e8e 0d3a
000003f0: c5b4 c4bd 342a 0bbe 12f0 b3be 4518 e6bc

fcs2.bias f4 [300]
0.032905027 -0.138993 -0.0004658634 -0.089230575 -0.080098785 -0.0001783395 -0.3387602 -0.00041357527
-9.072491e-05 0.38162395 0.050547693 -0.00015012322 -0.18535341 0.32472885 -0.22865905 -0.0004349182
-0.19383831 0.51443213 0.3484443 0.0046045682 -0.0021722016 -0.00034559466 0.13973121 -0.13557231
-0.0011030689 0.026442435 -0.0034165494 0.051945165 -0.00041119763 -0.002882414 -0.00077110017 0.11842768
-0.00031009948 -0.19070451 -0.0140813375 -0.077076405 -0.17376918 -0.06741956 -0.10769134 0.23042765
-0.0070564062 -0.000274883 -0.001279134 0.30196562 0.11510586 -0.0012676413 0.031013917 -0.39844382
-0.0013097185 0.030466624 -0.013578712 0.19176944 0.21911608 0.4815088 -0.14628452 0.5101187
-0.14998963 0.10564267 -0.0007322793 -0.11977627 -0.0015466624 0.15029371 -0.0007505454 -0.0030231879
0.10092006 -0.00034213057 -0.06840388 -0.0009894382 1.7540257 0.4021873 0.49957487 -0.0011287885
0.23372205 -0.050527006 0.40044826 -0.3251173 -0.011294759 -0.0073198327 -0.008208494 -0.18562667
0.15074974 -0.15656993 -0.18729626 -0.04009872 -0.0635326 -0.06911793 -0.0038950548 0.09948422
-0.00046238612 -0.0009635588 -0.11711582 -0.011724906 0.15274048 -0.06326221 0.2681723 0.31607783
-0.20924559 0.38568312 -0.087621294 -0.002323577 0.17469291 -0.37306178 -0.19587646 -0.1566187
0.0075364383 0.23134875 -0.005488309 -0.10973797 0.45287317 0.040301323 -6.865747e-05 0.5508936
-0.004326055 0.07684564 0.27830306 -0.0044309804 0.2534473 -0.116947204 -0.0002670067 -0.036060374
0.40657344 -0.07776541 0.019689754 -0.004790712 -0.1621188 -0.000101326266 -0.19067426 0.08424804
-0.0053104223 0.019111346 -0.0017094447 0.08207973 -0.00051059946 -0.0038540175 1.2060326 0.03951349
-0.05652136 -0.0025307673 -6.877051e-05 -0.22413123 0.0040755067 0.14586729 -0.15308838 -0.0008580701
-0.08420655 -0.0066519314 -0.0016256503 -0.55179846 -0.0051884884 -0.0015399589 -0.0013953269 -0.00030975757
0.4239322 -0.24441592 -0.006941881 0.5600338 -0.00020871521 -0.00043734355 -0.005462006 -7.289475e-05
-0.06438534 0.20814931 -0.19117315 0.15118821 -0.0032061033 -0.002221525 -0.0025805472 -0.004447132
0.21269444 -0.00053321646 -0.0014366294 -0.26715675 -0.0002735608 -0.004632639 -0.011072681 -0.003687627
-0.00059793843 0.18161182 -0.10171656 -0.00097128784 0.40533578 0.13174212 -0.24908483 0.06546535
-0.0015337911 0.10765416 -0.0010419573 -0.001851872 -0.19171429 -0.0003038293 0.085618295 -0.038481537
-0.0007684958 -8.7939465e-05 -0.16441788 -0.4329817 0.38922498 0.3239252 -0.0004094067 -0.00016943413
0.19352867 -0.31601617 0.30973017 -0.0849406 -0.08704995 -0.0036091409 -0.09439953 0.28224042
-0.00030826306 -0.47279868 -0.00031566765 -0.004009194 -0.7159026 -0.010379353 -0.18164499 -0.0017800397
-0.25428888 -0.0014332219 0.2551206 0.6525112 0.08462023 0.14019154 0.13083658 -0.120304234
0.16182967 0.5555258 -0.01143418 -0.00022056355 -0.0023392257 -0.0674397 0.48581043 0.11776254
-0.0049950685 -0.2463557 -0.006058979 -9.841287e-05 -0.16420862 -0.22995727 -0.015277649 0.03857779
-0.00083094893 0.06539453 -0.44889897 0.025229556 0.19282997 -0.0011276029 -0.00063440506 -0.0016797822
0.38048163 0.053162232 0.042794205 -0.4075476 0.26971158 -0.00036657005 -0.0096329255 0.35371655
00000000: 6cc7 063d 2e54 0ebe 213f f4b9 85be b6bd
00000010: d50a a4bd a500 3bb9 fa71 adbe 22d5 d8b9
00000020: 9143 beb8 3764 c33e 190b 4f3d 656a 1db9
00000030: 49cd 3dbe dc42 a63e 9925 6abe bc05 e4b9
00000040: 8d7d 46be d3b1 033f 4b67 b23e ebe1 963b
00000050: 7f5b 0ebb ee30 b5b9 b315 0f3e 78d3 0abe
00000060: da94 90ba ce9d d83c 30e8 5fbb 74c4 543d
00000070: 0396 d7b9 e2e6 3cbb a823 4aba 368a f23d
00000080: d994 a2b9 0b48 43be 69b5 66bc 3cda 9dbd
00000090: 8cf0 31be 4413 8abd 478d dcbd 3af5 6b3e
000000a0: 6d39 e7bb 2c1e 90b9 9da8 a7ba 3d9b 9a3e
000000b0: 9fbc eb3d fc26 a6ba e610 fe3c d400 ccbe
000000c0: dcaa abba 2495 f93c 3f79 5ebc 355f 443e
000000d0: f75f 603e 5288 f63e 9ccb 15be 2497 023f
000000e0: e296 19be 2f5b d83d 6ff6 3fba 434d f5bd
000000f0: 61b9 caba 98e6 193e 40c0 44ba ad20 46bb
00000100: 2daf ce3d fd5f b3b9 5517 8cbd 09b0 81ba
00000110: ea83 e03f 7eeb cd3e 47c8 ff3e dbf3 93ba
00000120: d554 6f3e 68f5 4ebd 8e07 cd3e c675 a6be
00000130: a70d 39bc 35db efbb eb7c 06bc eb14 3ebe
00000140: 245e 1a3e de53 20be 97ca 3fbe 8e3e 24bd
00000150: 611d 82bd b48d 8dbd 2d44 7fbb 62be cb3d
00000160: 6a6c f2b9 5697 7cba 6bda efbd d219 40bc
00000170: 0068 1c3e 9e8f 81bd e14d 893e f4d4 a13e
00000180: 7a44 56be 4278 c53e cb72 b3bd 2747 18bb
00000190: b3e2 323e f401 bfbe d793 48be a760 20be
000001a0: 3af4 f63b b0e6 6c3e 46d7 b3bb 4dbe e0bd
000001b0: fede e73e 0013 253d 33fc 8fb8 5d07 0d3f
000001c0: 94c1 8dbb 3f61 9d3d bd7d 8e3e c231 91bb
000001d0: d8c3 813e 0482 efbd 08fd 8bb9 0bb4 13bd
000001e0: 652a d03e 7943 9fbd 684c a13c 68fb 9cbb
000001f0: 7902 26be 207f d4b8 1d40 43be 3d8a ac3d
00000200: 0d03 aebb 668f 9c3c 720f e0ba 6b19 a83d
00000210: c0d9 05ba af93 7cbb 475f 9a3f e6d8 213d
00000220: f182 67bd 3bdb 25bb e338 90b8 a882 65be
00000230: d48b 853b 3c5e 153e 33c3 1cbe 1cf0 60ba
00000240: 7c74 acbd 72f8 d9bb c613 d5ba aa42 0dbf
00000250: 3204 aabb 72d8 c9ba 67e3 b6ba f566 a2b9
00000260: a40d d93e 2b48 7abe b878 e3bb 605e 0f3f
00000270: 90da 5ab9 424b e5b9 a1fa b2bb 12df 98b8
00000280: 76dc 83bd 1825 553e e5c2 43be 15d1 1a3e
00000290: 7d1d 52bb 0197 11bb 661e 29bb 3fb9 91bb
000002a0: 92cc 593e 8dc7 0bba 494d bcba c5c8 88be
000002b0: b66c 8fb9 64cd 97bb 316a 35bc 1dac 71bb
000002c0: f8be 1cba 73f8 393e c650 d0bd 069e 7eba
000002d0: 2c88 cf3e 68e7 063e 1810 7fbe b312 863d
000002e0: 7d09 c9ba c979 dc3d 4992 88ba 83ba f2ba
000002f0: c050 44be 474b 9fb9 a558 af3d d19e 1dbd
00000300: e174 49ba 246c b8b8 295d 28be c7af ddbe
00000310: 7f48 c73e 86d9 a53e a3a5 d6b9 21aa 31b9
00000320: 612c 463e dfcc a1be f494 9e3e 56f5 adbd
00000330: 3f47 b2bd 5687 6cbb 8a54 c1bd d181 903e
00000340: 5e9e a1b9 ab12 f2be 3280 a5b9 8f5f 83bb
00000350: 6545 37bf 290e 2abc 2501 3abe 3950 e9ba
00000360: 2732 82be f2da bbba 2b9f 823e f90a 273f
00000370: 5f4d ad3d 5f8e 0f3e 06fa 053e 1162 f6bd
00000380: adb6 253e f036 0e3f 6d56 3bbc 1447 67b9
00000390: b24d 19bb d31d 8abd 25bc f83e 7d2d f13d
000003a0: acad a3bb ab44 7cbe 668a c6bb 0263 ceb8
000003b0: 4e26 28be eb79 6bbe 1b4f 7abc bf03 1e3d
000003c0: 0ad4 59ba 91ed 853d 16d6 e5be 37ae ce3c
000003d0: 3875 453e 13cc 93ba 344e 26ba 232c dcba
000003e0: 7dce c23e a4c0 593d fa48 2f3d 14aa d0be
000003f0: a317 8a3e 3330 c0b9 6bd3 1dbc 561a b53e

fca1.weight f4 [300, 4]
-0.33677664 -0.11558318 -0.042827323 0.11912565 -0.03935953 -0.040648274 -0.021850223 0.01670702
-0.00048948114 0.00023044793 -0.0001066576 -0.000277844 0.38274446 -0.44343734 -0.28457734 -0.01823977
0.03862366 -0.052259512 0.09266961 0.13842262 -0.00015736447 6.842104e-05 -3.3707445e-05 -0.00015953915
0.014898667 0.00042245755 -0.023541722 -0.05163386 8.0769794e-05 -0.00029569556 -5.1590337e-06 -0.0004887483
0.00019351351 -8.693176e-05 1.0446855e-05 0.00020204141 0.20048939 0.4382126 -0.3362735 -0.23112957
-0.8050327 -0.8302985 -0.054407075 0.14242004 3.385987e-05 -6.436168e-05 -0.00013397708 -0.00018161935
-0.07839069 0.14943422 -0.050493985 0.032341108 0.37317285 0.25970277 -0.17758143 -0.27084297
-0.12320085 -0.02119909 0.07513922 -0.071590096 0.0019145326 -0.005814332 -0.0056189643 0.0010189369
0.18137886 -0.096955985 -0.02305407 -0.032473568 -0.21396124 -0.40686914 0.060421467 0.028252324
-0.056848142 0.109763294 -0.041013047 -0.0698686 0.119701356 -0.52645093 0.00046977136 0.038456693
-0.0016501796 0.0004266427 0.0008560981 -0.0014035217 -0.0022958787 0.0022137272 0.0016222092 -0.000114560295
0.11732584 0.2178554 -0.1832893 -0.0819887 -0.0515991 -0.060544077 -0.14087798 -0.017109849
-0.0006281502 -0.0005260697 -0.0015139633 -0.00037398317 0.029319998 0.15110819 -0.03878751 0.011663865
0.0025066538 -0.005367888 -0.0029055881 -0.0048454925 0.19809471 -0.103035204 -0.06861134 0.13885687
0.00025749626 -0.00022119071 -0.00026044893 1.4995427e-05 0.001979229 -0.00076610735 -0.0007521756 -0.0025459128
-0.00036212677 -5.309229e-05 -0.0004961857 -0.0012691261 -0.11663696 0.019797243 -0.16047864 0.1369341
-5.9739004e-06 -8.777338e-05 -7.5812226e-05 -0.00022685078 -0.06411619 0.2751789 0.04803093 0.061055806
0.0257505 0.048145607 0.20743671 -0.12252623 -0.025937514 0.049097795 0.41540766 0.086259164
0.0061819265 0.054289892 0.0693804 0.03280032 -0.06548636 0.05143347 0.05812267 0.06149112
0.0040895194 0.13558075 0.39726245 0.09807337 -0.27214253 -0.32211655 0.3045583 0.25875592
0.0035520196 -0.009297456 0.0067749266 -0.0070164367 3.638966e-05 -0.0003583117 -7.638696e-05 -0.00013095897
0.00013815267 -0.0010861997 -0.0016764306 0.0003500981 0.046306465 0.09481158 -0.118413694 0.09272153
0.24382694 0.06682859 0.078068085 -0.01820818 0.00043135846 -0.002047545 -0.0004747272 -0.0002236363
0.021459604 0.051258814 0.079447605 -0.07606771 -0.012700327 0.027070176 -0.13169846 -0.12128507
0.00088504166 -0.00031533695 0.002109137 -0.0007891352 -0.6852197 0.22363423 -0.063374855 0.09606912
-0.0017537775 -0.017362986 0.016016653 -0.009038676 0.21133775 -0.10469642 -0.2837204 -0.00050249393
-0.08582371 0.15841974 -0.06239964 0.007977731 0.078413114 0.07251174 0.058688313 -0.16139403
0.0057355757 0.058374707 0.1220068 0.060743194 0.113355845 0.04317018 -0.009027056 -0.06613023
0.08926467 0.052556932 0.22406262 0.08875189 0.079516634 -0.292061 0.18855122 0.20759436
0.00018824209 -0.0010656457 -0.0006330427 -0.0016985321 0.06752568 0.07268416 -0.34559053 0.021976102
0.0006584528 0.0009780475 -0.0017299444 -0.0014270897 -0.46893626 -0.00895472 0.046015628 0.1427376
0.00072755816 -0.001183127 -0.0010967724 0.00016697685 -0.0013080786 -0.0015363051 -0.0015695805 0.0010364583
00000000: fd6d acbe e0b6 ecbd b46b 2fbd 26f8 f33d
00000010: 7537 21bd ce7e 26bd 3dff b2bc 29dd 883c
00000020: 8650 00ba 65a4 7139 5dad dfb8 97ab 91b9
00000030: 15f7 c33e 380a e3be 1fb4 91be 926b 95bc
00000040: d833 1e3d 120e 56bd 91c9 bd3d a9be 0d3e
00000050: 3402 25b9 447d 8f38 1861 0db8 f749 27b9
00000060: 8a19 743c 4b7d dd39 92da c0bc 077e 53bd
00000070: f462 a938 9607 9bb9 c31b adb6 581f 00ba
00000080: e3e9 4a39 224f b6b8 e744 2f37 14db 5339
00000090: 174d 4d3e 675d e03e 0a2c acbe 3bad 6cbe
000000a0: 9f16 4ebf 718e 54bf f4d9 5ebd 8fd6 113e
000000b0: c204 0e38 eaf9 86b8 337c 0cb9 1371 3eb9
000000c0: 4c8b a0bd 4905 193e c8d2 4ebd 1c78 043d
000000d0: 8310 bf3e c3f7 843e e8d7 35be eeab 8abe
000000e0: ba50 fcbd b7a9 adbc 97e2 993d d49d 92bd
000000f0: 0ef1 fa3a 2786 bebb 4a1f b8bb d98d 853a
00000100: 61bb 393e dc90 c6bd e4db bcbc 0103 05bd
00000110: a818 5bbe 2751 d0be 807c 773d 6b71 e73c
00000120: 99d9 68bd 94cb e03d 4cfd 27bd 4517 8fbd
00000130: fc25 f53d 7dc5 06bf a54b f639 c484 1d3d
00000140: d74a d8ba 04af df39 c56b 603a 60f6 b7ba
00000150: 7476 16bb 2e14 113b 4fa0 d43a 1740 f0b8
00000160: 8848 f03d 7c15 5f3e 31b0 3bbe b1e9 a7bd
00000170: 9459 53bd 11fd 77bd 5142 10be f429 8cbc
00000180: 72aa 24ba f1e7 09ba 2e70 c6ba 2c13 c4b9
00000190: 7e30 f03c 1bbc 1a3e a7df 1ebd cc19 3f3c
000001a0: ac46 243b 1ce5 afbb ae6b 3ebb f0c6 9ebb
000001b0: 57d9 4a3e 1f04 d3bd 1a84 8cbd 7f30 0e3e
000001c0: 9000 8739 6eef 67b9 dd8c 88b9 de94 7b37
000001d0: f4b5 013b 98d4 48ba a62d 45ba 54d9 26bb
000001e0: d5db bdb9 6aaf 5eb8 7512 02ba ce58 a6ba
000001f0: 5cdf eebd d42d a23c 8354 24be 7438 0c3e
00000200: 6a73 c8b6 f912 b8b8 61fd 9eb8 cbde 6db9
00000210: 594f 83bd 40e4 8c3e 15bc 443d a715 7a3d
00000220: b6f2 d23c 5434 453d 4a6a 543e 08ef fabd
00000230: e97a d4bc c51a 493d 50b0 d43e a5a8 b03d
00000240: c291 ca3b 145f 5e3d 5017 8e3d a159 063d
00000250: b61d 86bd e7ab 523d 0912 6e3d 1dde 7b3d
00000260: 6001 863b aed5 0a3e fc65 cb3e b1da c83d
00000270: 4456 8bbe 76ec a4be 11ef 9b3e a87b 843e
00000280: 00c9 683b 5b54 18bc 3400 de3b 23ea e5bb
00000290: 1aa1 1838 c8db bbb9 f031 a0b8 0852 09b9
000002a0: 13dd 1039 d05e 8eba adbb dbba 5f8d b739
000002b0: d9ab 3d3d 932c c23d e182 f2bd c9e4 bd3d
000002c0: c5ad 793e 6edd 883d 29e2 9f3d 5229 95bc
000002d0: f427 e239 1b30 06bb cee4 f8b9 ea7f 6ab9
000002e0: 0dcc af3c c3f4 513d 6db5 a23d 63c9 9bbd
000002f0: 0815 50bc 46c2 dd3c f6db 06be 4f64 f8bd
00000300: 2402 683a cf53 a5b9 7239 0a3b f8dd 4eba
00000310: 8f6a 2fbf 5f00 653e adca 81bd e3bf c43d
00000320: 02df e5ba d23c 8ebc 5b35 833c f416 14bc
00000330: ec68 583e 146b d6bd cd43 91be ccb9 03ba
00000340: 57c4 afbd c938 223e c496 7fbd 07b5 023c
00000350: 0e97 a03d 0981 943d 2863 703d 7a44 25be
00000360: 7ff1 bb3b 511a 6f3d b3de f93d dbcd 783d
00000370: 1c27 e83d 37d3 303d 38e6 13bc 496f 87bd
00000380: 65d0 b63d f045 573d ac70 653e 8dc3 b53d
00000390: 9ed9 a23d 0589 95be 9213 413e 9e93 543e
000003a0: da62 4539 23ad 8bba c7f2 25ba 48a1 deba
000003b0: e74a 8a3d 6fdb 943d 3ef1 b0be 3a07 b43c
000003c0: 059c 2c3a d431 803a 4dbf e2ba 2f0d bbba
000003d0: 6a18 f0be d1b6 12bc e27a 3c3d ce29 123e
000003e0: 9ab9 3e3a 2813 9bba 93c1 8fba 8216 2f39
000003f0: d673 abba d85d c9ba 62ba cdba c5d9 873a

fca1.bias f4 [300]
0.032905027 -0.138993 -0.0004658634 -0.089230575 -0.080098785 -0.0001783395 -0.3387602 -0.00041357527
-9.072491e-05 0.43122515 0.06081355 -0.00015012322 -0.18570548 0.35603586 -0.22865905 -0.0004349182
-0.19383831 0.5338514 0.34315303 0.0046045682 -0.0021722016 -0.00034559466 0.13973121 -0.13538972
-0.0011030689 0.026442435 -0.0034165494 0.051945165 -0.00041119763 -0.002882414 -0.00077110017 0.11842768
-0.00031009948 -0.19070451 -0.0140813375 -0.077076405 -0.17376918 -0.06741956 -0.10769134 0.24670531
-0.0070564062 -0.000274883 -0.001279134 0.30196562 0.118007675 -0.0012676413 0.031013917 -0.39701432
-0.0013097185 0.030466624 -0.013578712 0.19176944 0.21911608 0.48141873 -0.14628452 0.5295793
-0.14998963 0.10564267 -0.0007322793 -0.11977627 -0.0015466624 0.15029371 -0.0007505454 -0.0030231879
0.10092006 -0.00034213057 -0.06840388 -0.0009894382 1.7938243 0.4704965 0.5133612 -0.0011287885
0.23372205 -0.050527263 0.44212517 -0.3251173 -0.011294759 -0.0073198327 -0.008208494 -0.18562667
0.15074974 -0.15656993 -0.18729626 -0.04009872 -0.0635326 -0.06911793 -0.0038950548 0.09948422
-0.00046238612 -0.0009635588 -0.11711582 -0.009601739 0.15274048 -0.06326221 0.24711245 0.3486614
-0.20924559 0.38568312 -0.087621294 -0.002323577 0.17469291 -0.37294027 -0.19587646 -0.15661807
0.0075364383 0.21632203 -0.005488309 -0.10973797 0.45313007 0.040301323 -6.865747e-05 0.59471285
-0.004326055 0.07684564 0.29005095 -0.0044309804 0.28171173 -0.116936564 -0.0002670067 -0.036060374
0.46307048 -0.07776541 0.019689754 -0.004790712 -0.1621188 -0.000101326266 -0.19067426 0.08424804
-0.0053104223 0.019111346 -0.0017094447 0.08207973 -0.00051059946 -0.0038540175 1.1896327 0.039439555
-0.05652136 -0.0025307673 -6.877051e-05 -0.22413123 0.0040755067 0.14586729 -0.15308838 -0.0008580701
-0.08420655 -0.0066519314 -0.0016256503 -0.55180764 -0.0051884884 -0.0015399589 -0.0013953269 -0.00030975757
0.42586765 -0.24441667 -0.006941881 0.52688164 -0.00020871521 -0.00043734355 -0.005462006 -7.289475e-05
-0.061430275 0.20814931 -0.19117315 0.15118821 -0.0032061033 -0.002221525 -0.0025805472 -0.004447132
0.21269444 -0.00053321646 -0.0014366294 -0.26715675 -0.0002735608 -0.004632639 -0.011072681 -0.003687627
-0.00059793843 0.2102366 -0.10171656 -0.00097128784 0.4715426 0.13174212 -0.24908483 0.07614954
-0.0015337911 0.10765416 -0.0010419573 -0.001851872 -0.19171429 -0.0003038293 0.085618295 -0.038481537
-0.0007684958 -8.7939465e-05 -0.16441788 -0.4336901 0.41020104 0.3797316 -0.0004094067 -0.00016943413
0.19352867 -0.31601617 0.35753337 -0.0849406 -0.08704995 -0.0036091409 -0.09439953 0.28224042
-0.00030826306 -0.47301123 -0.00031566765 -0.004009194 -0.717279 -0.010379353 -0.18164499 -0.0017800397
-0.25428888 -0.0014332219 0.29996732 0.67580944 0.08462023 0.14019154 0.13083658 -0.120304234
0.16182967 0.57824117 -0.01143418 -0.00022056355 -0.0023392257 -0.06688936 0.49430847 0.11776254
-0.0049950685 -0.24546866 -0.006058979 -9.841287e-05 -0.16420862 -0.23005033 -0.015277649 0.03857779
-0.00083094893 0.06539453 -0.44870988 0.025437538 0.2237887 -0.0011276029 -0.00063440506 -0.0016797822
0.34911916 0.052462723 0.042794205 -0.4090142 0.27606323 -0.00036657005 -0.0096329255 0.41866887
00000000: 6cc7 063d 2e54 0ebe 213f f4b9 85be b6bd
00000010: d50a a4bd a500 3bb9 fa71 adbe 22d5 d8b9
00000020: 9143 beb8 8bc9 dc3e a117 793d 656a 1db9
00000030: 9429 3ebe 554a b63e 9925 6abe bc05 e4b9
00000040: 8d7d 46be 7caa 083f c1b1 af3e ebe1 963b
00000050: 7f5b 0ebb ee30 b5b9 b315 0f3e 9aa3 0abe
00000060: da94 90ba ce9d d83c 30e8 5fbb 74c4 543d
00000070: 0396 d7b9 e2e6 3cbb a823 4aba 368a f23d
00000080: d994 a2b9 0b48 43be 69b5 66bc 3cda 9dbd
00000090: 8cf0 31be 4413 8abd 478d dcbd 51a0 7c3e
000000a0: 6d39 e7bb 2c1e 90b9 9da8 a7ba 3d9b 9a3e
000000b0: 02ae f13d fc26 a6ba e610 fe3c 7645 cbbe
000000c0: dcaa abba 2495 f93c 3f79 5ebc 355f 443e
000000d0: f75f 603e 847c f63e 9ccb 15be 8292 073f
000000e0: e296 19be 2f5b d83d 6ff6 3fba 434d f5bd
000000f0: 61b9 caba 98e6 193e 40c0 44ba ad20 46bb
00000100: 2daf ce3d fd5f b3b9 5517 8cbd 09b0 81ba
00000110: 099c e53f ebe4 f03e a46b 033f dbf3 93ba
00000120: d554 6f3e adf5 4ebd 3b5e e23e c675 a6be
00000130: a70d 39bc 35db efbb eb7c 06bc eb14 3ebe
00000140: 245e 1a3e de53 20be 97ca 3fbe 8e3e 24bd
00000150: 611d 82bd b48d 8dbd 2d44 7fbb 62be cb3d
00000160: 6a6c f2b9 5697 7cba 6bda efbd 9d50 1dbc
00000170: 0068 1c3e 9e8f 81bd 0c0b 7d3e bf83 b23e
00000180: 7a44 56be 4278 c53e cb72 b3bd 2747 18bb
00000190: b3e2 323e 07f2 bebe d793 48be 7d60 20be
000001a0: 3af4 f63b 8683 5d3e 46d7 b3bb 4dbe e0bd
000001b0: aa00 e83e 0013 253d 33fc 8fb8 1a3f 183f
000001c0: 94c1 8dbb 3f61 9d3d 8f81 943e c231 91bb
000001d0: 853c 903e 707c efbd 08fd 8bb9 0bb4 13bd
000001e0: 9317 ed3e 7943 9fbd 684c a13c 68fb 9cbb
000001f0: 7902 26be 207f d4b8 1d40 43be 3d8a ac3d
00000200: 0d03 aebb 668f 9c3c 720f e0ba 6b19 a83d
00000210: c0d9 05ba af93 7cbb e245 983f 5f8b 213d
00000220: f182 67bd 3bdb 25bb e338 90b8 a882 65be
00000230: d48b 853b 3c5e 153e 33c3 1cbe 1cf0 60ba
00000240: 7c74 acbd 72f8 d9bb c613 d5ba 4443 0dbf
00000250: 3204 aabb 72d8 c9ba 67e3 b6ba f566 a2b9
00000260: 530b da3e 5d48 7abe b878 e3bb b7e1 063f
00000270: 90da 5ab9 424b e5b9 a1fa b2bb 12df 98b8
00000280: 509e 7bbd 1825 553e e5c2 43be 15d1 1a3e
00000290: 7d1d 52bb 0197 11bb 661e 29bb 3fb9 91bb
000002a0: 92cc 593e 8dc7 0bba 494d bcba c5c8 88be
000002b0: b66c 8fb9 64cd 97bb 316a 35bc 1dac 71bb
000002c0: f8be 1cba 4348 573e c650 d0bd 069e 7eba
000002d0: 086e f13e 68e7 063e 1810 7fbe 4af4 9b3d
000002e0: 7d09 c9ba c979 dc3d 4992 88ba 83ba f2ba
000002f0: c050 44be 474b 9fb9 a558 af3d d19e 1dbd
00000300: e174 49ba 246c b8b8 295d 28be a10c debe
00000310: df05 d23e 2e6c c23e a3a5 d6b9 21aa 31b9
00000320: 612c 463e dfcc a1be 9d0e b73e 56f5 adbd
00000330: 3f47 b2bd 5687 6cbb 8a54 c1bd d181 903e
00000340: 5e9e a1b9 872e f2be 3280 a5b9 8f5f 83bb
00000350: 999f 37bf 290e 2abc 2501 3abe 3950 e9ba
00000360: 2732 82be f2da bbba 5195 993e d901 2d3f
00000370: 5f4d ad3d 5f8e 0f3e 06fa 053e 1162 f6bd
00000380: adb6 253e 9d07 143f 6d56 3bbc 1447 67b9
00000390: b24d 19bb 4afd 88bd 0016 fd3e 7d2d f13d
000003a0: acad a3bb 235c 7bbe 668a c6bb 0263 ceb8
000003b0: 4e26 28be 5092 6bbe 1b4f 7abc bf03 1e3d
000003c0: 0ad4 59ba 91ed 853d 4dbd e5be 6262 d03c
000003d0: dd28 653e 13cc 93ba 344e 26ba 232c dcba
000003e0: bfbf b23e 27e3 563d fa48 2f3d 4f6a d1be
000003f0: 2958 8d3e 3330 c0b9 6bd3 1dbc c45b d63e

fc1.weight f4 [1, 300]
-1.7735387 1.7433931 -7.663483e-05 -1.52973 -2.1210983 0.00068989635 0.99586624 0.0018507368
6.1007893e-05 -1.5250927 -2.1253085 -0.006631968 -1.5975871 -1.273512 -0.5294974 -0.0016614484
1.8697546 -1.7882236 -1.3617892 -1.4941962 0.0018122087 -0.0004797708 -2.8417869 -1.1217464
-0.0016009187 -2.2921999 -0.0032439423 1.9819003 0.00023326588 0.010455363 0.015445924 -1.815364
-0.002118483 -0.70815563 -1.8535209 -1.5497046 0.9587151 1.4624918 -1.9024662 -1.1073318
0.0027037526 -0.00034674173 -0.0023652765 1.4388607 -2.0627322 0.0031823963 -1.2340606 -1.5937731
-0.0045110644 -2.7574515 0.0022700226 0.48594344 1.3123393 -1.5970684 -0.895999 -1.2640293
-2.1921463 -1.0010208 0.00030110084 -1.4963316 -0.013914141 2.2770593 -0.00017907035 0.013591591
1.782067 9.348755e-05 0.7867264 -0.0073922034 2.4618082 -1.6632248 -1.555262 0.0010968465
1.7399467 -1.3286085 -1.2006675 -1.8890076 -2.1311734 0.0011764518 0.4578419 -1.3736602
-3.158473 -0.6531199 1.0709577 -1.6147766 -1.6810544 -1.8619442 8.951618e-05 -2.0263672
-6.435943e-05 2.0622849e-05 -1.9361885 -1.7954214 1.3426386 -2.1625237 -0.5346212 -1.0367161
-1.480488 0.79436904 -1.789402 0.00050278887 0.81455296 -1.4908693 -1.9471843 -2.7573912
1.2062086 -0.9756757 0.0053341025 -0.7462748 0.68119705 -1.6239595 -3.0894313e-07 -1.5481604
0.0025972787 2.1095755 -2.0213132 -0.00159435 -2.0181203 -1.1154246 -0.00029226678 -0.47870338
-1.6900413 -1.4712782 -2.2931635 -0.00032782086 -1.1322123 -0.0010798647 -1.9873803 -1.2798523
0.0019902939 -1.5607972 -0.0024324588 -2.8050888 0.0015599915 -0.0007356174 1.0453862 -1.300946
-2.2012424 0.0036371124 2.6316018e-06 -0.44359955 -2.149148 2.030218 -0.96840686 -0.0012284579
-1.7623237 -0.0015058436 0.0071338066 -1.2195513 -0.0026749365 -0.00094057084 0.0030021092 7.778217e-06
1.6666969 -0.59786594 -0.0026699698 -1.4138772 0.00014708305 -0.0003320264 -0.0017197363 0.0019116855
-2.2563453 0.9028683 -0.5513194 -2.9596653 -7.24365e-05 -0.0010112928 0.0012100004 -1.8724345e-06
2.2905908 -0.0018025723 -0.0033795012 1.5460321 -3.092328e-05 0.0012348022 0.0071236235 -0.0008433017
-0.00011935815 -1.8253969 -1.5729197 -0.012258638 -1.2025414 0.9592322 -0.6084408 -1.7370179
0.00044584053 3.188416 -0.00046197034 0.003239155 -1.4844748 0.001336735 1.4401371 -1.4274293
-0.00010105637 0.005194063 -1.4142096 -1.8924865 -1.4379648 -1.075234 -3.508917e-05 -0.002448443
2.4596155 2.3329923 -1.2291683 -1.408628 -1.2850102 -0.0007327418 -2.0924063 0.8440221
1.7770102 -1.8827847 -0.00033294017 0.0029082133 -2.2877676 -0.00010186238 -0.4003972 0.00789517
1.644644 0.0075141415 -0.8602506 -1.8541946 -2.26347 -2.2088075 2.2496097 1.0062327
-2.4484735 -2.0470915 0.8068112 0.0018715259 -0.0053519593 -2.2688096 -1.5724401 2.3495922
-0.0030199576 -0.5998119 0.0012407033 -4.0374896e-05 -1.7270641 -0.52730364 -1.8135947 -2.11395
-0.0099386135 2.1486876 -0.64459854 -2.7490382 -0.8183294 0.0013860245 0.006195152 -0.008385186
-1.1663972 -1.9045122 -1.9417166 -1.552099 -1.2583257 -0.008325709 0.01190303 -1.2803248
00000000: 5103 e3bf 8127 df3f 03b7 a0b8 31ce c3bf
00000010: 13c0 07c0 29da 343a 17f1 7e3f 6c94 f23a
00000020: bae2 7f38 3d36 c3bf 0e05 08c0 fb50 d9bb
00000030: bc7d ccbf 7102 a3bf 248d 07bf f5c4 d9ba
00000040: 1e54 ef3f 83e4 e4bf 1c4f aebf d241 bfbf
00000050: a287 ed3a bf89 fbb9 d6df 35c0 6395 8fbf
00000060: ebd5 d1ba 67b3 12c0 5298 54bb e9ae fd3f
00000070: d598 7439 f94c 2b3c e710 7d3c d95d e8bf
00000080: 3fd6 0abb b049 35bf 2c40 edbf b85c c6bf
00000090: 5a6e 753f ee32 bb3f 0384 f3bf 0cbd 8dbf
000000a0: 7131 313b e3ca b5b9 c102 1bbb 962c b83f
000000b0: ce03 04c0 c08f 503b b3f5 9dbf c200 ccbf
000000c0: 8dd1 93bb 167a 30c0 a9c4 143b 94cd f83e
000000d0: bcfa a73f bd6c ccbf 3160 65bf b6cb a1bf
000000e0: 204c 0cc0 7321 80bf 12dd 9d39 cb87 bfbf
000000f0: 23f8 63bc 57bb 1140 d5c4 3bb9 44af 5e3c
00000100: c51a e43f bf0e c438 e766 493f 4c3a f2bb
00000110: 448e 1d40 8de4 d4bf d312 c7bf 10c4 8f3a
00000120: 93b6 de3f d80f aabf 79af 99bf 00cb f1bf
00000130: 2565 08c0 2c33 9a3a 416a ea3e 19d4 afbf
00000140: 6c24 4ac0 de32 27bf 2415 893f 00b1 cebf
00000150: ca2c d7bf 3054 eebf a2ba bb38 00b0 01c0
00000160: b5f8 86b8 3bff ac37 06d5 f7bf 5ed0 e5bf
00000170: 95db ab3f ca66 0ac0 efdc 08bf 1db3 84bf
00000180: a180 bdbf c55b 4b3f 200b e5bf 97cd 033a
00000190: 8b86 503f ced4 bebf 563d f9bf 1979 30c0
000001a0: 0b65 9a3f e2c5 79bf b2c9 ae3b de0b 3fbf
000001b0: ee62 2e3f e8dd cfbf d2dc a5b4 1f2a c6bf
000001c0: 1b37 2a3b 4903 0740 325d 01c0 82f9 d0ba
000001d0: e228 01c0 3cc6 8ebf 623b 99b9 9c18 f5be
000001e0: 4653 d8bf d852 bcbf 31c3 12c0 5fdf abb9
000001f0: 55ec 90bf 3f8a 8dba 7a62 febf 33d2 a3bf
00000200: 976f 023b 34c8 c7bf e369 1fbb 9386 33c0
00000210: a178 cc3a 73d6 40ba 37cf 853f 6685 a6bf
00000220: 28e1 0cc0 9f5c 6e3b 939a 3036 7b1f e3be
00000230: a48b 09c0 17ef 0140 83e9 77bf 3504 a1ba
00000240: d393 e1bf ba5f c5ba b5c2 e93b 421a 9cbf
00000250: fd4d 2fbb a490 76ba 09bf 443b 307f 0237
00000260: 5356 d53f be0d 19bf a9fa 2ebb eef9 b4bf
00000270: 4e3a 1a39 d413 aeb9 c668 e1ba 8591 fa3a
00000280: f667 10c0 6022 673f 4523 0dbf 286b 3dc0
00000290: 0de9 97b8 5b8d 84ba e098 9e3a 5c50 fbb5
000002a0: 0a99 1240 4a44 ecba 9f7a 5dbb 61e4 c53f
000002b0: 9eb3 01b8 16d9 a13a 496d e93b 0511 5dba
000002c0: eb4f fab8 9ba6 e9bf 6f55 c9bf 74d8 48bc
000002d0: e0ec 99bf 3e90 753f c7c2 1bbf 9a56 debf
000002e0: b4bf e939 020f 4c40 9c34 f2b9 0148 543b
000002f0: 4503 bebf 6235 af3a 6a56 b83f 01b6 b6bf
00000300: 3aee d3b8 f532 aa3b d204 b5bf ff3c f2bf
00000310: 3b0f b8bf 45a1 89bf b62c 13b8 0f76 20bb
00000320: 576a 1d40 bf4f 1540 6355 9dbf ec4d b4bf
00000330: 377b a4bf 7815 40ba fce9 05c0 d511 583f
00000340: 1275 e33f 17ff f0bf 798e aeb9 b997 3e3b
00000350: c96a 12c0 f39e d5b8 dd00 cdbe be5a 013c
00000360: b283 d23f 3039 f63b 6239 5cbf 4056 edbf
00000370: b1dc 10c0 1a5d 0dc0 9bf9 0f40 3ccc 803f
00000380: cab3 1cc0 8c03 03c0 2e8b 4e3f fd4d f53a
00000390: 7d5f afbb 2d34 11c0 b845 c9bf b85f 1640
000003a0: 7bea 45bb 468d 19bf 189f a23a 3758 29b8
000003b0: 7010 ddbf 5ffd 06bf df23 e8bf f54a 07c0
000003c0: 91d5 22bc 1984 0940 6904 25bf 3ef0 2fc0
000003d0: 097e 51bf 44ab b53a b400 cb3b 0562 09bc
000003e0: 814c 95bf 0ec7 f3bf 2b8a f8bf 2eab c6bf
000003f0: d110 a1bf 8e68 08bc ed04 433c afe1 a3bf
