bipedal-walker/weights-hardcore/1checkpoint_actor.pth (torch_old, 802636 bytes, 14 tensors)

fc1.weight f4 [600, 24]
000000 ac 24 13 bd 0c 2b 94 bd 46 65 9e be b4 fe 50 be
       -0.035923645 -0.07234773 -0.3093664 -0.20409662
000010 b2 32 7f 3c 80 2a 6c 3d c6 6d 6d 3d b6 60 b2 3d
       0.015576052 0.05765772 0.057966016 0.087098524
000020 6a c4 99 3e 8b 5e c4 3d a3 62 d1 bd fe f9 78 3d
       0.30032665 0.09588345 -0.102238916 0.060785286
000030 17 62 09 bd 94 e0 41 bd a3 a6 28 be 78 9f ba bd
       -0.03354081 -0.047333315 -0.16469817 -0.091124475
000040 9a 5b ef 3d 4f 9c 43 3e 0e 92 e1 3c 26 13 1e bd
       0.116873935 0.19102596 0.027535465 -0.03859248
000050 23 3d 42 3e 90 15 6e 3e da bf 98 3d a4 5c 4b 3e
       0.18968634 0.23250413 0.07458468 0.19859558
000060 f6 63 a5 be de 39 9c be 0b 2c ea 3e c8 a8 1d be
       -0.32302827 -0.305129 0.45736727 -0.15396416
000070 10 66 c4 bd b3 37 6a 3d fa aa ae 3d 86 72 6d 3d
       -0.095897794 0.057182025 0.08528705 0.057970546
000080 cc a1 85 bd 61 f3 7e 3c 5b 3e a6 bd 2f 07 36 be
       -0.06525001 0.015560956 -0.08117362 -0.17776178
000090 b0 e5 12 bc 3f ea 92 3d 2c c8 0e 3e 6d 1a 22 3e
       -0.008965895 0.07173585 0.13943547 0.15830393
0000a0 6c 0d eb 3c d5 f7 52 be 7e be d6 bd 03 54 03 be
       0.028692923 -0.20602353 -0.10485552 -0.12825017
0000b0 0d d1 05 be ff 62 8c bb 1f 44 91 3e e2 68 91 3d
       -0.13068028 -0.004284262 0.28372285 0.07100083
0000c0 d0 8c 1c be 90 49 82 bd e4 5d 9e 3e d1 8a 0d 3f
       -0.1528809 -0.06361687 0.30931008 0.5528994
0000d0 df d6 0f 3d 42 ce 11 3d b7 c9 1e 3e 63 65 0c bd
       0.035117026 0.035597093 0.15506636 -0.034276377
0000e0 13 fc 29 3d 70 c1 b2 bd c5 29 25 be a7 4d 9d 3a
       0.041500162 -0.087283015 -0.16129215 0.0012001292
0000f0 84 f9 ae 3c f4 ef 50 bd d8 1b 7b be 1e 7f 70 bd
       0.021359213 -0.051010087 -0.2452234 -0.05871498
000100 92 8f 7a bd 7b 4f 34 be 2d b1 e8 bd ad 84 f4 bd
       -0.061172076 -0.17608444 -0.113619186 -0.119393684
000110 aa 54 df 3d f6 2d 4d 3e 5c cd 4c be 6d ae e6 bc
       0.1090482 0.20037064 -0.20000213 -0.028159345
000120 62 2d bd 3d a0 3b b9 3e ac b9 74 3e f3 52 f9 3d
       0.09237172 0.36178303 0.23898953 0.121740244
000130 7a 35 39 bd 36 07 2c be 2e fc 2d 3d 78 0b 48 be
       -0.045217015 -0.16799626 0.042476825 -0.19535625
000140 35 c4 3e be b6 ca 00 3e ac c2 fa 3d 44 1c 04 be
       -0.18629535 0.12577328 0.12244162 -0.12901407
000150 96 ec 42 3e c5 d0 c2 bd 88 34 8e 3c 4c 61 58 bc
       0.19035563 -0.09512476 0.017359033 -0.013206791
000160 ba 74 c2 3d 84 22 84 bd 1c f6 18 3e 37 66 f6 3d
       0.0949492 -0.06451896 0.14937633 0.12031215
000170 b9 cc 34 3e e2 c3 4d 3d ff b3 c4 be 6b 5c 76 be
       0.1765622 0.050235637 -0.38418576 -0.24058692
000180 c2 49 99 3e 32 fa e7 3e 16 5f aa be 2d 24 22 3e
       0.29939085 0.4530807 -0.3327567 0.15834112
000190 9a 18 4d 3e b8 49 d9 bc b5 c4 0c be d4 07 40 bc
       0.20028916 -0.02652441 -0.13746913 -0.011720616
0001a0 fd 91 17 3e d1 60 b4 3d 3b 42 d5 3c d7 d0 b4 3b
       0.14801784 0.08807529 0.026032558 0.0055180597
0001b0 44 f2 34 3b 86 5a a7 bb fb e5 34 3d 09 dd 75 3e
       0.0027610222 -0.005107227 0.04416464 0.240101
0001c0 a3 12 c6 3d a9 fd b2 3e 5d 7f 26 3e 49 ff 6b 3c
       0.096715234 0.34959152 0.16259523 0.014404126
0001d0 26 cc eb 3d 62 12 03 3e 98 7f 3b 3e 96 04 35 3e
       0.115135476 0.12799981 0.18310392 0.1767753
0001e0 ba 8d 0c 3e b6 7d 19 3e 95 d3 10 bd cf 04 be 3e
       0.1372594 0.14989361 -0.03535803 0.37113044
0001f0 18 55 ae bd 70 ba 3e bc 20 05 27 be 46 67 12 be
       -0.08512324 -0.01164113 -0.16310549 -0.14297208
000200 05 dc 75 bd 12 91 86 be ae 4a 52 bd 54 b0 f5 bd
       -0.06002428 -0.26282555 -0.05134075 -0.119965225
000210 11 36 05 bd 0e 0f 8c 3d ba 0c 96 3e 71 fb be 3d
       -0.032522265 0.06838809 0.29306585 0.093253024
000220 3d 24 6f 3d b8 cd 85 3c fe 87 06 3d 7e 52 23 3e
       0.05838417 0.016333446 0.032844536 0.15949437
000230 b6 73 6c 3e 93 78 57 3e a4 cb 04 3f 53 0b 90 3e
       0.23091015 0.21042089 0.5187323 0.2813364
000240 c1 15 35 be 30 a2 08 be 85 84 1f 3d c3 6d a0 be
       -0.1768408 -0.1334312 0.03894474 -0.31333742
000250 87 da 9e bc 14 5a 10 be 59 c7 51 be 7f 02 5c be
       -0.019391311 -0.14096862 -0.20486201 -0.21485327
000260 4b 74 e2 3d cb e1 c4 3d 13 6b ec 3d 5e 75 0c be
       0.110573374 0.09613379 0.1154386 -0.13716647
000270 d8 dd 93 3d 9f 79 08 bd 37 ff 0a be 61 c6 a4 be
       0.07220048 -0.033319112 -0.13573919 -0.321826
000280 0c 4a bf be 39 a3 00 bf c3 8b 17 bf b5 5d 85 be
       -0.3736118 -0.5024906 -0.59197634 -0.26048055
000290 f5 67 55 be 72 68 9b 3c c5 37 69 bb 20 11 10 3f
       -0.20840438 0.018970702 -0.003558622 0.5627613
0002a0 a3 ff a2 be 76 57 13 be b1 69 a7 3e 44 e2 56 bb
       -0.3183566 -0.14388832 0.32697824 -0.0032788673
0002b0 1e cb 32 3e c2 9d 20 3c fd 6c 29 be 5f f2 16 3d
       0.17460296 0.009803237 -0.16545482 0.036852237
0002c0 d1 c3 85 3d 0a 38 5c 3d bb b6 04 3c ce 88 9d bd
       0.0653149 0.05376438 0.008100207 -0.07692109
0002d0 2e c6 9a bc fe 2f dd 3d 29 12 1c 3e 7a f8 93 3d
       -0.018893328 0.108001694 0.15241303 0.072251275
0002e0 82 b3 27 3e 01 02 92 3d a1 06 08 be d3 fd 82 be
       0.1637707 0.071292885 -0.13283779 -0.25584278
0002f0 a5 8f bc be 7b 60 31 3c 9a b1 1e 3e 5a 29 51 3d
       -0.36828342 0.010826225 0.15497437 0.051064827
000300 f1 d8 99 be 12 87 4b bf a5 e4 27 bc 41 f2 42 be
       -0.30048326 -0.79502976 -0.010247384 -0.19037725
000310 e9 c4 53 bd 1e ca 1f bd 78 3e f8 bd 52 04 8c bc
       -0.05170146 -0.039011113 -0.1212129 -0.017091904
000320 44 05 50 3d bd 50 59 bd fd b6 45 bb 92 9a 95 bd
       0.05078627 -0.053055514 -0.0030168884 -0.073048726
000330 8f 24 01 bd 81 86 eb 3c a6 0f 7d bd fe 78 8c 3e
       -0.031529006 0.02875066 -0.0617825 0.2743606
000340 25 de 09 3e f5 10 dc 3c ba 87 87 bd 21 78 cf bd
       0.13463648 0.026863554 -0.06617685 -0.10130335
000350 2e db b9 bd 91 82 da bd d5 96 1c bd 24 5d cf 3d
       -0.09075008 -0.10669435 -0.038229782 0.10125187
000360 04 d7 da bd 94 94 a1 be d5 7d b7 3e 56 7c fd be
       -0.10685542 -0.3155867 0.3583819 -0.49508923
000370 d3 dd ba bd b7 19 13 3e 6e 6e 90 bd 5e 9a 4c 3d
       -0.09124341 0.14365278 -0.07052313 0.049951904
000380 16 93 de bd 7c ff ba 3d 1c 66 8e bd aa a5 92 3d
       -0.10867898 0.09130761 -0.069530696 0.07160504
000390 72 72 46 bc be 80 d0 3b 45 6d 4d 3e 57 42 b3 3e
       -0.012112247 0.0063630035 0.20061214 0.3501155
0003a0 9f 46 38 3e 64 72 70 3e a9 2d 62 3a 1b 3e 1b be
       0.1799569 0.23481137 0.000862802 -0.1516041
0003b0 6c 56 cd 3d 3a 52 eb bd b6 9e 58 be 44 89 b1 3e
       0.10026249 -0.11490293 -0.21154293 0.34675038
0003c0 9c c5 df 3d bc 08 1d 3e 7f 24 90 be ac 70 29 bc
       0.10926363 0.15335363 -0.28152844 -0.0103418045
0003d0 ed 5b 7b 3d c3 8c 7f be 63 ad bd 3d a0 65 97 3b
       0.061366964 -0.2495604 0.092615865 0.004620269
0003e0 7e 24 23 3e ce 1f ef bd 25 38 b8 3d 4f 5b 93 3c
       0.1593189 -0.11675988 0.08995084 0.017987875
0003f0 25 00 99 3d 94 c3 83 3d c4 e9 97 bd cc 13 00 be
       0.07470731 0.06433788 -0.07417634 -0.12507552

fc1.bias f4 [600]
000000 d2 77 72 3b 93 fe cf bd 5a 0c f6 bd b5 ce 35 be
       0.0036997688 -0.10155978 -0.120140746 -0.17754634
000010 03 46 58 3d ec 96 f7 bc 90 55 e7 bd dc 7f 3a 3e
       0.052801143 -0.030223332 -0.112956166 0.18212837
000020 2d ac f9 3d c4 68 9f 3c ec 5c 5f 3d 37 80 be bc
       0.12191043 0.019459136 0.054531977 -0.023254497
000030 66 d7 10 3e b2 06 53 be d8 e0 e5 bd ef fc 13 3e
       0.14144668 -0.20608023 -0.11224526 0.14451955
000040 40 d9 38 3e 59 77 86 bc 4d ef 94 bd 3c c5 e9 3d
       0.18051624 -0.016414331 -0.072722055 0.114145726
000050 55 ce 10 3e ad 86 77 bd 59 74 e4 3d ec 9f a1 3d
       0.1414121 -0.06043117 0.11155004 0.07891831
000060 a7 be ab bc 51 d0 d5 bd 96 84 a2 3d a2 66 fa bc
       -0.020964934 -0.10440124 0.07935445 -0.030566517
000070 d1 03 83 3d 2f 74 14 be 2b ed 9e 3d 17 75 42 3e
       0.06397212 -0.14497446 0.0776008 0.18989979
000080 7e 38 c7 bd 22 55 e3 3d 94 d3 c6 3d 50 38 e7 bc
       -0.09727572 0.11100222 0.09708324 -0.028225094
000090 f8 23 04 be 4c 6f da 3d 6e 89 16 be 80 7e 04 3e
       -0.12904346 0.106657594 -0.14700863 0.12938881
0000a0 d8 9b 0f be 88 89 45 be d5 40 96 3c 76 bb b6 3d
       -0.14024293 -0.19290745 0.018341461 0.08922474
0000b0 b8 8a 30 be 0c 18 5c 3d 9e f9 4d bc 75 25 f3 bd
       -0.17240417 0.05373387 -0.01257172 -0.11872379
0000c0 0e 79 79 bd 33 5b 25 3e 27 89 11 be bf be ab bd
       -0.060906462 0.16148071 -0.14212476 -0.08385991
0000d0 cb d8 19 3d 49 d1 26 be fe 18 c0 3c a5 8c 53 3d
       0.037560266 -0.16290773 0.023449417 0.0516478
0000e0 e8 fe 85 3d a3 5c 28 3d 58 36 32 3e ef f4 23 3c
       0.0654276 0.04110397 0.17403543 0.010007127
0000f0 fa 16 45 3e 22 01 00 be d4 e9 c8 3c ac db 0e be
       0.19247046 -0.12500432 0.02452556 -0.13950986
000100 38 86 4d be 1f 4e b4 3c 8d db ad bb 0f ef 0c be
       -0.20070732 0.022009907 -0.0053057135 -0.13763069
000110 81 50 bf bd 1d af 1f be 79 f5 41 3d 7b e7 c3 3d
       -0.09341527 -0.15594144 0.04735324 0.09565636
000120 f4 19 ce bd ed cd 2c 3e 22 6e 37 be cb 6d 2a be
       -0.10063544 0.1687543 -0.17913106 -0.16643445
000130 78 d8 4f 3e fc e5 7f 3d 69 4f e0 bd 80 09 c6 bd
       0.2029742 0.06247519 -0.10952646 -0.09669781
000140 2a b7 07 bc 5b 59 27 be ba 11 c9 3d 42 41 6c bd
       -0.008283416 -0.1634268 0.09817834 -0.057679422
000150 63 74 46 3e 54 9c da 3d 93 f6 20 3e 82 aa 36 be
       0.19380336 0.106743485 0.1571906 -0.17838481
000160 e0 fd 20 3e 47 65 03 be c1 a5 cf bd 56 26 44 3d
       0.15721846 -0.12831603 -0.10139037 0.047888122
000170 93 2c 32 be 2f 0d 96 bd e6 2a 8e 3d b4 0e c5 bd
       -0.17399816 -0.07326733 0.06941776 -0.09621945
000180 27 bb 2f 3e 55 55 db 3d 96 8b 12 be a7 d2 0d 3d
       0.17161237 0.10709635 -0.1431106 0.03462472
000190 78 9c 47 be 43 b3 cd 3d f9 95 8c bd 90 08 40 3d
       -0.19493282 0.10043957 -0.068645425 0.046883166
0001a0 ec 63 b6 bd 1f ef 21 3e db 62 cb ba 74 c9 15 be
       -0.08905777 0.15813874 -0.0015517132 -0.1462763
0001b0 88 f1 46 be 7e 4d c6 bd ce 8a d6 bc 41 3f 75 bd
       -0.19428074 -0.09682749 -0.026189234 -0.059874777
0001c0 76 79 4a bd 02 f0 dc bd e2 c6 e9 bb d0 2e c1 3d
       -0.04943224 -0.10787965 -0.0071343044 0.09432757
0001d0 dd de 08 be da 5f 40 bd 57 fd 6d bc 62 f2 18 3e
       -0.13366266 -0.04696641 -0.014525733 0.14936212
0001e0 d9 20 f5 bb 64 9a 93 bd 56 b1 ed 3d 49 eb d1 3c
       -0.0074807224 -0.07207182 0.1160609 0.025624888
0001f0 bf 3a b1 3d 46 3c ad bd 6e 30 b6 bd ad 71 a6 3d
       0.08653783 -0.08458762 -0.08895956 0.08127151
000200 81 53 15 3e cf 87 88 3d 26 0a 56 3d 46 b5 90 bc
       0.14582635 0.066665284 0.052255772 -0.017664563
000210 27 6c 2b be ce 06 f4 3c 5f 4c 24 3d 3a cd e3 3d
       -0.16740476 0.029788401 0.040111896 0.11123128
000220 93 99 e2 3c e1 f9 41 3e 52 3b 1a bd 6e 7f 01 3e
       0.02766112 0.18942977 -0.03765423 0.12646267
000230 71 0e 3f be 21 a1 0d bd 6c 98 07 be ee e9 53 3c
       -0.18657853 -0.034577493 -0.13241738 0.012934191
000240 9a c7 34 be 1f 28 d4 bd 5e ec 1e 3e a2 a1 ae 3d
       -0.17654267 -0.10359215 0.15519854 0.08526923
000250 9e 54 1f 3e 0e 0a ad 3d dd 55 0c 3e 72 a4 cc bd
       0.15559623 0.084491834 0.13704629 -0.09992303
000260 17 f2 95 3d 48 21 54 be a5 99 13 be f2 e2 47 be
       0.073215656 -0.20715821 -0.1441408 -0.19520167
000270 67 67 d6 3d b3 a5 29 3d 69 2b 02 be a2 1b 8b 3c
       0.10468941 0.04141779 -0.12711872 0.01698095
000280 1a c1 33 3e 5b 59 e5 bd 89 93 15 be 52 6f 2c be
       0.17554131 -0.11198684 -0.14607061 -0.1683934
000290 c0 58 eb bc 08 fa 51 3e 01 a3 16 3d eb 46 ee bb
       -0.028728843 0.20505536 0.036776546 -0.0072716377
0002a0 d2 f6 ef bc 62 53 6c bd e4 ae ad bd 5a 9e 47 3e
       -0.029292498 -0.057696708 -0.08480623 0.19494
0002b0 b8 f5 9d bd 9e a2 9f bd 2c 41 66 bd ee db 36 3e
       -0.07712883 -0.07794689 -0.056214496 0.17857334
0002c0 f7 6a 03 be 94 79 54 3e 41 4f 5a bc f8 84 93 bd
       -0.12833773 0.20749503 -0.01332456 -0.07203096
0002d0 7f ea f6 3d 1b e9 12 3e c1 c4 9f bd 35 ea f4 3d
       0.12056445 0.14346735 -0.078012 0.11958734
0002e0 6a 9c ea bd ba df 8d bd 72 18 13 3e a5 79 07 3e
       -0.11455615 -0.06927438 0.14364794 0.13229997
0002f0 b2 24 23 be 86 da 1b be 33 f7 37 be e1 2f 00 bd
       -0.15931967 -0.15220079 -0.17965393 -0.03129566
000300 c2 6c 25 bd 39 1c 9c 3d 19 36 90 3d d5 0a 0c be
       -0.040386923 0.076225705 0.07041568 -0.13676007
000310 4f b2 0e bc 06 08 06 be 00 51 2e 3c d8 53 b8 3d
       -0.008709504 -0.13088998 0.010639429 0.09000367
000320 4a 40 38 be 45 b1 4f 3e 54 fe 7a 3d d7 28 53 be
       -0.17993274 0.20282467 0.061277702 -0.20621048
000330 fa aa bd bd d4 14 49 3e c1 d9 07 3d bd 65 34 be
       -0.09261127 0.19636852 0.03316665 -0.17616935
000340 07 88 e7 bd 61 e9 2a be 3b bc 78 3d 88 96 dd bd
       -0.11305242 -0.1669059 0.060726386 -0.10819727
000350 b3 6a 3f 3e f2 58 8d 3d c7 8e 00 be 3b f5 22 3e
       0.18693046 0.069017306 -0.12554465 0.1591386
000360 17 f6 2f bd 7e 3e 15 be b1 0a 2b be 63 50 c9 bd
       -0.0429593 -0.1457462 -0.16703297 -0.09829786
000370 fe 4a c2 3d ad bd d0 3c 37 71 87 bd a8 68 96 bd
       0.0948696 0.02548107 -0.06613391 -0.0734418
000380 44 26 5a bd dd 10 10 be 59 f8 57 3e 89 f8 33 be
       -0.05325915 -0.14068933 0.21090831 -0.17575277
000390 20 1c cb bc c1 55 04 3d 7a a8 e2 3c 6a a7 ab bc
       -0.024793684 0.032308344 0.027668227 -0.020953853
0003a0 d5 b6 25 be 4a f0 97 bd f6 a7 e6 bd ab b8 40 3e
       -0.16183026 -0.074188784 -0.11262505 0.18820445
0003b0 5b ab a2 bd 5f 13 16 be 6c dd 17 be 8e 18 34 be
       -0.0794284 -0.14655827 -0.1483056 -0.17587492
0003c0 96 3e 1b bd 72 6d bd bd 30 c7 15 be 6b b3 96 bd
       -0.037901483 -0.09249391 -0.14626765 -0.0735844
0003d0 a5 d5 32 3e d1 fb 5e be 97 7d 9d bc c5 16 57 3e
       0.17464311 -0.21775748 -0.019224925 0.2100478
0003e0 9a 72 02 3e 14 d7 4c 3d 33 90 bc 3d 50 53 8c bd
       0.1273903 0.050009802 0.09207191 -0.06851828
0003f0 6a c6 4e be fd da 07 be 9d 70 d6 bd 6a ea 1e 3e
       -0.20192876 -0.13267131 -0.10470698 0.1551911

fc2.weight f4 [300, 600]
000000 82 9d f2 bd c0 45 57 3d fc 67 aa bc c9 c0 dc bb
       -0.118464485 0.052556753 -0.020801537 -0.006736849
000010 e3 ba b5 bd 09 b7 2e bd 6e a9 e8 3b ae bd 47 be
       -0.088735364 -0.042655025 0.0071002757 -0.19505951
000020 94 c3 bc bc 63 48 51 bc ef 8d 93 3c b7 22 3c 3d
       -0.023042478 -0.012773606 0.018012015 0.045931544
000030 62 40 e5 3c c2 5d 05 bc ec 54 26 bd a5 22 0d be
       0.027984802 -0.008140029 -0.04060833 -0.13782747
000040 99 a3 b6 3d e5 b9 28 3e 10 23 14 3d 27 c4 86 3d
       0.089179225 0.16477163 0.03616625 0.06580382
000050 d3 48 19 bd 9d 88 05 be 44 d5 93 bd af dd 66 bd
       -0.037422966 -0.13040395 -0.072184116 -0.056363758
000060 17 1f 14 bc c4 73 2d bd 51 c1 5a bd 65 dd af 3c
       -0.0090406155 -0.04234673 -0.053407017 0.021467874
000070 e0 46 52 bd 38 77 f5 3b cb 63 aa 3c b8 eb cb 3d
       -0.051337123 0.0074910186 0.020799538 0.09957069
000080 37 61 ad bd 21 04 ff bd 07 ef d5 bd 65 f6 86 3c
       -0.08465808 -0.124519594 -0.104459815 0.016474912
000090 ec 35 c0 bd 7f 0b 8c 3d f5 54 72 3d 33 7e 83 3d
       -0.09385285 0.0683813 0.059163053 0.06420555
0000a0 1d e1 86 3d a7 7c 20 3d bc 45 09 3b f2 35 fc 3c
       0.06585906 0.039181378 0.0020946106 0.030787442
0000b0 16 1f 85 bd df 16 af bd 77 5a f4 3d 10 bc cb 3b
       -0.0650007 -0.08549284 0.11931317 0.006217487
0000c0 dc 73 6e 3c 5e d5 ce bd 6e d9 37 be 95 a2 c0 3d
       0.01455399 -0.1009929 -0.17954037 0.0940601
0000d0 a7 4a 4b 3c db 98 43 3d 85 a1 91 3c 6e 01 c4 bd
       0.012407935 0.047753196 0.017777214 -0.09570585
0000e0 b5 9e 27 b9 f1 7d e1 bc 9f 5f 8b 3d f8 5b f5 bd
       -0.00015985484 -0.027525874 0.06805348 -0.11980432
0000f0 83 cd c9 bd 8a f6 9a bd 37 65 f6 bc f1 f5 5e 3d
       -0.098536514 -0.07566555 -0.03007756 0.054433767
000100 9c 1c 50 3d e2 97 83 3d 0f bc 8a bd 60 7a 22 be
       0.050808534 0.06425454 -0.067741506 -0.15866995
000110 68 8d 91 bd c3 bf 2a 3d 5a 7a 1a 3d 8a af c6 3c
       -0.07107049 0.041686784 0.03771434 0.024253625
000120 86 70 da bb d4 f1 e2 bc b0 4c 35 bd 0d 3c 9b 3d
       -0.006666246 -0.027703203 -0.044262588 0.07579813
000130 fb 43 95 3d 19 1f dc 3d d5 91 01 bd 87 7c 6b bd
       0.07288357 0.10748119 -0.031633217 -0.057491805
000140 f7 d2 24 3c d7 29 27 bd 82 be d3 3c 57 f5 86 3d
       0.010060064 -0.040811386 0.025847677 0.065897636
000150 ce e1 77 bb 50 ad 4a 3d 80 75 4a 3d 6b 05 22 3e
       -0.00378238 0.04948169 0.049428463 0.1582238
000160 43 f5 a9 3d 87 90 e0 bd bd 52 55 bd 1d 0f 22 bd
       0.08298733 -0.109650664 -0.05208086 -0.039565194
000170 b4 b6 b1 3d 45 15 f1 3d ba b9 6f bd 06 f1 1d bd
       0.08677426 0.11771635 -0.058526732 -0.038559936
000180 7f ec 5f be 25 91 3f 3d 52 dd 96 bd 73 01 b3 bd
       -0.2186756 0.04676928 -0.07366432 -0.08740511
000190 cf 58 5c bd eb 6a 83 bd f9 b6 28 bd 38 a3 5e bd
       -0.053795632 -0.06416877 -0.04119012 -0.054354876
0001a0 f7 87 d5 bd da 96 82 bc e6 3f a8 bd e9 ee 8b bd
       -0.10426324 -0.015941072 -0.08215313 -0.06832678
0001b0 fa 6c 12 3d ae 35 71 3b bb 98 90 3c 72 49 fc 3d
       0.03574846 0.0036805677 0.017650953 0.12318696
0001c0 bf 10 06 3c 5c d5 63 3d 2d 41 3e 3c af 6d c6 bd
       0.0081827035 0.055623397 0.011612219 -0.09688889
0001d0 1e 9d 37 bd 13 23 12 3d b2 00 b3 3d f5 29 ff 3c
       -0.044827573 0.03567798 0.08740367 0.031147936
0001e0 fa 96 65 bc 5a d0 46 bc 10 d0 75 3d e6 b7 0f be
       -0.014013046 -0.012134636 0.060012877 -0.14034995
0001f0 7a b2 a9 bb b5 1f 13 3d 94 75 5c 3d e8 89 4e 3c
       -0.005178747 0.03591891 0.05382307 0.012606122
000200 97 17 6d bd cc 14 cd bd 71 c1 e3 3c 16 75 e1 bd
       -0.057883825 -0.10013732 0.027802201 -0.110086605
000210 ea 85 8d bd 1e a2 73 bd 53 68 48 bc 2d d6 8b bc
       -0.06910308 -0.05948078 -0.012231904 -0.0170699
000220 c3 3d b3 bd 7c 61 cb bd e2 9b e8 3b 55 20 36 bd
       -0.087520145 -0.09930703 0.007098661 -0.044464428
000230 d6 7e 09 3b b8 86 db bc 86 22 c8 3c db 31 27 3d
       0.002098014 -0.026797637 0.024430525 0.04081903
000240 15 74 d5 3d 78 92 35 3d 64 ad 09 be 89 9a 5d 3d
       0.104225315 0.044329137 -0.1344505 0.054102454
000250 a0 43 d7 bb 57 2b 5f bd 38 9a e8 bd 13 a2 01 3d
       -0.006569341 -0.05448469 -0.1135754 0.031648707
000260 b5 c1 03 bc 13 87 ec 3c 7c 8a 9d 3d e0 f3 d7 3b
       -0.008041789 0.028873002 0.076924294 0.0065903515
000270 1e 54 46 bd 2c af a6 bd f5 bd dd 3d 9a dd 4f 3d
       -0.048420064 -0.0813888 0.10827247 0.050748445
000280 aa 06 65 bc b1 7e 11 bd ff c9 c6 bd c9 fa 9a bd
       -0.01397864 -0.035521213 -0.097064964 -0.07567365
000290 bb e6 53 3d 33 c7 83 bc a7 80 e4 3a 3a 76 94 3c
       0.051733714 -0.016086197 0.0017433361 0.018122781
0002a0 55 f1 15 bc b1 a9 54 3d 47 84 96 bd 1d c0 da 3c
       -0.009151776 0.051919643 -0.07349449 0.026702935
0002b0 3d 3a 68 3d f4 32 10 3e d7 2e 08 bc f5 3f 39 bb
       0.056696165 0.14081937 -0.008311949 -0.002826688
0002c0 00 1e 0c bc c0 f5 33 3d 16 2b 2f 3d 50 a0 8a bd
       -0.008552074 0.043935537 0.0427657 -0.067688584
0002d0 9f 7b 80 bd 0c 31 14 3e 55 97 52 3d e5 18 ad 3d
       -0.06273579 0.14471835 0.051413853 0.08452014
0002e0 ac 4d 86 ba 1a a5 cd bc 07 e3 94 bd ec 88 b4 3c
       -0.0010246537 -0.02510314 -0.072698645 0.022037946
0002f0 2c 44 d4 3d 34 7d 12 bd b4 43 fc 3c 69 9c 7a 3b
       0.10364565 -0.035763934 0.030794002 0.00382402
000300 db c0 14 bc f6 41 02 be 4d 33 3b bd da 2c 33 bc
       -0.009079183 -0.12720475 -0.04570322 -0.010935986
000310 0c b4 97 bd 0d 40 53 3d 20 40 18 be ab 07 d8 3c
       -0.07407388 0.051574755 -0.14868212 0.026370844
000320 ac 18 79 bc 87 1b c9 bb b9 59 36 3d b6 e5 ac 3d
       -0.015203636 -0.0061373147 0.04451916 0.084422514
000330 ef 2a 51 3e 27 32 e4 bd ec 02 d8 3d 81 b2 16 bc
       0.20426534 -0.11142378 0.10547432 -0.009197832
000340 27 16 15 be 5f 3b 4a 3e 2f e0 e4 bd 94 c1 61 3d
       -0.14559232 0.19749211 -0.11175572 0.05511625
000350 f9 fc b4 bc 23 23 80 bd 31 b4 bc bd ae 72 6d bd
       -0.022093283 -0.06256702 -0.09214056 -0.057970695
000360 bc 2b 0d bc ac f4 25 3e 5d b7 0e 3d b9 38 83 3c
       -0.008616384 0.16206616 0.034842838 0.016018258
000370 6f 51 1e 3c 3a 85 a0 b8 59 a5 9c 3d 58 79 b6 bd
       0.00966297 -7.65421e-05 0.07648725 -0.08909863
000380 52 98 58 3b c5 1b de bc 18 41 1f bc 56 ca 8b 3d
       0.0033049774 -0.02711285 -0.009720109 0.06825702
000390 63 ce b0 bd c7 6e b3 3d f9 3b 56 3a f9 c5 07 3d
       -0.08633115 0.087613635 0.0008172389 0.033147786
0003a0 30 12 76 3d 83 68 9e bd b9 fc 01 be cc fe a1 bd
       0.06007594 -0.07734778 -0.12694062 -0.07909927
0003b0 00 01 65 bd 19 4e 20 3c a6 e4 29 3d ed 9b 99 3a
       -0.055909157 0.009784245 0.04147782 0.0011719443
0003c0 f0 43 38 3d 00 03 f8 bc ad fa 4a 3d 7b b3 09 be
       0.044986665 -0.030274868 0.04955547 -0.13447373
0003d0 d4 55 26 be 4f 6a fa bc 1f af 19 bd 5d 63 3d bc
       -0.16243678 -0.03056827 -0.037520524 -0.011559335
0003e0 4b ba 8d bd 6e 39 a6 bc 61 6d 9b bc 26 a5 65 3c
       -0.06920298 -0.020291056 -0.018973054 0.014016425
0003f0 26 35 cc bd 78 7b a7 ba 73 09 30 3d 4c d0 4e 3e
       -0.09971075 -0.0012777885 0.04297776 0.20196646

fc2.bias f4 [300]
000000 a1 7b 6d 3c b0 5a 8d bc 84 39 15 3d 6e c3 b1 bc
       0.014494807 -0.017255157 0.036431804 -0.021699633
000010 e6 5b 1f bd 7b 6a 47 3b c1 31 27 3d 93 c6 cd 3a
       -0.038906 0.0030428458 0.040818933 0.0015699439
000020 36 99 b0 ba 77 8e cb bc db d7 9f 3c 7b 76 5f bb
       -0.0013473395 -0.024848206 0.019512108 -0.003409772
000030 d4 eb d5 3c fe da bc b9 69 7f 30 bb e6 26 a8 3b
       0.026113428 -0.00036021316 -0.002693141 0.00513159
000040 7f d6 f7 3c bd a5 1d bd d7 32 11 3d c2 e1 0a bd
       0.030253647 -0.03848814 0.035448875 -0.033906706
000050 5d 34 11 bd d8 9d 22 3c 2e af 03 bc 3e 76 0d 3d
       -0.03545033 0.009925328 -0.008037372 0.034536593
000060 fc d4 f6 bc 99 1c 0d bc 42 df 13 bc 3e d1 16 bd
       -0.030130856 -0.008612775 -0.009025397 -0.036820643
000070 fc 1f e1 bc 4c 7c b1 bc 07 9c 00 3d af e3 60 3c
       -0.027481072 -0.021665715 0.0313988 0.013726159
000080 2e 0f 82 bc 65 63 eb bc 50 8b 03 3d c8 74 92 bc
       -0.015876379 -0.028733918 0.03211528 -0.017877951
000090 88 f2 35 bd 9c be 09 bd e4 ff f7 3c d4 65 22 bc
       -0.04442075 -0.033629045 0.030273385 -0.009911973
0000a0 50 ef dd bc 09 5a 16 bd 9e 58 cb bc 83 81 09 bb
       -0.027091652 -0.036706958 -0.02482253 -0.0020981736
0000b0 8b 33 60 3c 2e 76 22 3c 42 7c c1 ba 66 30 8a 3c
       0.013684164 0.009915872 -0.0014761763 0.016868781
0000c0 2c f3 b0 bc 59 a0 30 3c 8c 62 39 bb 3a 79 5c 3c
       -0.021600328 0.010780417 -0.0028287498 0.013456637
0000d0 d6 86 e1 bb bb 3a a9 3c 60 67 98 bc 1f 33 2c bb
       -0.006882529 0.020657888 -0.01860398 -0.0026275588
0000e0 2a b4 d1 bc 5a 13 5c 3b 47 49 e9 3b 49 6e 15 3d
       -0.025598604 0.003358087 0.007119331 0.03648213
0000f0 2e 77 86 bc d6 98 7a 3a f9 91 dd 3c 08 c3 c7 3c
       -0.016414251 0.00095595175 0.027047144 0.02438499
000100 3f 82 b5 bc 49 eb 45 3c b3 44 76 bb 97 34 8b 3c
       -0.022156833 0.012080022 -0.003757757 0.01699285
000110 51 47 b8 3c c0 c4 3e bc 55 4b f9 3c 01 b2 c9 3c
       0.022494944 -0.011643589 0.030431429 0.024621012
000120 46 22 18 bd 05 c6 01 bd 39 75 21 bc 42 5f 0b 3d
       -0.03714206 -0.031682987 -0.009854608 0.03402639
000130 59 cb 97 bc 56 b2 e2 bc 9b 3d 03 bd 0e 34 c7 bc
       -0.01852958 -0.027672928 -0.032041173 -0.024316814
000140 e4 ba 76 3c 5e 14 a7 ba 93 59 f8 bb be c2 86 bc
       0.015059207 -0.0012747159 -0.0075790375 -0.016450282
000150 28 0c 67 bc 32 2c 68 bc b2 60 06 bc 8b 87 f4 bc
       -0.014102019 -0.014170693 -0.008201765 -0.029849788
000160 08 c4 30 bd 97 5c bd bc a5 e0 14 3d 9f b9 1e bd
       -0.0431557 -0.02311544 0.03634705 -0.03875124
000170 a4 00 c0 3b 88 22 82 bd dd d5 9f 3c 18 b2 87 bc
       0.0058594514 -0.063542426 0.019511158 -0.016564414
000180 c2 3e 47 ba 56 02 e6 3c 85 f8 14 3d 50 51 1e 3c
       -0.0007600599 0.028077286 0.03636982 0.009662941
000190 17 f0 18 bc 4e 36 1f bc a4 60 03 3d c1 97 1d bd
       -0.009334586 -0.009717537 0.032074586 -0.038474802
0001a0 40 b1 e0 bc 73 ff cf 3c 66 fc 31 3c 9c 86 f5 3c
       -0.02742827 0.025390362 0.010863399 0.029971413
0001b0 be 02 17 bd 5c 4a 51 3c ac 9a d7 bb e9 b7 85 3c
       -0.03686785 0.012774076 -0.0065797176 0.016323047
0001c0 eb c5 01 bd 61 53 0c bd 39 c4 a8 bc df 04 1b 3c
       -0.03168289 -0.034259204 -0.020601379 0.009461611
0001d0 d4 46 e3 bb 4a f0 10 bd 35 54 29 3c 0e 97 8f bc
       -0.0069359336 -0.035385408 0.010335018 -0.017528083
0001e0 ef 16 25 bd 82 61 96 3c 16 ef ec bc dd 14 d1 ba
       -0.040305074 0.018357042 -0.028922599 -0.0015951652
0001f0 d8 b2 1a bd 0e 68 f5 bc 6c 28 9c bc d4 f0 b6 bc
       -0.037768215 -0.029956844 -0.019062243 -0.022331633
000200 16 c4 1d bb ba 5d e7 38 76 36 1f 3c fa 57 19 bd
       -0.0024073175 0.00011032396 0.009717574 -0.037437417
000210 3b 4f ee 3b b9 a9 e1 bc 55 26 eb bc 61 03 bf 3c
       0.0072726286 -0.02754675 -0.028704802 0.02331704
000220 bc af c4 bc d2 51 9f bc a4 05 5b 3b 52 c1 06 bd
       -0.024009578 -0.019448195 0.003342011 -0.03289921
000230 b4 82 16 3c 23 68 11 bd 60 15 22 3d f1 78 36 bd
       0.0091864355 -0.035499703 0.039571166 -0.044548932
000240 7b 03 ea bc cb e7 c7 3c 5f 5d f4 ba 04 e2 55 bc
       -0.028566113 0.02440252 -0.0018643549 -0.013054375
000250 02 c4 5f 3b 3d cf 88 3b 63 31 29 bd a5 91 12 3b
       0.003414393 0.0041750954 -0.041306864 0.0022364643
000260 d2 ac e7 3c db ed 61 bc cd 09 2c 3c 6e 12 bf bc
       0.02828065 -0.013789619 0.010500384 -0.023324218
000270 ef 99 a8 3c 2e 5f 9b bc d8 17 dd bb 4e 61 27 bb
       0.020581214 -0.018966284 -0.006747227 -0.0025540176
000280 68 08 a7 3b 1d 77 b2 bc 5c c9 0e bd e7 82 74 3c
       0.0050974376 -0.021785313 -0.03486 0.014923788
000290 56 77 ad 3c d9 b0 b7 3c 1d 84 d7 3b 5c 0b 02 3d
       0.021175068 0.022423195 0.0065770284 0.031749114
0002a0 a6 80 6b 3c 16 4b ff bc fe 23 a4 3c 5c c5 a8 3c
       0.014373934 -0.031163733 0.020036694 0.02060192
0002b0 60 f0 d8 3b d8 03 94 bc d7 37 af 3a e7 be c7 3c
       0.006620452 -0.01806824 0.0013368082 0.024383022
0002c0 fb 9e 09 3d ef 69 86 bc 2e fe 77 3c bc 48 c1 3c
       0.03359888 -0.016407935 0.015136285 0.023594253
0002d0 be ed 3e 3c 26 96 0d 3d ca c6 1f 3c d9 57 ce 3c
       0.011653362 0.03456702 0.009751985 0.025188373
0002e0 2f 1e bd 3b 61 1a fd 3b 3a 10 19 3c 79 05 02 bd
       0.0057714204 0.007724092 0.009342248 -0.0317435
0002f0 ee b3 a9 3c 36 39 17 3a 7f 2b d7 bb 68 d7 ef bc
       0.02071568 0.0005768718 -0.0065664644 -0.029277518
000300 48 8d 19 bd f2 21 50 bc 17 83 9c bc 20 3f a7 bc
       -0.037488252 -0.012703406 -0.019105477 -0.020415843
000310 38 6c de bb a5 b5 29 3d 2e 02 fd bc d9 d0 ec b9
       -0.006787803 0.041432995 -0.030884828 -0.0004516903
000320 02 fa 9f 3c 2e ec 9e 38 db 2f ca bc e4 9f 20 bd
       0.019528393 7.578019e-05 -0.024681022 -0.039214984
000330 bd 7f f3 3c 52 93 14 3d f3 f6 db 3c 01 df 22 bd
       0.029723996 0.036273308 0.026851153 -0.039763454
000340 c7 23 55 bc 51 99 12 bd f3 29 28 bd 8a 30 83 bc
       -0.013009018 -0.035790745 -0.04105563 -0.016014356
000350 3f 36 94 3b 2f 2c 9b bc 84 a8 4d ba ef e7 d3 b9
       0.004523068 -0.018941967 -0.000784524 -0.0004041786
000360 cc 11 f8 3c 2d 8d 11 3d 03 8d 0c 3c 30 73 07 bd
       0.030281924 0.035535026 0.008578542 -0.033068836
000370 92 38 23 3c 14 8b 5f 3a 85 49 0a 3d bc 85 64 bc
       0.009962218 0.0008527499 0.03376152 -0.0139479
000380 6c b1 8a bb c3 b2 1a bd 1c f6 ed bb dd 16 98 bc
       -0.004232576 -0.037768137 -0.0072620045 -0.01856559
000390 ca 32 98 bc aa 2b db 3c bf 84 10 3d f3 0f 25 bc
       -0.018578906 0.02675422 0.035282847 -0.010074603
0003a0 73 a3 07 3d 72 29 8a 3c e9 f2 60 bc 96 fc 4f bb
       0.03311486 0.016865466 -0.013729789 -0.0031736246
0003b0 ff 89 dc bc ce 00 8a bc 56 f6 f7 bb 48 0d 97 3c
       -0.02692127 -0.016846087 -0.0075672073 0.01843895
0003c0 4f 76 3f 3b 45 58 dd bc 36 85 55 3c a7 1d bb 3c
       0.0029214805 -0.02701963 0.013032248 0.022841288
0003d0 21 5f e4 3c 5b 40 01 3d ad cc 01 3d 0c d0 55 bd
       0.027877392 0.031555515 0.031689335 -0.052200362
0003e0 7b b3 24 3d 13 6e 08 bc af e5 f9 3b cd 53 25 bd
       0.04021023 -0.008327025 0.0076262574 -0.04036312
0003f0 42 e1 89 3c 06 0d 67 bc 3c d3 10 bd ec 7c 18 bd
       0.016831044 -0.014102226 -0.0353577 -0.03722851

fc3.weight f4 [4, 300]
000000 e2 67 51 3e 7f 78 5f be 2e f4 72 3d 03 9c a3 be
       0.20449784 -0.2182331 0.0593149 -0.31954965
000010 10 4b 09 be ff 38 11 3f 0c 83 f3 3e f1 07 c4 3e
       -0.1340754 0.56727594 0.47560918 0.3828731
000020 2d b4 24 be 11 02 0c 3e 49 24 8f 3d bf a1 cd 3e
       -0.16084357 0.13672663 0.06989343 0.40162465
000030 ac 22 94 bc aa 29 84 be e4 7b 2c be ef 3f 6f bc
       -0.01808294 -0.25813037 -0.16844136 -0.014602645
000040 3d fe e6 bd ee 12 00 3f a3 b3 fa 3e 65 af f1 3d
       -0.11278961 0.50028884 0.48965177 0.11801032
000050 2e d2 6b be e1 59 29 be 26 1d 4d be bc a2 f7 bc
       -0.23029396 -0.16538192 -0.2003065 -0.030228965
000060 94 ca b2 3e 97 0b 23 3f f3 c1 81 bd 4c 53 e6 3d
       0.3492018 0.6368956 -0.06335821 0.11246356
000070 da 2c 1c 3e 18 98 e8 bd ae f1 50 3f 41 74 13 3e
       0.15251485 -0.113571346 0.81618774 0.14399816
000080 44 15 a6 bd 95 65 c0 3e 86 25 91 3d 50 ce 3a be
       -0.08109525 0.375775 0.07087235 -0.18242764
000090 7d e2 41 bf 78 85 59 bc b1 fe a9 bc 2e c9 48 bd
       -0.7573622 -0.01327645 -0.02075133 -0.049019985
0000a0 73 78 20 3f ce a4 a8 be c4 82 c5 be d5 17 04 3e
       0.6268379 -0.32938236 -0.3857633 0.12899716
0000b0 bc 6a 41 3e c8 7c 9b be 91 d3 d2 bd be 9c be 3e
       0.18888372 -0.30368638 -0.10294259 0.3722896
0000c0 c1 5c 96 3e c8 63 2c be a5 57 2d 3d f7 54 a7 3e
       0.2936764 -0.16834939 0.042319912 0.3268201
0000d0 8b 37 0a bd 63 61 e7 3d 26 0e d3 be 2a 84 04 be
       -0.033744376 0.11297872 -0.41221732 -0.12941042
0000e0 fd 61 30 3c 86 c0 64 be be a1 a5 bd 42 37 97 be
       0.01076555 -0.22339067 -0.080874905 -0.29534346
0000f0 56 71 a3 bd 5e e9 47 bf 57 7b ab bd e3 0f fe be
       -0.079806015 -0.78090465 -0.083731346 -0.49621496
000100 73 64 1d be 1f 3d cb 3d ee 73 86 bd 5f 1c 7f 3e
       -0.1537035 0.09923767 -0.065650806 0.24913166
000110 21 b2 c2 be 80 7d ac 3c 22 d6 0f 3e b3 ca 29 3e
       -0.38026527 0.021055937 0.14046529 0.1658123
000120 36 64 3f 3e c1 8a 10 be a8 b2 08 3d be 98 fb b9
       0.18690571 -0.1411543 0.033373505 -0.00047988252
000130 89 81 b7 bc 69 a3 98 3d 0c 60 fe 3d 8b 76 75 be
       -0.022400634 0.07453043 0.12420663 -0.23971002
000140 a8 43 6f 3f 11 93 98 3d 58 61 ae bd 35 4c 68 be
       0.9346261 0.07449926 -0.085146606 -0.2268532
000150 01 8e 01 3f a7 b4 5c 3e 06 9d fd bd b9 b8 0a 3f
       0.50607306 0.21553288 -0.123834655 0.54188114
000160 de c8 2b bf b9 46 ef 3d 73 d3 07 bc f6 85 17 3e
       -0.67103374 0.11683411 -0.0082901595 0.14797196
000170 b1 bf d7 3d c7 8b d3 3f 5a ca 7e be 29 6b cc bd
       0.10534609 1.6527032 -0.24881878 -0.09981377
000180 d7 0f 12 be 7b d0 09 3f e5 0b ed bc 75 20 69 3e
       -0.14263855 0.5383374 -0.028936336 0.22766288
000190 45 a6 2a be 51 49 c9 3d d1 81 b7 be 56 c3 11 3e
       -0.1666499 0.09828437 -0.3584123 0.14234671
0001a0 32 c1 89 3e 2a ea 2f be 24 b4 21 be 44 a3 13 3e
       0.2690521 -0.1717917 -0.15791374 0.1441775
0001b0 35 72 e4 be 03 f0 a5 bc 15 25 a7 be d3 96 83 bf
       -0.44618383 -0.020256048 -0.3264548 -1.0280403
0001c0 1f 4b bb 3e 16 8e a6 be 54 69 8c 3e 39 e2 e4 bd
       0.3658075 -0.32530278 0.2742411 -0.11175961
0001d0 b8 46 9d 3e 0a 15 2e bf 2d af 04 3f cd 86 f9 3c
       0.30718017 -0.68000853 0.518298 0.030459786
0001e0 49 72 fb be 23 92 a1 3d 4a d6 96 3d e7 90 84 be
       -0.4911063 0.078892015 0.07365091 -0.25891802
0001f0 9e 61 c0 be 78 6e ca 3e 35 15 8e 3e 1e 97 5a 3e
       -0.37574476 0.39537406 0.27750555 0.21346709
000200 9c 8c e4 3c 2b a8 a0 3c 34 03 28 3e 84 87 18 3e
       0.027899079 0.019611439 0.16407472 0.14895445
000210 f3 b1 2e bc 88 b9 cc be d2 d5 69 bf c0 c2 34 be
       -0.010662544 -0.399853 -0.9134189 -0.17652416
000220 4e ee da 3e c0 c3 64 3d 0f 61 b7 3c af 4f d8 3d
       0.42759937 0.055850744 0.022385148 0.105620734
000230 4a eb a6 be 83 40 de ba 21 ae 92 3e 9a 34 99 3e
       -0.32601386 -0.0016956482 0.28648475 0.29922944
000240 b3 d0 23 3d 3a 4a 79 3f 09 98 5f 3e 66 2f 42 3e
       0.039993953 0.97378886 0.2183534 0.18963394
000250 79 dd b7 be d0 d5 52 3e 7e 01 18 3f ee 5b 6a be
       -0.35911158 0.20589375 0.59377277 -0.22886631
000260 04 f8 89 3e 86 b7 d8 be 66 61 82 be c5 54 62 3e
       0.26947033 -0.42327517 -0.25464934 0.2210265
000270 4e ba c9 bc 8b 71 85 3e b0 f4 15 bd db f7 9b 3e
       -0.02462497 0.2606319 -0.036610305 0.30462536
000280 e6 ca 16 bd f7 9b 6d be 16 1a 30 bd 09 b1 71 bf
       -0.036814593 -0.23204027 -0.042993627 -0.9441076
000290 08 a8 bd be 47 c4 18 3e c6 92 4b 3e 33 3d ec 3b
       -0.3704226 0.14918624 0.19880208 0.007209444
0002a0 4d d7 d3 be dc 49 ca 3d 32 56 02 3e a0 82 c4 3d
       -0.413752 0.09877369 0.12728193 0.09595227
0002b0 cb 2b dc be b7 b1 a7 be 80 e3 a4 bd 33 d5 fe be
       -0.4300216 -0.32752773 -0.08051205 -0.49772033
0002c0 62 32 db bd 4c ad bd 3e c6 58 65 be 28 32 60 be
       -0.10702969 0.37046278 -0.22397146 -0.21894133
0002d0 e8 d0 31 be dc 17 13 3e cd 67 9c 3d 54 57 2a bf
       -0.17364848 0.1436457 0.07636986 -0.665395
0002e0 68 25 e8 3b 4c cf f1 be 55 b6 25 3d ca a5 9a be
       0.0070845373 -0.47228467 0.04045709 -0.30204612
0002f0 55 3d 5e 3e 1d bc 1c 3e b1 33 11 be 52 39 87 bc
       0.21703084 0.15306135 -0.14179875 -0.016506825
000300 68 0a 38 bf c8 8a bc 3e 48 94 88 3f 22 f8 e4 3d
       -0.7189088 0.36824632 1.0670252 0.1118014
000310 79 00 1f 3e f0 4a 2c be ca da af be 81 0e ae be
       0.15527524 -0.16825461 -0.3434661 -0.3399544
000320 20 db 83 3d 61 cd 6e be 9c c2 b8 bc c8 db 52 3f
       0.06438279 -0.23320533 -0.022553734 0.8236661
000330 b6 c8 e3 3e a0 0e 1e 3e 51 e0 94 bd d6 2a 2e 3f
       0.44489068 0.15435266 -0.072693475 0.6803411
000340 df 07 1b 3f 88 55 19 3d b3 b6 8c be c6 ea 38 3d
       0.60558885 0.037435085 -0.27483138 0.045145772
000350 93 6c 6c be 1c b3 a1 3e 7f 83 57 bf c4 f8 8d 3e
       -0.23088293 0.31581962 -0.8418502 0.27728856
000360 97 30 35 bd 31 f9 25 be 17 00 b0 3e 33 2a 12 3e
       -0.044235792 -0.1620834 0.3437507 0.1427391
000370 5d e2 47 3e 02 ed 5d be 80 e6 dd 3e c4 79 7a 3e
       0.19519944 -0.21672443 0.4333992 0.24460512
000380 1f af 09 3f ab 15 b9 3d e1 fb f3 3e 07 1d b2 be
       0.5378284 0.09037336 0.47653106 -0.3478777
000390 d3 88 9b 3d dd 0d bc 3d bc 0d e2 be bc d4 0a bf
       0.075944565 0.09182332 -0.44151103 -0.54230857
0003a0 b6 8b b4 3e ed 4c 02 be e6 0c 0a 3f 31 90 41 bc
       0.3526284 -0.12724657 0.5392593 -0.011814163
0003b0 4a 3f 8c be 34 29 40 be f9 f2 b7 bd 4e 07 ef bd
       -0.27392036 -0.18765718 -0.0898189 -0.11671315
0003c0 a8 1f 27 3f e2 89 88 be 46 a3 c2 3d 12 f7 2b 3f
       0.6528268 -0.26667696 0.09503798 0.67173874
0003d0 32 f5 73 bd 7e 4b bc bd b8 ca 94 3e fd 40 a3 be
       -0.05956001 -0.091940865 0.29060912 -0.3188552
0003e0 93 81 ee 3e d5 fe d7 3d b3 82 a6 be c3 e9 13 3f
       0.46583232 0.10546652 -0.3252159 0.5777857
0003f0 2e 7b 2f bd 9c 1b 01 3f ca 67 ba 3e b5 83 54 be
       -0.042842083 0.50432754 0.3640731 -0.20753367

fc3.bias f4 [4]
000000 33 48 16 bd d2 d2 0f bc db 40 b1 3c 58 1e a6 3d
       -0.03668995 -0.008778291 0.02163737 0.08111256

bn1.weight f4 [600]
000000 bd b9 79 3e 71 d1 12 3f f3 c7 1c 3e c2 d7 15 3e
       0.2438726 0.5735083 0.1531065 0.14633086
000010 be 4a fe 3e 5a 23 fa 3e 53 07 2b 3f 79 96 c2 3e
       0.496664 0.48855096 0.6680805 0.38005427
000020 0b a4 c9 3e 22 26 34 3f e6 f5 88 3e fb 7b 84 3e
       0.39382967 0.70370686 0.26750106 0.2587584
000030 d4 b5 24 3f eb 3e 25 3f 05 dc e5 3e 88 f2 77 3f
       0.6433995 0.6454913 0.44894424 0.9685445
000040 d5 b8 84 3f a3 30 5f 3e dc fa 0c 3f 06 22 0a 3f
       1.0368906 0.21795897 0.5507028 0.53958166
000050 0b 78 07 3f e0 df 8d 3e 71 5f bf 3e 8a 51 34 3f
       0.52917546 0.27709866 0.37377504 0.7043692
000060 50 a6 05 3f 0a d8 24 3f 6b ac 62 3f 74 0b c6 3e
       0.522069 0.6439215 0.8854434 0.38680613
000070 97 29 60 3e b5 9c 50 3f 5e a3 c9 3e 23 60 11 3f
       0.21890865 0.81489116 0.39382452 0.5678732
000080 7f 84 2f 3e d5 96 b4 3e f6 1d 00 3f 43 9e 22 3f
       0.17140387 0.35271326 0.50045717 0.6352274
000090 ad 5b b3 3d 1c a6 a2 3e cb 5f 0f 3f 4c 9c f3 3e
       0.0875772 0.31767356 0.56005543 0.47580183
0000a0 e1 b9 10 3f a5 b5 41 3f 97 58 12 3f c6 e5 f1 3e
       0.5653363 0.7566779 0.5716643 0.47245616
0000b0 b3 bc e1 3e 25 15 5f 3e b0 05 8a 3e 4c e1 5f 3e
       0.4408928 0.2178541 0.26957464 0.21863288
0000c0 c7 72 f4 3e 49 b4 ef 3e 59 d7 62 3e 4a a0 11 3f
       0.47743818 0.46817234 0.22152461 0.56885207
0000d0 f2 c2 14 3f 9f e4 10 3e a1 e1 0a 3e 62 86 e6 3e
       0.5810996 0.14149712 0.13562633 0.450244
0000e0 00 91 d3 3a 49 4d 3d 3f 9f 45 6e 3f ce d0 3d 3e
       0.0016141236 0.7394605 0.93074983 0.18536684
0000f0 84 be 1e 3f 76 16 b2 3e 83 49 28 3e e5 51 1c 3f
       0.62009454 0.3478276 0.16434292 0.6106246
000100 af 2e 1d 3f a8 0d 35 3f 86 d7 85 3f d7 8a 6d 3f
       0.6139936 0.7072396 1.0456398 0.9278998
000110 38 6a 8b 3e ba 29 01 3f 11 c2 5a 3f 3b df 1c 3f
       0.27229476 0.50454295 0.8545237 0.6127812
000120 2a e3 00 3e 62 ee 5c 3f b0 aa 1d 3f 69 75 71 3f
       0.12586656 0.86301243 0.61588573 0.9431978
000130 14 3f d2 3e e2 17 5f 3f fb 54 4d 3e f8 9c e6 3e
       0.4106375 0.8714582 0.20051949 0.45041633
000140 e4 62 7a 3e 38 23 1c 3f a6 63 08 3f dd 4a 66 3f
       0.24451786 0.6099124 0.5327705 0.8995798
000150 30 26 07 3f 78 5e fd 3e ea 18 89 3e 68 d9 3f 3f
       0.52792645 0.49486136 0.2677682 0.7494111
000160 51 55 9a 3e b4 92 24 3e b0 ca 9b 3e f9 ff 26 3f
       0.30143216 0.16071588 0.30428076 0.65234333
000170 41 d0 eb 3e 4d cb 3c 3e 57 db 45 3f 19 d6 1c 3f
       0.46057323 0.18436928 0.7728781 0.6126419
000180 aa 3c eb 3e 25 10 e8 3e 3a ca 42 3f 2f 5e 3e 3e
       0.4594472 0.45324817 0.76089823 0.18590616
000190 cb f6 1d 3f 53 a2 11 3f f8 75 1b 3f c7 1b 97 3e
       0.617047 0.5688831 0.6072688 0.2951338
0001a0 8a fa 0d 3f a4 98 6e 3e 65 c1 02 3f af b6 40 3f
       0.5546042 0.23300415 0.51076347 0.75278753
0001b0 f9 99 a3 3d d6 90 e9 3e f7 46 00 3f ef bb 1c 3f
       0.07988352 0.45618314 0.50108284 0.61224264
0001c0 17 aa 13 3f dc 8d 1b 3f 62 77 66 3e fc fa 99 3d
       0.5768141 0.60763335 0.22506478 0.075185746
0001d0 ba 4a 52 3f d2 55 f7 3e aa e7 13 3f df 65 2c 3e
       0.82145274 0.48307663 0.57775366 0.16835736
0001e0 8c 09 a7 3e 25 5a b4 3d 9e 50 80 3e 0d 3a 0b 3f
       0.3262447 0.08806256 0.25061506 0.54385453
0001f0 d0 99 ef 3e 16 1e 06 3f 1c 6d dc 3e b5 fe 54 3e
       0.46797037 0.5238966 0.43051994 0.20800288
000200 dc 13 80 3f 77 bb dc 3d 4e e9 b1 3e 57 62 be 3e
       1.0006061 0.107779436 0.3474831 0.37184402
000210 b9 ea db 3e 40 99 20 3f c2 43 33 3f e4 5e c3 3e
       0.42952517 0.6273384 0.70025265 0.38158333
000220 a8 10 9f 3e 86 0e 6e 3f ee 7b 2f 3f e5 bc 80 3e
       0.31067395 0.9299091 0.68548477 0.25144115
000230 3b 3a 9d 3e 2d c2 b9 3e 6d f7 a9 3e 91 83 04 3f
       0.3070849 0.36280957 0.33196583 0.51763254
000240 e5 03 e0 3e 0c f9 37 3e d7 b8 a1 3e d8 8c f0 3d
       0.4375297 0.17966098 0.31586334 0.11745614
000250 a3 d6 27 3f 92 f9 00 3e d3 5a e1 3e 90 ef 17 3e
       0.65561885 0.12595204 0.44014606 0.1483748
000260 aa d1 89 3e af d9 2d 3f 74 9a a3 3e 32 eb 33 3e
       0.26917773 0.67910284 0.31953776 0.17570189
000270 2e c6 1c 3f 9f 96 32 3f c9 15 59 3e 0c 2e 3c 3e
       0.612399 0.6976108 0.21199717 0.1837694
000280 bf 67 00 3e 0a b8 80 3e 58 5b 0c 3f 1c 39 be 3e
       0.12539576 0.2514041 0.5482688 0.37152946
000290 f0 0a a7 3e cd 56 dd 3e a8 00 3d 3f 0b 29 4e 3f
       0.32625532 0.43230286 0.73829126 0.80531377
0002a0 15 47 71 3e 60 2c 81 3e f0 d7 31 3f b0 5c 8c 3e
       0.23562272 0.25229168 0.6947012 0.27414465
0002b0 15 06 03 3f d7 07 3f 3f 56 3c 23 3f 92 98 a6 ba
       0.51181155 0.7462134 0.6376394 -0.0012710264
0002c0 8b 77 4d 3f 50 d4 a3 3e 72 60 12 3f 45 03 2c 3f
       0.80260533 0.3199792 0.57178414 0.6719249
0002d0 8a 46 0a 3f 4a 42 2c 3f a6 a8 34 3e 2b 3b 55 3e
       0.54013884 0.6728865 0.1764246 0.20823352
0002e0 93 b8 08 3f 9c 9d 78 3f 53 69 6c 3e c1 f2 56 3f
       0.5340664 0.9711549 0.23087053 0.83964163
0002f0 d4 d4 58 3f db 25 33 3e ed b9 4b 3f a9 3b a2 3e
       0.8469975 0.1749491 0.79580575 0.31686142
000300 46 4b 2d 3f 86 9a 5e 3f 03 c1 3e 3f 4d ff 32 3f
       0.67692983 0.86954534 0.7451326 0.6992081
000310 56 97 fd 3e b4 7c 2a 3f 2d 81 28 3f 67 2b e3 3e
       0.49529523 0.6659653 0.65822107 0.4436905
000320 d3 35 2a 3f fb a7 29 3e d1 36 84 3f ed 5c 3b 3f
       0.6648838 0.16567986 1.0329229 0.7318867
000330 84 34 28 3e 08 22 f8 3e 9e 3e c8 3e 76 2d f6 3e
       0.16426283 0.48463464 0.39110273 0.4808156
000340 5e 98 c1 3e f2 ac e0 3e 7b 72 d6 3e b3 39 98 3e
       0.3781156 0.43881947 0.41884217 0.2973152
000350 e4 f1 3b 3e 5f d4 97 3e b7 08 31 3f c6 10 05 3f
       0.18353993 0.29654214 0.6915392 0.5197872
000360 6c 4e 02 3f 38 da 0b 3f 50 90 89 3e e7 38 4e 3e
       0.5090091 0.5462985 0.26867914 0.20138894
000370 fc 24 17 3f 46 2b 45 3f 90 7c 1d 3f f1 f3 61 3e
       0.5904081 0.77019155 0.6151819 0.22065713
000380 17 aa b2 3e 6c 19 41 3f 31 e2 d7 3e 91 3f fd 3e
       0.34895393 0.75429416 0.42164758 0.4946256
000390 9e 59 83 3e 41 72 2d 3f 02 8c 53 3f 73 2b 19 3f
       0.2565431 0.6775246 0.8263551 0.59831923
0003a0 6d 52 0d 3f 9c 4c ac 3e 56 5b 34 3e 02 e8 ff 3e
       0.55203897 0.33652198 0.17612967 0.49981695
0003b0 97 5c c3 3e 87 f8 ed b9 16 9b 05 3f e3 69 10 3f
       0.38156578 -0.0004538933 0.5218977 0.5641157
0003c0 41 47 04 3f eb e8 d0 3e ce 62 08 3f e8 f5 48 3f
       0.51671225 0.40802702 0.53275764 0.78500223
0003d0 4e b7 ba 3e 22 19 87 3e 3c 85 b1 3e a7 d8 e6 3e
       0.36467975 0.26386362 0.34671962 0.45087168
0003e0 fc c3 27 3f 6c 00 1f 3e 45 41 13 3f 03 5d 29 3f
       0.65533423 0.15527505 0.5752147 0.6615755
0003f0 97 06 be 3e 94 8c 3c 3f eb da 28 3f 5f 60 a9 3e
       0.37114403 0.73652005 0.6595904 0.33081338

bn1.bias f4 [600]
000000 bd d8 d8 bd 39 ca 9d be 49 c7 56 bd 07 dd f3 bd
       -0.105882145 -0.30818346 -0.052436147 -0.11907392
000010 c7 29 a5 be c7 94 1e 3e 79 84 61 be 6f 21 82 be
       -0.32258436 0.15486442 -0.2202319 -0.25416133
000020 fc 5e b6 be ff 0d 49 be 91 95 5b be e5 b0 a6 bd
       -0.35619342 -0.19634245 -0.21443774 -0.08139209
000030 57 f7 ee bd 96 1b 72 be 25 5c 60 3d f8 73 85 be
       -0.1166827 -0.23643336 0.054775376 -0.2606504
000040 b0 e6 58 3e 8a 55 b4 bd 00 77 12 be 14 4a da be
       0.2118175 -0.08805378 -0.14303207 -0.42634642
000050 78 76 ba be 2a 2e 5a bd 4c 7e 1f be d1 2c b3 be
       -0.3641851 -0.05326668 -0.15575522 -0.3499513
000060 64 30 81 bd c0 47 75 bd 03 e5 8a be 83 a9 31 be
       -0.06308058 -0.05988288 -0.27127847 -0.1734982
000070 64 c9 4a 3e 81 0f 70 be 8c 04 76 be 73 c7 f5 bc
       0.19803387 -0.23443414 -0.24025172 -0.030002331
000080 5d 33 db bd a6 c1 b4 be c4 64 f8 bd 2c 55 06 be
       -0.10703156 -0.35303992 -0.121285945 -0.13118428
000090 54 ad 9e bd 37 c6 37 be 82 96 07 be bf 43 0a be
       -0.077479035 -0.17946707 -0.13241008 -0.13502406
0000a0 e7 9e bd bd 3c 1a 7c be a8 bc dc be e5 a5 c7 be
       -0.09258824 -0.24619383 -0.43112683 -0.38993755
0000b0 d0 67 2b be 37 a0 83 bd 05 33 a0 bc 1a fc 01 be
       -0.1673882 -0.06427043 -0.019555578 -0.12693825
0000c0 a2 a2 21 bc 40 4b 39 be 3c bc 89 bd 17 05 b8 be
       -0.009865435 -0.18095112 -0.06725356 -0.35941383
0000d0 a5 dc c2 3d d2 a1 14 bd 2a 82 df bc 8f 50 b0 be
       0.09514741 -0.036287136 -0.027283747 -0.3443646
0000e0 fd cd 26 bc c3 bb a7 be af 9f 13 3d 86 91 36 be
       -0.010180947 -0.32760438 0.036040958 -0.1782895
0000f0 c7 4c 56 be 65 b5 c7 bd 43 df d0 3d db 17 5d be
       -0.20927726 -0.09751395 0.10198834 -0.21591131
000100 4c b6 0b bf 95 17 66 be 7d 7f 93 3e cd 3e b1 be
       -0.5457504 -0.22469933 0.28808203 -0.34618226
000110 91 81 e9 bd 75 7f de be 1e a0 f2 bd 6b b2 21 3d
       -0.11401666 -0.43456617 -0.11846946 0.039476793
000120 b2 c6 c8 bd 0f ed 8d be a3 d9 4d be 4a b4 40 be
       -0.09803523 -0.27719924 -0.20102553 -0.18818775
000130 b5 a8 8b be 1b 8b a7 3d db aa e4 bd 03 7a 7a be
       -0.2727715 0.08180829 -0.111654006 -0.24460606
000140 05 e6 2b be 5f aa f5 bd 08 25 8a be ca 24 73 be
       -0.16786964 -0.11995386 -0.26981378 -0.23744503
000150 50 7b 9b be 43 e4 43 be 4c 91 b8 bd 09 ee 8d be
       -0.30367517 -0.19130044 -0.09012088 -0.2772067
000160 9d 99 bf be ed 27 31 bc cf 75 2a be 97 52 92 be
       -0.37421885 -0.010812742 -0.16646503 -0.28578636
000170 37 2a c2 be 40 62 61 bd 41 dd cb 3d 87 b5 ac be
       -0.37922832 -0.05502534 0.0995431 -0.33732244
000180 34 24 94 be 4f d1 8c be bd 44 1c be 70 9f 4e be
       -0.2893387 -0.2750344 -0.15260597 -0.20178008
000190 3f 79 af 3c dd d6 b2 be 64 82 b4 be 1e 83 0f be
       0.02142012 -0.34929553 -0.3525573 -0.14014861
0001a0 c5 94 8f be fa e2 40 be b0 dc 3e be 32 51 b5 be
       -0.2804319 -0.18836585 -0.18638873 -0.3541351
0001b0 a1 9e 23 3d 74 83 29 3e 5a 98 7a be cb 58 1f be
       0.039946202 0.16554052 -0.2447218 -0.15561216
0001c0 a3 6a 3e 3c a3 29 6d be 34 99 f2 bd 63 7e 4f 3d
       0.011622104 -0.23160414 -0.118456274 0.05065764
0001d0 96 38 2f be 5e 0c 61 be 17 e8 33 be 36 69 5e bd
       -0.1711143 -0.21977374 -0.17569004 -0.054299556
0001e0 bb 9d 59 be 6c 33 46 bd 49 48 32 bd ae a0 61 be
       -0.21251576 -0.048388883 -0.043525968 -0.2203395
0001f0 5c 50 b6 bd 41 85 98 3d 9f 29 51 be d8 27 2b be
       -0.08902046 0.07447291 -0.20426033 -0.16714418
000200 8f f9 ae bd c7 28 f5 bd 97 1e 9d bd 82 49 63 be
       -0.08543693 -0.11970668 -0.0767185 -0.2219601
000210 15 a8 ad be 84 fe 92 be 96 c8 a2 be f6 16 8e be
       -0.339173 -0.28709805 -0.3179366 -0.27751893
000220 3b 89 89 be 9c b7 86 be 0e 38 31 be 72 f5 48 be
       -0.2686251 -0.26311958 -0.1730654 -0.1962488
000230 55 89 be bd cb 19 77 bd 69 27 20 be a9 2a 97 be
       -0.09303538 -0.060327332 -0.15640034 -0.29524735
000240 2e 91 75 be fa 56 c0 bd f4 2f 69 be e7 00 2a 3d
       -0.23981163 -0.093915895 -0.22772199 0.041504767
000250 ed cf 8d be 37 56 ff bd 30 ec 52 be db 90 c8 3c
       -0.27697697 -0.12467616 -0.20597911 0.024483135
000260 89 e2 06 bd 71 d0 31 be 83 af 05 be af ef 46 be
       -0.032930885 -0.1736467 -0.13055234 -0.1942737
000270 57 c4 eb be 3e 31 cc be 3b 8a b3 bc eb 10 68 bd
       -0.46048233 -0.3988132 -0.0219165 -0.05665676
000280 1c b3 a3 ba d9 50 31 be 57 d5 57 be 28 40 07 be
       -0.0012489292 -0.17315997 -0.21077476 -0.13208067
000290 89 28 69 bd 1a b5 35 be 43 ed 77 be 09 9f 56 be
       -0.056923423 -0.17744866 -0.24211602 -0.20959105
0002a0 cc 6b 1b be a3 93 f8 bd de a3 e6 3c c3 90 25 bd
       -0.1517784 -0.121375345 0.02815431 -0.04042126
0002b0 0a ae 37 be 15 a2 9e be 3f 26 09 be 8b 48 30 bc
       -0.17937484 -0.30983034 -0.13393496 -0.010759483
0002c0 6f b6 fe bd ec 93 b1 be 3e 85 97 be 26 81 fd bd
       -0.1243714 -0.34683168 -0.29593843 -0.12378149
0002d0 ae 09 03 bd 54 b9 82 be 45 24 0a bd 64 ba ed bd
       -0.031991653 -0.2553202 -0.033725996 -0.11607817
0002e0 65 83 58 be 97 a5 73 3e 75 af 02 be 9b 2d ac bd
       -0.21143873 0.23793636 -0.12762244 -0.08407136
0002f0 9b 44 3d be 2c f0 2d be 2a 15 6e bd 60 e8 19 bd
       -0.18483202 -0.1698615 -0.058125652 -0.037575126
000300 30 32 c8 3e ee 09 5e be 8d 1c 22 be c4 de 51 be
       0.3910079 -0.21683475 -0.15831204 -0.20495135
000310 fe 2d 4c be 42 89 b8 be c2 95 4b be 88 68 88 be
       -0.1993942 -0.3604222 -0.19881347 -0.2664225
000320 63 26 6d be 62 28 62 3d 3f cf 79 be 80 52 15 be
       -0.23159175 0.055214293 -0.24395464 -0.14582253
000330 12 73 b9 bd 43 f9 a5 be 02 03 65 be 62 63 65 be
       -0.09055151 -0.32416734 -0.22364429 -0.22401193
000340 cc 3f 4d be 08 c0 fb bd 75 83 3c be dd 61 01 be
       -0.20043868 -0.122924864 -0.18409522 -0.12634988
000350 e3 c8 28 be 98 3c 26 be 18 74 89 be 99 7d 50 be
       -0.16482882 -0.16234052 -0.26846385 -0.20360412
000360 ce 43 e8 3c 73 2d fa be 8a d5 e8 bd 4f c6 63 be
       0.028352644 -0.488628 -0.11368854 -0.22243617
000370 4c be 81 be 5e 32 3a be 26 e6 d5 be ea d3 a3 bd
       -0.25340497 -0.18183276 -0.41777152 -0.07999404
000380 5c a5 4a be 1f 8e 6d be cd 02 e2 bd 87 b6 da bd
       -0.19789642 -0.23198746 -0.110356905 -0.106793456
000390 a5 6e 5a be d1 b8 7f be 53 92 3d be 1b 49 ac be
       -0.2133127 -0.24972846 -0.1851285 -0.33649525
0003a0 5b b3 61 3e 52 b0 32 be 25 6d eb bd e4 5c 27 be
       0.22041075 -0.17450073 -0.11495427 -0.16344029
0003b0 7b 6f 8f be 93 43 6b bb 1d a7 ab be 7a 60 96 be
       -0.2801474 -0.0035898432 -0.33525935 -0.2937048
0003c0 73 e9 36 be 9c 67 c0 be 67 27 91 be 4a 00 ec bd
       -0.17862491 -0.37579048 -0.28350374 -0.11523493
0003d0 85 7a 3e be ed 9d 20 be bb db af bd d9 9d 0e be
       -0.18601425 -0.15685244 -0.08586832 -0.13927402
0003e0 52 c5 64 3e d4 3c 09 be 53 11 d7 be d1 b2 b0 be
       0.22340897 -0.1340211 -0.42005405 -0.34511426
0003f0 b4 72 58 be e9 b9 65 be d4 f3 a3 bc 1b 47 12 3d
       -0.21137506 -0.224342 -0.020013727 0.035712343
