Bipedal-Walker/weights-hardcore/1checkpoint_actor_t.pth (torch_old, 802636 bytes, 14 tensors)

fc1.weight f4 [600, 24]
-0.035464685 -0.07180021 -0.30803424 -0.20208457 0.01585587 0.05709737 0.05744454 0.08587969
0.30176988 0.09602347 -0.101653166 0.06114742 -0.033407193 -0.048315648 -0.1647268 -0.08947544
0.11956489 0.19211423 0.029973611 -0.037225682 0.18889694 0.23238696 0.07437355 0.19978546
-0.32442915 -0.3059909 0.45914066 -0.15614463 -0.09485246 0.057668637 0.086376294 0.056509525
-0.06424645 0.013583934 -0.082205765 -0.17573354 -0.009053437 0.07156701 0.14018133 0.15867956
0.028802438 -0.20452441 -0.10313093 -0.12677115 -0.12875642 -0.0050689196 0.28348213 0.07164886
-0.15328142 -0.06401998 0.30652574 0.5518525 0.034309592 0.036612164 0.155948 -0.036067314
0.042116627 -0.086257406 -0.16200927 -0.00018066721 0.022949869 -0.051460642 -0.24667864 -0.059593372
-0.06197184 -0.1757268 -0.11146688 -0.118094265 0.10887528 0.19977434 -0.20153192 -0.026968366
0.09270172 0.36225232 0.23949036 0.122784145 -0.044813924 -0.16829483 0.04114657 -0.19591722
-0.1872965 0.12472163 0.123034164 -0.12689835 0.18980227 -0.09651878 0.019704424 -0.010703834
0.096441016 -0.061951365 0.15175135 0.12223222 0.17851204 0.051159 -0.38322172 -0.2360903
0.29797074 0.4525169 -0.33186 0.16046715 0.20253126 -0.025686193 -0.13925318 -0.01285658
0.14930542 0.085607015 0.024845669 0.0064251316 0.003064241 -0.0034950152 0.04664501 0.24106835
0.0971318 0.34774172 0.16180553 0.0140368715 0.11690824 0.12936002 0.18415348 0.17677878
0.13725859 0.14874117 -0.03716449 0.37100378 -0.08467949 -0.010305202 -0.16282187 -0.1442142
-0.060156256 -0.26267168 -0.049890246 -0.118647695 -0.032976553 0.06911394 0.29357165 0.093045495
0.058443334 0.01602852 0.032582685 0.15832599 0.22983946 0.21114077 0.5202602 0.2810217
-0.17565899 -0.13233167 0.036573496 -0.31405622 -0.021203922 -0.14143445 -0.20346506 -0.21460757
0.1102208 0.097987935 0.11604251 -0.13760762 0.07137618 -0.03016253 -0.13616972 -0.32273903
-0.37501493 -0.5030008 -0.59198517 -0.26036733 -0.20710437 0.020997731 -0.004408589 0.56373495
-0.31888333 -0.14454432 0.32816455 -0.0024426284 0.17614794 0.009732934 -0.16553433 0.03691753
0.06611382 0.05057647 0.008572234 -0.075829595 -0.020195253 0.10720143 0.14986473 0.06989979
0.16241959 0.071298696 -0.13285433 -0.25542402 -0.3673604 0.011489876 0.15649353 0.052756045
-0.29873955 -0.7940092 -0.01001142 -0.19080018 -0.052408483 -0.037065372 -0.12265249 -0.019316904
0.05097676 -0.05464545 -0.0028018283 -0.075202785 -0.032693516 0.027512029 -0.06257472 0.27431205
0.13448769 0.027043177 -0.06608193 -0.10061908 -0.089537315 -0.10709506 -0.037474807 0.10354933
-0.10744212 -0.3169182 0.35759342 -0.49811575 -0.09176074 0.14474069 -0.070840485 0.048790485
-0.10855836 0.09142369 -0.068961434 0.07094266 -0.013169183 0.0049347975 0.1992463 0.34797785
0.17881933 0.23291327 0.0009846673 -0.15127546 0.101651095 -0.11372566 -0.20992872 0.349686
0.10984702 0.15228419 -0.28143767 -0.010565911 0.061709534 -0.24832469 0.091289245 0.0041596955
0.1599693 -0.11692258 0.09056023 0.017481092 0.075966395 0.06433559 -0.07294194 -0.12393792
00000000: 6b43 11bd fd0b 93bd aab6 9dbe 42ef 4ebe
00000010: 2be4 813c efde 693d f74a 6b3d b1e1 af3d
00000020: 9581 9a3e f4a7 c43d 892f d0bd b875 7a3d
00000030: fbd5 08bd a1e6 45bd 24ae 28be e63e b7bd
00000040: 70de f43d 98b9 443e 388b f53c f579 18bd
00000050: 336e 413e d9f6 6d3e 2951 983d 8f94 4c3e
00000060: 941b a6be d7aa 9cbe 7c14 eb3e 61e4 1fbe
00000070: 0242 c2bd f335 6c3d 0ee6 b03d 8876 673d
00000080: a593 83bd 268f 5e3c 7f5b a8bd 7ef3 33be
00000090: de54 14bc b991 923d b28b 0f3e e57c 223e
000000a0: 17f3 eb3c d96e 51be 4f36 d3bd 4cd0 01be
000000b0: b9d8 03be 2e19 a6bb 9224 913e a3bc 923d
000000c0: cef5 1cbe e81c 83bd f1f0 9c3e 3546 0d3f
000000d0: 3788 0c3d a3f6 153d d5b0 1f3e 52bb 13bd
000000e0: 7c82 2c3d b9a7 b0bd c2e5 25be 7c71 3db9
000000f0: 5d01 bc3c 65c8 52bd 5399 7cbe 2e18 74bd
00000100: 2fd6 7dbd baf1 33be bf48 e4bd 68db f1bd
00000110: 01fa de3d a591 4c3e 625e 4ebe c3ec dcbc
00000120: 66da bd3d 2379 b93e f63c 753e 4176 fb3d
00000130: ce8e 37bd 7b55 2cbe 4e89 283d 869e 48be
00000140: a7ca 3fbe 0e6e ff3d 56f9 fb3d a4f1 01be
00000150: 875b 423e a3ab c5bd 2c6b a13c 225f 2fbc
00000160: de82 c53d b7c0 7dbd b564 1b3e e354 fa3d
00000170: dccb 363e 198c 513d a335 c4be a8c1 71be
00000180: 9f8f 983e 4cb0 e73e 8ee9 a9be 8051 243e
00000190: 5b64 4f3e da6b d2bc 6398 0ebe 68a4 52bc
000001a0: 85e3 183e bb52 af3d 2589 cb3c e989 d23b
000001b0: 6fd1 483b a00c 65bb d70e 3f3d 9fda 763e
000001c0: 0aed c63d 340b b23e 59b0 253e e8fa 653c
000001d0: 966d ef3d f476 043e bb92 3c3e 7f05 353e
000001e0: 848d 0c3e 9b4f 183e cb39 18bd 35f4 bd3e
000001f0: 716c adbd 26d7 28bc c7ba 26be e3ac 13be
00000200: 6866 76bd e77c 86be b759 4cbd 90fd f2bd
00000210: 6c12 07bd 9c8b 8d3d 064f 963e a38e be3d
00000220: 4762 6f3d 3e4e 833c 6c75 053d 3520 223e
00000230: 095b 6b3e 4935 583e c62f 053f 14e2 8f3e
00000240: f3df 33be f481 07be 17ce 153d facb a0be
00000250: d9b3 adbc 31d4 10be 2559 50be 16c2 5bbe
00000260: 71bb e13d e6ad c83d b2a7 ed3d 03e9 0cbe
00000270: ad2d 923d 6917 f7bc 1370 0bbe 0d3e a5be
00000280: f501 c0be a9c4 00bf 578c 17bf de4e 85be
00000290: 2b13 54be 6f03 ac3c ed75 90bb ef50 103f
000002a0: ad44 a3be 6d03 14be 2f05 a83e 8114 20bb
000002b0: 2060 343e e276 1f3c d581 29be d636 173d
000002c0: af66 873d 4629 4f3d 8e72 0c3c 8c4c 9bbd
000002d0: 8470 a5bc 6c8c db3d 2476 193e 9f27 8f3d
000002e0: 5251 263e 0d05 923d f70a 08be f0c6 82be
000002f0: aa16 bcbe 0840 3c3c d73f 203e b916 583d
00000300: 64f4 98be 3044 4bbf f006 24bc 1f61 43be
00000310: 47aa 56bd dcd1 17bd 3b31 fbbd 7c3e 9ebc
00000320: 02cd 503d e8d3 5fbd e19e 37bb eb03 9abd
00000330: a3e9 05bd e860 e13c 2d27 80bd a172 8c3e
00000340: 24b7 093e a789 dd3c f755 87bd 6011 cebd
00000350: 575f b7bd a854 dbbd 2f7f 19bd ac11 d43d
00000360: 9d0a dcbd 1a43 a2be 7c16 b73e 0709 ffbe
00000370: 0eed bbbd e736 143e d114 91bd 88d8 473d
00000380: d853 debd 583c bb3d a73b 8dbd 634a 913d
00000390: 8fc3 57bc 15b4 a13b 3907 4c3e 272a b23e
000003a0: 6a1c 373e d180 6e3e f40f 813a f4e7 1abe
000003b0: 732e d03d 00e9 e8bd 8ef7 56be 0b0a b33e
000003c0: 79f7 e03d 63f0 1b3e 9918 90be a51c 2dbc
000003d0: 23c3 7c3d d448 7ebe dbf5 ba3d 0e4e 883b
000003e0: fece 233e 1b75 efbd a477 b93d 8234 8f3c
000003f0: 4594 9b3d 61c2 833d 9562 95bd 2ad3 fdbd

fc1.bias f4 [600]
0.003777331 -0.10149301 -0.120195724 -0.17760956 0.05396646 -0.030119712 -0.11404113 0.18226512
0.1223499 0.01918023 0.054435648 -0.02323462 0.14106505 -0.20640866 -0.112808265 0.1441062
0.17914225 -0.016947128 -0.07248012 0.11381691 0.14040047 -0.06022777 0.11191459 0.07858343
-0.021213425 -0.10372204 0.07930443 -0.030670127 0.064397596 -0.14503455 0.07750264 0.18996634
-0.09723023 0.11135554 0.09658399 -0.028258314 -0.1290391 0.106844805 -0.14746511 0.1297284
-0.13912737 -0.19461294 0.01840959 0.08902126 -0.17291974 0.053822495 -0.012831458 -0.118479
-0.060433336 0.16176845 -0.14231573 -0.08440974 0.03690188 -0.16327094 0.023531068 0.051601566
0.06542812 0.04168433 0.17376454 0.010143962 0.19237155 -0.124697074 0.024706887 -0.13853887
-0.20045407 0.021794753 -0.005822333 -0.13858382 -0.093826465 -0.15600842 0.047330275 0.09746942
-0.10046468 0.16777423 -0.17919198 -0.16644716 0.2028954 0.06261715 -0.10897529 -0.0951454
-0.00867241 -0.16372953 0.09873297 -0.05892963 0.19374599 0.10634404 0.15724064 -0.17811833
0.15571381 -0.12847292 -0.10105364 0.048606653 -0.17400818 -0.07266038 0.069686264 -0.096554704
0.17118537 0.1081801 -0.14269069 0.034572303 -0.19528167 0.10056821 -0.06772388 0.046993162
-0.08848191 0.15829548 -0.0013799076 -0.14648986 -0.19455808 -0.09727446 -0.025648883 -0.060823906
-0.04760157 -0.1081632 -0.006704535 0.09432296 -0.13331355 -0.046649024 -0.013889109 0.14939648
-0.007662398 -0.07201195 0.11587842 0.025825217 0.08668308 -0.083846375 -0.0889115 0.08148557
0.14676186 0.066544645 0.051590227 -0.017556751 -0.16726252 0.02962164 0.03998112 0.11138161
0.0276845 0.18971248 -0.03767844 0.12648536 -0.18560266 -0.03372488 -0.13261479 0.012710365
-0.17632602 -0.10402758 0.15461788 0.085182436 0.15573005 0.084487185 0.13715754 -0.10001978
0.07328383 -0.2068009 -0.14444286 -0.19519769 0.104524486 0.040780827 -0.12729335 0.016628908
0.17573336 -0.11193568 -0.14548713 -0.1681822 -0.028895972 0.20497145 0.0367677 -0.008240059
-0.029632721 -0.057693798 -0.08465464 0.19507913 -0.07765756 -0.07781726 -0.056059472 0.17857349
-0.1280612 0.20802093 -0.012836279 -0.07156802 0.121118516 0.14506547 -0.07755491 0.11942162
-0.11354115 -0.067940354 0.14379779 0.13321929 -0.15828034 -0.15298052 -0.17880693 -0.03191169
-0.04059406 0.075889334 0.06954004 -0.13728254 -0.0089090895 -0.13088872 0.01019667 0.08861676
-0.17996903 0.20301503 0.060669146 -0.20638236 -0.092901826 0.19657618 0.032072697 -0.1757264
-0.11234399 -0.1675915 0.060634848 -0.10843723 0.18697123 0.069851905 -0.12586904 0.15910126
-0.042588525 -0.14540489 -0.16790667 -0.09859092 0.09483716 0.025010135 -0.06562526 -0.073865525
-0.053808864 -0.14051193 0.21100666 -0.1757446 -0.024656026 0.03194059 0.027087616 -0.020371616
-0.16080171 -0.07475479 -0.1125417 0.18814445 -0.07977296 -0.14655623 -0.14834055 -0.17586479
-0.037736215 -0.09256405 -0.14598508 -0.07365537 0.17498094 -0.21706879 -0.019994706 0.20993431
0.12778783 0.05000555 0.09219503 -0.06854163 -0.20222701 -0.13283683 -0.1049221 0.15550615
00000000: 198d 773b 91db cfbd 2d29 f6bd 48df 35be
00000010: ef0b 5d3d 9dbd f6bc 658e e9bd b5a3 3a3e
00000020: 9692 fa3d dc1f 9d3c eaf7 5e3d 8856 bebc
00000030: 5b73 103e cb5c 53be 0508 e7bd 9390 133e
00000040: 1171 373e b4d4 8abc 7570 94bd d718 e93d
00000050: 24c5 0f3e 65b1 76bd 7a33 e53d 59f0 a03d
00000060: c7c7 adbc 396c d4bd 5c6a a23d eb3f fbbc
00000070: e3e2 833d f083 14be b4b9 9e3d 8986 423e
00000080: a520 c7bd 600e e43d d4cd c53d fb7d e7bc
00000090: d322 04be 73d1 da3d 1801 17be 86d7 043e
000000a0: 6877 0ebe 9d48 47be b5cf 963c c750 b63d
000000b0: df11 31be fa74 5c3d 093b 52bc 1ea5 f2bd
000000c0: f288 77bd a1a6 253e 37bb 11be 04df acbd
000000d0: 6d26 173d 7f30 27be 3ac4 c03c 2a5c 533d
000000e0: 2eff 853d 30bd 2a3d 55ef 313e dc32 263c
000000f0: 0cfd 443e 2e61 ffbd 1966 ca3c 22dd 0dbe
00000100: d543 4dbe e98a b23c 45c9 bebb ebe8 0dbe
00000110: 1728 c0bd acc0 1fbe 64dd 413d 0c9e c73d
00000120: 6dc0 cdbd 02cd 2b3e 1a7e 37be 2071 2abe
00000130: d0c3 4f3e 6c3d 803d 702e dfbd 97db c2bd
00000140: b916 0ebc b7a8 27be 8334 ca3d 3260 71bd
00000150: 5965 463e e7ca d93d b103 213e a764 36be
00000160: 7173 1f3e 688e 03be 36f5 cebd c517 473d
00000170: 332f 32be f7ce 94bd acb7 8e3d 79be c5bd
00000180: 384b 2f3e 878d dd3d 821d 12be b09b 0d3d
00000190: ebf7 47be b5f6 cd3d d1b2 8abd e77b 403d
000001a0: 0136 b5bd 3618 223e 04de b4ba 7001 16be
000001b0: 3c3a 47be d537 c7bd 9b1d d2bc 7d22 79bd
000001c0: ddf9 42bd ab84 ddbd b7b1 dbbb 652c c13d
000001d0: 5983 08be 0c13 3fbd 258f 63bc 64fb 183e
000001e0: da14 fbbb 007b 93bd aa51 ed3d 688f d33c
000001f0: e686 b13d a6b7 abbd 3c17 b6bd e8e1 a63d
00000200: be48 163e 8f48 883d 4650 533d 2dd3 8fbc
00000210: de46 2bbe 15a9 f23c 3ec3 233d 0b1c e43d
00000220: 9bca e23c fd43 423e b554 1abd 6185 013e
00000230: a00e 3ebe 1a23 0abd 2ccc 07be 223f 503c
00000240: cf8e 34be 690c d5bd 2654 1e3e 2174 ae3d
00000250: b377 1f3e 9e07 ad3d 0773 0c3e 2cd7 ccbd
00000260: d515 963d 9dc3 53be d4e8 13be e7e1 47be
00000270: ef10 d63d cc09 273d 3059 02be 5939 883c
00000280: 72f3 333e 893e e5bd 94fa 14be f437 2cbe
00000290: 3fb7 ecbc 09e4 513e ba99 163d 5001 07bc
000002a0: 52c0 f2bc 5550 6cbd 695f adbd d3c2 473e
000002b0: ed0a 9fbd a85e 9fbd 9e9e 65bd f8db 363e
000002c0: 7a22 03be 7003 553e 424f 52bc 4192 92bd
000002d0: fc0c f83d 0b8c 143e 1cd5 9ebd 5393 f43d
000002e0: 4388 e8bd 5024 8bbd ba3f 133e a36a 083e
000002f0: 3e14 22be eda6 1cbe 2a19 37be d5b5 02bd
00000300: f545 26bd de6b 9b3d 026b 8e3d cb93 0cbe
00000310: 6ef7 11bc b107 06be ef0f 273c b47c b53d
00000320: cd49 38be 2ce3 4f3e 3680 783d e655 53be
00000330: 5043 bebd 444b 493e a95e 033d 9ff1 33be
00000340: 9b14 e6bd 1b9d 2bbe 3f5c 783d 5714 debd
00000350: 6375 3f3e 840e 8f3d d0e3 00be 71eb 223e
00000360: 4e71 2ebd 05e5 14be baef 2bbe 09ea c9bd
00000370: fc39 c23d 0ee2 cc3c 8966 86bd cf46 97bd
00000380: af66 5cbd 5ce2 0fbe 2112 583e 64f6 33be
00000390: 6ffb c9bc 23d4 023d d9e6 dd3c 60e2 a6bc
000003a0: 34a9 24be 0a19 99bd 437c e6bd f0a8 403e
000003b0: 0160 a3bd d612 16be 96e6 17be e615 34be
000003c0: 4a91 1abd 3892 bdbd 1d7d 15be a0d8 96bd
000003d0: 342e 333e 4847 5ebe f0cb a3bc 05f9 563e
000003e0: d0da 023e 9fd2 4c3d bfd0 bc3d 8e5f 8cbd
000003f0: 9914 4fbe 6106 08be 66e1 d6bd 013d 1f3e

fc2.weight f4 [300, 600]
-0.11789225 0.05334357 -0.019943828 -0.0073031075 -0.08918162 -0.04184284 0.0067346506 -0.19400543
-0.020948056 -0.011566681 0.018124852 0.04471752 0.027179582 -0.0078920005 -0.041056454 -0.13660069
0.088353336 0.16363697 0.034685194 0.06571251 -0.036750764 -0.13014263 -0.070523635 -0.056672204
-0.0068846988 -0.041593585 -0.053340137 0.021247577 -0.05104584 0.008119401 0.020746265 0.09911729
-0.08457348 -0.12485988 -0.10651235 0.015648084 -0.09436312 0.06725547 0.05891859 0.062889904
0.06715924 0.040166967 0.00044136398 0.030350335 -0.065079734 -0.08615785 0.11990152 0.0061548497
0.015003662 -0.099475324 -0.18200846 0.094002545 0.012384598 0.04917606 0.017954685 -0.09483607
-0.00015984758 -0.02544319 0.0671244 -0.120449886 -0.09764948 -0.07592397 -0.030745285 0.05250998
0.050448798 0.064327 -0.06784444 -0.15835829 -0.0718476 0.040367354 0.03880719 0.024218885
-0.0051199906 -0.028561905 -0.043952078 0.075860165 0.07355871 0.108067565 -0.0337765 -0.05748331
0.010040775 -0.042874437 0.026757646 0.06536059 -0.0022953053 0.04886075 0.04901762 0.15857579
0.082931444 -0.10962134 -0.05239878 -0.03887383 0.08789738 0.11801114 -0.058623888 -0.038979236
-0.21632564 0.046309933 -0.0735759 -0.08748157 -0.05418555 -0.06317121 -0.039844073 -0.055649195
-0.104149364 -0.015153692 -0.07884032 -0.06876525 0.034360707 0.0028542017 0.019061374 0.12273735
0.008578067 0.0567248 0.01324013 -0.09736412 -0.04420033 0.035596907 0.085763946 0.029878763
-0.014165361 -0.010185626 0.059889548 -0.1401374 -0.0056662573 0.036013428 0.054080207 0.01293994
-0.05790896 -0.10007568 0.027746191 -0.10883012 -0.06799782 -0.060191885 -0.0127187455 -0.016792469
-0.08711334 -0.09858431 0.007314355 -0.041972302 0.004287425 -0.028366258 0.024509158 0.041492525
0.106308825 0.043484572 -0.13407661 0.05514961 -0.0081057595 -0.05586727 -0.112951346 0.030898497
-0.010004836 0.026922423 0.07802035 0.0055319946 -0.04880162 -0.083238915 0.10738179 0.04971552
-0.012534761 -0.035851683 -0.09716471 -0.07492458 0.052784935 -0.015639858 0.003680276 0.017257849
-0.008771748 0.04992305 -0.07468919 0.026893962 0.057963826 0.14106001 -0.009085643 -0.002826717
-0.009485882 0.043213934 0.0439549 -0.065710686 -0.06267331 0.14583576 0.051365532 0.08516191
-0.0007465998 -0.024908153 -0.07406116 0.02027112 0.10392338 -0.03520652 0.030606367 0.0041737147
-0.009660901 -0.12746382 -0.047976278 -0.010756886 -0.07608405 0.051371947 -0.1491727 0.026576327
-0.01496101 -0.0044113477 0.04491013 0.083220765 0.205453 -0.112129964 0.10810281 -0.00988996
-0.14626902 0.19739501 -0.111485474 0.05384919 -0.023656862 -0.062719904 -0.092650086 -0.057683654
-0.008306681 0.16272107 0.035098895 0.01587195 0.011087662 0.00069466437 0.07610504 -0.08780829
0.0042121033 -0.026885051 -0.009408198 0.06844681 -0.08540894 0.08852147 0.0003794558 0.032695096
0.060784485 -0.08000349 -0.12542658 -0.07974961 -0.056626335 0.009784136 0.041312672 0.0008023931
0.046317097 -0.028699744 0.051652938 -0.13390791 -0.16329543 -0.030171543 -0.037401363 -0.011671084
-0.069445565 -0.02223027 -0.018991427 0.015907295 -0.09981887 -0.0008631895 0.044014767 0.20075138
00000000: 7e71 f1bd ca7e 5a3d 3d61 a3bc e84e efbb
00000010: daa4 b6bd 6663 2bbd 58ae dc3b 5ca9 46be
00000020: 429b abbc 2d82 3dbc 927a 943c b829 373d
00000030: b7a7 de3c 734d 01bc d02a 28bd 0de1 0bbe
00000040: 98f2 b43d 7390 273e 1012 0e3d 4894 863d
00000050: f887 16bd 1c44 05be b26e 90bd 1d21 68bd
00000060: 0a99 e1bb 095e 2abd 307b 5abd 660f ae3c
00000070: 7115 51bd 3c07 053c 12f4 a93c 01fe ca3d
00000080: dc34 adbd 89b6 ffbd 2623 dabd 6930 803c
00000090: 7441 c1bd 3cbd 893d 9f54 713d 6ccc 803d
000000a0: c98a 893d 1e86 243d df66 e739 44a1 f83c
000000b0: 8648 85bd 8773 b0bd ee8e f53d 9fae c93b
000000c0: ebd1 753c b8b9 cbbd 6d60 3abe 6884 c03d
000000d0: c5e8 4a3c d66c 493d b415 933c 6a39 c2bd
000000e0: c29c 27b9 3d6e d0bc 8478 893d 6eae f6bd
000000f0: 73fc c7bd 077e 9bbd 89dd fbbc b414 573d
00000100: 66a3 4e3d e0bd 833d 07f2 8abd ad28 22be
00000110: d624 93bd 3d58 253d 4af4 1e3d af66 c63c
00000120: 98c5 a7bb a8fa e9bc 1807 34bd 935c 9b3d
00000130: f3a5 963d 8752 dd3d 3a59 0abd 9f73 6bbd
00000140: 1082 243c 1b9d 2fbd da32 db3c c6db 853d
00000150: d56c 16bb 3622 483d b3c6 483d b161 223e
00000160: f6d7 a93d 2781 e0bd 1aa0 56bd 2a3a 1fbd
00000170: 8b03 b43d d3af f13d 9a1f 70bd b1a8 1fbd
00000180: 7884 5dbe 7caf 3d3d f6ae 96bd 8a29 b3bd
00000190: abf1 5dbd e85f 81bd 8a33 23bd 69f0 63bd
000001a0: 434c d5bd 3147 78bc 0977 a1bd ccd4 8cbd
000001b0: d0bd 0c3d 8f0d 3b3b 9926 9c3c b85d fb3d
000001c0: 058b 0c3c 4458 683d 21ed 583c d766 c7bd
000001d0: 680b 35bd 10ce 113d 02a5 af3d 4fc4 f43c
000001e0: d515 68bc 9de1 26bc be4e 753d 2e80 0fbe
000001f0: 03ac b9bb d182 133d 3583 5d3d 0b02 543c
00000200: f231 6dbd 7af4 ccbd fb4b e33c 53e2 debd
00000210: 7142 8bbd c48b 76bd 4962 50bc 5c90 89bc
00000220: 7b68 b2bd 92e6 c9bd 42ad ef3b 26eb 2bbd
00000230: 877d 8c3b 5b60 e8bc 6ec7 c83c 11f4 293d
00000240: 71b8 d93d e11c 323d 614b 09be 8fe4 613d
00000250: 05ce 04bc 14d5 64bd 0953 e7bd d81e fd3c
00000260: 53eb 23bc 6a8c dc3c 22c9 9f3d bc45 b53b
00000270: 35e4 47bd 2a79 aabd fcea db3d 80a2 4b3d
00000280: 995e 4dbc 37d9 12bd 4bfe c6bd 0f72 99bd
00000290: 0435 583d 291f 80bc c930 713b 5560 8d3c
000002a0: 61b7 0fbc 1d7c 4c3d a5f6 98bd ba50 dc3c
000002b0: 7a6b 6d3d 0972 103e f3db 14bc 7140 39bb
000002c0: ac6a 1bbc 1801 313d 0e0a 343d 5393 86bd
000002d0: dd5a 80bd f855 153e aa64 523d 5e69 ae3d
000002e0: 77b7 43ba 2f0c ccbc 61ad 97bd 9f0f a63c
000002f0: c8d5 d43d b634 10bd 34ba fa3c a8c3 883b
00000300: c148 1ebc e085 02be c682 44bd a63d 30bc
00000310: f4d1 9bbd 646b 523d bac0 18be 99b6 d93c
00000320: 061f 75bc 118d 90bb aff3 373d a66f aa3d
00000330: 4562 523e 65a4 e5bd 0265 dd3d 8009 22bc
00000340: 8cc7 15be eb21 4a3e 7f52 e4bd f890 5c3d
00000350: 09cc c1bc 4b73 80bd 54bf bdbd b245 6cbd
00000360: bf18 08bc 5aa0 263e dcc3 0f3d e405 823c
00000370: 06a9 353c 231a 363a f6dc 9b3d d5d4 b3bd
00000380: af05 8a3b 0a3e dcbc d824 1abc d72d 8c3d
00000390: e2ea aebd bf4a b53d b2f1 c639 4beb 053d
000003a0: 27f9 783d dfd8 a3bd d36f 00be c353 a3bd
000003b0: 04f1 67bd a44d 203c 7a37 293d b057 523a
000003c0: ffb6 3d3d ba1b ebbc 0892 533d 281f 09be
000003d0: eb36 27be 502a f7bc 2c32 19bd 1338 3fbc
000003e0: 7a39 8ebd 411c b6bc e993 9bbc 0450 823c
000003f0: d66d ccbd ab47 62ba d448 343d c591 4d3e

fc2.bias f4 [300]
0.014458874 -0.01725427 0.036523968 -0.02155941 -0.038886625 0.0028336332 0.040797755 0.0015622578
-0.00091127295 -0.02485879 0.019501725 -0.0035291512 0.026343225 -0.0006693938 -0.002464758 0.0051143025
0.030300977 -0.038588114 0.035335567 -0.033886645 -0.03541312 0.010007577 -0.007944604 0.034523096
-0.03001691 -0.0083498405 -0.009028068 -0.03692032 -0.02748086 -0.021698562 0.031265296 0.013777203
-0.015941035 -0.02857733 0.032025743 -0.01806224 -0.04429236 -0.033523865 0.030378615 -0.009945041
-0.027250858 -0.03637945 -0.024992548 -0.002407702 0.013713162 0.010078361 -0.0012988904 0.016945696
-0.021550847 0.010934983 -0.0028374663 0.013381543 -0.006916214 0.020634575 -0.018564602 -0.0025980778
-0.025538482 0.003105189 0.007107921 0.036493123 -0.016434854 0.0015572617 0.027203852 0.024445154
-0.022028591 0.012037077 -0.0038896238 0.017120441 0.022429843 -0.011703733 0.030441899 0.024603274
-0.03708763 -0.03153024 -0.009909927 0.03390734 -0.018589554 -0.027695306 -0.032142784 -0.02433082
0.014890621 -0.0013591446 -0.0075565274 -0.016277961 -0.0140964575 -0.014205828 -0.008165666 -0.02991511
-0.042745803 -0.023055749 0.0362121 -0.038530685 0.005700596 -0.063613206 0.019563297 -0.016606731
-0.00071080774 0.028239965 0.036254015 0.009633269 -0.009314507 -0.009655944 0.03213275 -0.038478177
-0.02739907 0.02531377 0.010968389 0.030101342 -0.036548242 0.012914183 -0.006519337 0.016293671
-0.031399302 -0.033924073 -0.020548929 0.009531964 -0.0069309026 -0.03520671 0.010558423 -0.017581556
-0.040239125 0.018226879 -0.028777951 -0.0014862757 -0.037915133 -0.02996207 -0.019120945 -0.022345869
-0.0023703454 0.00017695068 0.009764372 -0.037342004 0.007300158 -0.027724016 -0.02862504 0.023373364
-0.024020908 -0.019289007 0.0034021037 -0.032972354 0.009358049 -0.035616584 0.039685477 -0.044563327
-0.028611047 0.024342055 -0.0016974409 -0.013014929 0.0034086101 0.004174308 -0.041193485 0.0023780337
0.028301023 -0.013803045 0.010527992 -0.02339112 0.02052176 -0.019121688 -0.006962888 -0.0025304023
0.0052352296 -0.021821173 -0.03492815 0.015171417 0.021139873 0.022403078 0.0066232663 0.031659193
0.014336055 -0.031192759 0.020036608 0.020606175 0.006678986 -0.01810611 0.0013555402 0.024243154
0.033748165 -0.016442934 0.015118327 0.023541726 0.011714201 0.0346522 0.009787699 0.025503352
0.005927723 0.0076510743 0.009356656 -0.03177063 0.020908097 0.0007824421 -0.006564585 -0.029367153
-0.03726847 -0.01274613 -0.018949037 -0.020340003 -0.0068211392 0.041449916 -0.030875422 -0.00052223273
0.01967075 0.000109376946 -0.024671823 -0.038632154 0.029650042 0.036235545 0.026792329 -0.03960589
-0.0129415495 -0.035494387 -0.04105944 -0.01597069 0.004530715 -0.018874275 -0.0008714297 -0.0005027024
0.0302984 0.0355077 0.008618056 -0.03323331 0.010212203 0.00086840923 0.033779256 -0.013962376
-0.0039870697 -0.037878368 -0.0073734517 -0.018573202 -0.018594293 0.026763372 0.03546696 -0.009917805
0.033223774 0.016855098 -0.01338331 -0.0030367768 -0.02702845 -0.016644394 -0.007525051 0.018399285
0.0031139539 -0.02710604 0.013203203 0.022730414 0.0279511 0.031600773 0.031650044 -0.052417
0.04017511 -0.008363781 0.00766511 -0.040689446 0.016846191 -0.0133448355 -0.03545106 -0.037195485
00000000: eae4 6c3c d458 8dbc 289a 153d 5c9d b0bc
00000010: 9547 1fbd 7ab4 393b 8c1b 273d acc4 cc3a
00000020: 7ee2 6eba a9a4 cbbc 15c2 9f3c 5549 67bb
00000030: bfcd d73c 427a 2fba c787 21bb e195 a73b
00000040: c139 f83c 920e 1ebd 07bc 103d b9cc 0abd
00000050: 590d 11bd d2f6 233c 162a 02bc 1768 0d3d
00000060: 06e6 f5bc c5cd 08bc 76ea 13bc c339 17bd
00000070: 8a1f e1bc 2fc1 b1bc 0a10 003d c7b9 613c
00000080: c696 82bc 011b eabc 6d2d 033d 43f7 93bc
00000090: e86b 35bd 5250 09bd 93dc f83c 86f0 22bc
000000a0: 313d dfbc 9e02 15bd 2cbd ccbc 89ca 1dbb
000000b0: 2cad 603c b61f 253c 883f aaba b3d1 8a3c
000000c0: 678b b0bc a528 333c c9f4 39bb 423e 5b3c
000000d0: 68a1 e2bb d709 a93c cb14 98bc 8344 2abb
000000e0: 1436 d1bc 6d80 4b3b 90e9 e83b d079 153d
000000f0: 63a2 86bc 081d cc3a 9dda de3c 3441 c83c
00000100: 4e75 b4bc 2937 453c 0fe9 7ebb 2b40 8c3c
00000110: cabe b73c 04c1 3fbc 4a61 f93c ce8c c93c
00000120: 33e9 17bd da25 01bd 3f5d 22bc 6ce2 0a3d
00000130: 1f49 98bc 44e1 e2bc 27a8 03bd 6e51 c7bc
00000140: cbf7 733c 5325 b2ba bf9c f7bb 5c59 85bc
00000150: d4f4 66bc 90bf 68bc 49c9 05bc 8810 f5bc
00000160: 3916 2fbd 69df bcbc 2453 143d 5ad2 1dbd
00000170: 11cc ba3b a447 82bd 3543 a03c d70a 88bc
00000180: 8055 3aba 8057 e73c 177f 143d dcd4 1d3c
00000190: e09b 18bc f733 1ebc a19d 033d 4b9b 1dbd
000001a0: 0474 e0bc d35e cf3c c2b4 333c 1797 f63c
000001b0: 9cb3 15bd 0296 533c 2aa0 d5bb 4e7a 853c
000001c0: 8e9c 00bd f8f3 0abd 3a56 a8bc f42b 1c3c
000001d0: a01c e3bb e934 10bd 3cfd 2c3c 3207 90bc
000001e0: c8d1 24bd 8950 953c bdbf ebbc 23cf c2ba
000001f0: e64c 1bbd 0473 f5bc 87a3 9cbc af0e b7bc
00000200: cc57 1bbb d68b 3939 bffa 1f3c eef3 18bd
00000210: 2a36 ef3b 7a1d e3bc 0f7f eabc 7f79 bf3c
00000220: 7fc7 c4bc fb03 9ebc d4f5 5e3b 050e 07bd
00000230: 8152 193c b2e2 11bd 3d8d 223d 0988 36bd
00000240: b761 eabc fd68 c73c aa7c deba 923c 55bc
00000250: fd62 5f3b a2c8 883b 80ba 28bd c9d8 1b3b
00000260: 8cd7 e73c 2b26 62bc 997d 2c3c bc9e bfbc
00000270: 401d a83c 16a5 9cbc f028 e4bb 1bd5 25bb
00000280: 4a8c ab3b 51c2 b2bc d210 0fbd 8991 783c
00000290: 872d ad3c a986 b73c fc07 d93b 12ad 013d
000002a0: c6e1 6a3c f587 ffbc d023 a43c 48ce a83c
000002b0: 65db da3b 4453 94bc 62ac b13a 9499 c63c
000002c0: 843b 0a3d 55b3 86bc dcb2 773c 94da c03c
000002d0: ecec 3f3c 77ef 0d3d 965c 203c 68ec d03c
000002e0: 583d c23b ddb5 fa3b a94c 193c ec21 02bd
000002f0: 7547 ab3c cd1c 4d3a bb1b d7bb 6293 f0bc
00000300: d3a6 18bd 25d5 50bc 033b 9bbc 14a0 a6bc
00000310: dd83 dfbb 63c7 293d 74ee fcbc 72e6 08ba
00000320: 8d24 a13c 4d61 e538 901c cabc c03c 1ebd
00000330: a5e4 f23c b96b 143d 967b db3c c939 22bd
00000340: cb08 54bc 9062 11bd f12d 28bd f7d4 82bc
00000350: 6476 943b 399e 9abc a870 64ba c9c7 03ba
00000360: 5a34 f83c 8670 113d bf32 0d3c a71f 08bd
00000370: 1551 273c f5a5 633a 1e5c 0a3d 73c2 64bc
00000380: f7a5 82bb 5926 1bbd ff9c f1bb d426 98bc
00000390: 0f53 98bc dc3e db3c ce45 113d 4a7e 22bc
000003a0: a715 083d b413 8a3c ac45 5bbc a904 47bb
000003b0: c56a ddbc d359 88bc b494 f6bb 19ba 963c
000003c0: 7a13 4c3b 7c0d debc 3f52 583c 2235 ba3c
000003d0: b5f9 e43c d06f 013d 7aa3 013d 35b3 56bd
000003e0: a88e 243d 3d08 09bc 9a2b fb3b faa9 26bd
000003f0: 0601 8a3c 4ca4 5abc 2135 11bd 4b5a 18bd

fc3.weight f4 [4, 300]
0.20371693 -0.21991718 0.057176363 -0.31931603 -0.13428788 0.56458795 0.4740565 0.3795117
-0.1615165 0.13476989 0.06762503 0.3987451 -0.020667937 -0.25828612 -0.1687103 -0.017433878
-0.11431558 0.49911243 0.4891414 0.11585983 -0.23270057 -0.16448389 -0.20228755 -0.032051433
0.34830394 0.6370314 -0.06434771 0.11067917 0.15076272 -0.114468195 0.8118807 0.14230841
-0.08278431 0.37525973 0.06888958 -0.18365902 -0.7573232 -0.014489663 -0.023045886 -0.0500099
0.6246403 -0.32858235 -0.38813895 0.12663533 0.18764307 -0.30269855 -0.10516847 0.37087446
0.29203254 -0.16715081 0.04126032 0.3263128 -0.035041705 0.110897616 -0.4130847 -0.13316952
0.006992761 -0.22428226 -0.081947014 -0.29622906 -0.08094914 -0.7795465 -0.08584625 -0.49834374
-0.15507515 0.096469305 -0.06694829 0.24782006 -0.38076866 0.021052355 0.13948315 0.16384917
0.18517658 -0.14318389 0.03276768 -0.0027636716 -0.02402717 0.07334688 0.121885456 -0.24022928
0.9329718 0.073598884 -0.08591628 -0.2261958 0.50061363 0.21485656 -0.12418182 0.5395416
-0.67189485 0.1148871 -0.010727575 0.14591575 0.105213776 1.6489714 -0.25028262 -0.10014652
-0.14374009 0.5359416 -0.032939527 0.22605436 -0.16600555 0.09745974 -0.3608195 0.14130527
0.2677086 -0.17255086 -0.15957244 0.14312816 -0.44808716 -0.02148401 -0.3287089 -1.0297136
0.36366352 -0.32606152 0.2722192 -0.1125356 0.30610088 -0.68143505 0.517356 0.027114894
-0.49171925 0.07818663 0.07408554 -0.25977322 -0.37615895 0.39398482 0.2748635 0.21312334
0.027714988 0.017730067 0.16156664 0.1486651 -0.012767648 -0.40115747 -0.91620487 -0.17921247
0.42362866 0.05416158 0.021538226 0.103263006 -0.3278254 -0.00275613 0.2865272 0.29833344
0.03926911 0.9709275 0.21718125 0.18807782 -0.36032173 0.20393005 0.59213454 -0.23011893
0.26844212 -0.4250933 -0.25656018 0.2194822 -0.026535401 0.26047185 -0.0377951 0.30362013
-0.03932042 -0.23302779 -0.043368332 -0.9452163 -0.37143335 0.14709605 0.1975776 0.00465637
-0.41485348 0.09812867 0.12622958 0.093575574 -0.4312522 -0.32923666 -0.080864266 -0.49903563
-0.10678731 0.3682205 -0.22482553 -0.22122146 -0.1736992 0.14244656 0.07520145 -0.66705596
0.0052547893 -0.47386205 0.038567074 -0.30282268 0.21619613 0.15222684 -0.1419002 -0.01797263
-0.72174287 0.3661368 1.0658587 0.111136846 0.15300395 -0.16860193 -0.34493473 -0.34172064
0.06252061 -0.23568603 -0.02271575 0.82184756 0.4419261 0.15345804 -0.075940564 0.6792306
0.6043294 0.035785824 -0.27558887 0.044257104 -0.23105143 0.31507364 -0.84058386 0.27250835
-0.045075513 -0.16443044 0.34159645 0.14164208 0.19254962 -0.21751302 0.43237832 0.24302751
0.537211 0.08677912 0.4732648 -0.3496639 0.07471475 0.09153581 -0.4422662 -0.54483175
0.35148683 -0.12860163 0.53766346 -0.013491254 -0.2752873 -0.19167376 -0.09160625 -0.12029807
0.6512899 -0.26730046 0.09317613 0.6651091 -0.059970338 -0.092900924 0.29054418 -0.32189927
0.46272963 0.10391326 -0.32738173 0.57706445 -0.044493962 0.504355 0.3611158 -0.20865083
00000000: 2c9b 503e f831 61be c331 6a3d 647d a3be
00000010: c382 09be d688 103f 89b7 f23e 5c4f c23e
00000020: 9564 25be 1e01 0a3e fe7e 8a3d 5128 cc3e
00000030: ce4f a9bc 143e 84be 65c2 2cbe 7ed1 8ebc
00000040: 491e eabd aa8b ff3e be70 fa3e eb47 ed3d
00000050: 0f49 6ebe 776e 28be 7824 4fbe 5d48 03bd
00000060: e554 b23e 7d14 233f bbc8 83bd c3ab e23d
00000070: 8b61 1a3e 4d6e eabd 6ad7 4f3f 4cb9 113e
00000080: d28a a9bd 0b22 c03e fb15 8d3d 1c11 3cbe
00000090: efdf 41bf 0d66 6dbc baca bcbc 2ed7 4cbd
000000a0: 6de8 1f3f f23b a8be 26ba c6be b1ac 013e
000000b0: 8125 403e 4efb 9abe 9162 d7bd 42e3 bd3e
000000c0: 4a85 953e 9529 2bbe 9500 293d 7912 a73e
000000d0: e487 0fbd 4a1e e33d d67f d3be 975d 08be
000000e0: 8823 e53b 40aa 65be d6d3 a7bd 56ab 97be
000000f0: aac8 a5bd 5c90 47bf 29d0 afbd e926 ffbe
00000100: 05cc 1ebe b391 c53d 2f1c 89bd 8bc4 7d3e
00000110: 1cf4 c2be fd75 ac3c acd4 0e3e 14c8 273e
00000120: ee9e 3d3e cc9e 12be 6737 063d b71e 35bb
00000130: a1d4 c4bc e436 963d 159f f93d aafe 75be
00000140: 3dd7 6e3f 03bb 963d e0f4 afbd df9f 67be
00000150: 3728 003f 5c03 5c3e 0a53 febd 661f 0a3f
00000160: 4d01 2cbf ee49 eb3d b6c2 2fbc f06a 153e
00000170: 527a d73d 7f11 d33f 0b25 80be 9e19 cdbd
00000180: 9a30 13be 7833 093f 99eb 06bd cb7a 673e
00000190: 5cfd 29be f998 c73d 55bd b8be 54b2 103e
000001a0: 1a11 893e 2cb1 30be f566 23be 3090 123e
000001b0: ae6b e5be 3cff afbc 884c a8be a8cd 83bf
000001c0: 1b32 ba3e 89f1 a6be 5160 8b3e 1179 e6bd
000001d0: 41b9 9c3e 8772 2ebf 7171 043f 0e20 de3c
000001e0: a0c2 fbbe 5020 a03d 29ba 973d ff00 85be
000001f0: e897 c0be 61b8 c93e e9ba 8c3e 013d 5a3e
00000200: 8b0a e33c a53e 913c ba71 253e aa3b 183e
00000210: 662f 51bc 8364 cdbe 678c 6abf 7983 37be
00000220: dbe5 d83e 88d8 5d3d ef70 b03c 8e7b d33d
00000230: bbd8 a7be 30a0 34bb b1b3 923e 29bf 983e
00000240: a5d8 203d b48e 783f c364 5e3e 7997 403e
00000250: 177c b8be 0ad3 503e 2196 173f 4ca4 6bbe
00000260: 3f71 893e d4a5 d9be db5b 83be f1bf 603e
00000270: c560 d9bc 915c 853e 09cf 1abd 1974 9b3e
00000280: 730e 21bd d69e 6ebe fea2 31bd b2f9 71bf
00000290: 832c bebe 59a0 163e c851 4a3e 7694 983b
000002a0: ad67 d4be aff7 c83d 5442 013e 8da4 bf3d
000002b0: 17cd dcbe b591 a8be 2a9c a5bd 9981 ffbe
000002c0: 4eb3 dabd 6687 bc3e aa38 66be e187 62be
000002d0: 34de 31be 83dd 113e 3803 9a3d 2ec4 2abf
000002e0: 5e30 ac3b 0c9e f2be 82f8 1d3d 930b 9bbe
000002f0: 8562 5d3e 5ae1 1b3e 494e 11be 563b 93bc
00000300: 24c4 38bf 4876 bb3e 0f6e 883f b79b e33d
00000310: 11ad 1c3e fca5 2cbe 499b b0be 02f6 aebe
00000320: ce0a 803d ae57 71be 6116 babc 9a64 523f
00000330: 2344 e23e 1b24 1d3e ba86 9bbd 0ee2 2d3f
00000340: 55b5 1a3f 2894 123d fc19 8dbe f046 353d
00000350: bf98 6cbe 5551 a13e 8130 57bf 3786 8b3e
00000360: 1aa1 38bd 7460 28be bbe5 ae3e 9f0a 113e
00000370: ba2b 453e bcbb 5ebe b160 dd3e 34dc 783e
00000380: a986 093f 40b9 b13d c44f f23e 2607 b3be
00000390: 0c04 993d 2077 bb3d b770 e2be 187a 0bbf
000003a0: 15f6 b33e 25b0 03be 50a4 093f 6c0a 5dbc
000003b0: 75f2 8cbe 2046 44be 0f9c bbbd d65e f6bd
000003c0: efba 263f 9bdb 88be 20d3 be3d 9744 2a3f
000003d0: 75a3 75bd d742 bebd 35c2 943e fbcf a4be
000003e0: e6ea ec3e 7ad0 d43d 949e a7be 7fba 133f
000003f0: 4d3f 36bd 691d 013f 2ce4 b83e 90a8 55be

fc3.bias f4 [4]
-0.037982237 -0.0072231274 0.020716703 0.08034555
00000000: 4393 1bbd fcaf ecbb 13b6 a93c 358c a43d

bn1.weight f4 [600]
0.2439523 0.5748627 0.15563403 0.14471005 0.49679425 0.4905676 0.66541827 0.38108653
0.39437163 0.70353 0.26822555 0.25888008 0.6434331 0.6461149 0.44854704 0.96954346
1.03823 0.21852957 0.5526196 0.5398145 0.5285588 0.2777715 0.37313738 0.7048753
0.52164054 0.6451427 0.88613844 0.3858237 0.21717158 0.8144501 0.3937746 0.5662091
0.16930194 0.35435185 0.49980655 0.6353684 0.086861216 0.3169231 0.56035453 0.4769651
0.5644433 0.75804627 0.57187855 0.47162953 0.43939778 0.21896012 0.27085117 0.21891817
0.47492057 0.46840137 0.22159752 0.5693671 0.58140534 0.1414115 0.13573839 0.4504147
0.0016141774 0.7392483 0.9300931 0.18584426 0.6204896 0.347378 0.16396767 0.6108989
0.61518484 0.7083589 1.0467552 0.9279122 0.27182615 0.5039732 0.85528684 0.61190915
0.1267665 0.8620786 0.61528033 0.9427052 0.4101818 0.8722779 0.20196678 0.4485765
0.24330232 0.6113753 0.5332086 0.899842 0.527173 0.49528125 0.26947364 0.7511368
0.30098033 0.15791416 0.30498764 0.6526879 0.46157813 0.18328711 0.773126 0.6136639
0.45916176 0.453026 0.7607402 0.18561958 0.6167387 0.56883556 0.6072122 0.29581743
0.5560107 0.23421875 0.509836 0.75369537 0.07997457 0.45868745 0.5016879 0.61339444
0.5775492 0.6075792 0.22591165 0.07482768 0.82019573 0.48266387 0.5779483 0.16923513
0.32479897 0.08933999 0.24983245 0.5448353 0.46750295 0.524356 0.43025294 0.20995593
1.0004175 0.10771049 0.34611785 0.37194413 0.42979565 0.6277553 0.70093054 0.38238183
0.31132296 0.92985314 0.6843824 0.25064683 0.3064385 0.3626838 0.3307479 0.51667464
0.4374152 0.17941056 0.31592393 0.11789866 0.65644675 0.12611875 0.44046718 0.1493711
0.2700344 0.6787611 0.3202364 0.17563337 0.6131815 0.69652754 0.21033245 0.18265447
0.12580273 0.25209206 0.5489737 0.37267244 0.32733405 0.43195117 0.73871446 0.80593985
0.23620158 0.25218576 0.69395286 0.27370337 0.51214164 0.7455457 0.6363591 -0.001271097
0.8038879 0.3207141 0.5728844 0.671407 0.5395576 0.67272747 0.17588389 0.20831853
0.5340123 0.9697253 0.22823311 0.8399186 0.84570974 0.17691445 0.79626215 0.31761035
0.6764481 0.87066007 0.74372494 0.7000642 0.4949196 0.666276 0.65734416 0.4447476
0.66459703 0.16608913 1.0322514 0.7308982 0.16426311 0.48605105 0.39102206 0.4820603
0.37814328 0.4392004 0.41937742 0.29694986 0.18347268 0.2972747 0.69213647 0.52072585
0.50988114 0.54615486 0.26942438 0.20168363 0.5891884 0.76896983 0.61591256 0.2181484
0.3498997 0.7540902 0.42186084 0.4945557 0.2576242 0.67629886 0.8255578 0.5980907
0.5516678 0.33544907 0.17622091 0.50061995 0.3811106 -0.00045389464 0.5222724 0.5646051
0.5160777 0.40525123 0.5329167 0.7858269 0.36611342 0.26476848 0.34785247 0.45043635
0.6547989 0.15570417 0.57559943 0.6601472 0.36816865 0.7340634 0.6596248 0.3303245
00000000: a2ce 793e 342a 133f 875e 1f3e df2e 143e
00000010: d15b fe3e ad2b fb3e da58 2a3f c61d c33e
00000020: 14eb c93e 8b1a 343f dc54 893e ee8b 843e
00000030: 08b8 243f c967 253f f5a7 e53e 0034 783f
00000040: b8e4 843f 37c6 5f3e 7a78 0d3f 4831 0a3f
00000050: a14f 073f 1138 8e3e dd0b bf3e b572 343f
00000060: 3c8a 053f 1228 253f f8d9 623f af8a c53e
00000070: 3a62 5e3e cd7f 503f d39c c93e 14f3 103f
00000080: 7d5d 2d3e 9b6d b53e a5e6 ff3e 81a7 223f
00000090: 4be4 b13d bf43 a23e 6573 0f3f c534 f43e
000000a0: 5b7f 103f 520f 423f a266 123f 6d79 f13e
000000b0: bff8 e03e 1537 603e 01ad 8a3e 162c 603e
000000c0: ca28 f33e 4ed2 ef3e 76ea 623e 0bc2 113f
000000d0: fbd6 143f 2dce 103e 01ff 0a3e c19c e63e
000000e0: ce92 d33a 603f 3d3f 951a 6e3f f54d 3e3e
000000f0: 68d8 1e3f 87db b13e 24e7 273e df63 1c3f
00000100: c17c 1d3f 0257 353f 13fc 853f a78b 6d3f
00000110: cc2c 8b3e 6304 013f 14f4 5a3f 14a6 1c3f
00000120: 14cf 013e 2fb1 5c3f 0383 1d3f 2155 713f
00000130: 5903 d23e 9b4d 5f3f 61d0 4e3e d2ab e53e
00000140: 3e24 793e 1783 1c3f 5c80 083f 0c5c 663f
00000150: cff4 063f 8195 fd3e 73f8 893e 804a 403f
00000160: 181a 9a3e 40b4 213e 5727 9c3e 8e16 273f
00000170: f853 ec3e 9eaf 3b3e 96eb 453f 1419 1d3f
00000180: 4017 eb3e 06f3 e73e dfbf 423f 0f13 3e3e
00000190: 96e2 1d3f 359f 113f 4272 1b3f 6275 973e
000001a0: b856 0e3f 0ad7 6f3e 9d84 023f 2ef2 403f
000001b0: b5c9 a33d 15d9 ea3e 9e6e 003f 6b07 1d3f
000001c0: 44da 133f 4f8a 1b3f 6255 673e 413f 993d
000001d0: 59f8 513f b81f f73e 6bf4 133f f94b 2d3e
000001e0: 0d4c a63e e2f7 b63d 14d4 7f3e 547a 0b3f
000001f0: 8c5c ef3e 323c 063f 1d4a dc3e b0fe 563e
00000200: ae0d 803f 5197 dc3d 5c36 b13e 766f be3e
00000210: 2d0e dc3e 92b4 203f 2f70 333f 8dc7 c33e
00000220: b965 9f3e db0a 6e3f af33 2f3f c854 803e
00000230: 82e5 9c3e b1b1 b93e ca57 a93e ca44 043f
00000240: e3f4 df3e 67b7 373e c8c0 a13e da74 f13d
00000250: e50c 283f 4625 013e ea84 e13e bdf4 183e
00000260: f341 8a3e 4ac3 2d3f 07f6 a33e 3cd9 333e
00000270: 76f9 1c3f a14f 323f 6461 573e c609 3b3e
00000280: 6ed2 003e 3612 813e 8a89 0c3f ecce be3e
00000290: 5498 a73e b428 dd3e 641c 3d3f 1352 4e3f
000002a0: d4de 713e 7e1e 813e e5a6 313f d922 8c3e
000002b0: b71b 033f 15dc 3e3f 6ee8 223f f09a a6ba
000002c0: 99cb 4d3f a334 a43e 8da8 123f 54e1 2b3f
000002d0: 7220 0a3f de37 2c3f e81a 343e 7451 553e
000002e0: 08b5 083f eb3f 783f f1b5 693e e804 573f
000002f0: 6f80 583f 1029 353e d6d7 4b3f d39d a23e
00000300: b42b 2d3f 94e3 5e3f c264 3e3f 6837 333f
00000310: 1a66 fd3e 1091 2a3f b547 283f f5b5 e33e
00000320: 0823 2a3f 4513 2a3e d020 843f 251c 3b3f
00000330: 9734 283e afdb f83e 0b34 c83e 9cd0 f63e
00000340: ff9b c13e e0de e03e a3b8 d63e d009 983e
00000350: 43e0 3b3e 6434 983e db2f 313f 4a4e 053f
00000360: 9287 023f ced0 0b3f fef1 893e 2786 4e3e
00000370: 0dd5 163f 35db 443f 72ac 1d3f 4b62 5f3e
00000380: 0e26 b33e 0e0c 413f 25fe d73e 6836 fd3e
00000390: 52e7 833e ec21 2d3f c257 533f 791c 193f
000003a0: 1a3a 0d3f fbbf ab3e 4173 343e a128 003f
000003b0: ee20 c33e b5f8 edb9 a5b3 053f f689 103f
000003c0: ab1d 043f 177d cf3e 3b6d 083f f42b 493f
000003d0: 3873 bb3e bc8f 873e b819 b23e 989f e63e
000003e0: e7a0 273f ea70 1f3e 7c5a 133f 68ff 283f
000003f0: 9a80 bc3e 94eb 3b3f 2cdd 283f 4b20 a93e

bn1.bias f4 [600]
-0.1049669 -0.30708098 -0.051319934 -0.12153769 -0.32151106 0.15511003 -0.22230777 -0.25221035
-0.355694 -0.19560272 -0.2139582 -0.08115759 -0.117309675 -0.23641004 0.055408884 -0.26023334
0.21227118 -0.08711018 -0.14171821 -0.42668068 -0.36400285 -0.0525137 -0.15599622 -0.3497654
-0.06237566 -0.05816624 -0.27118802 -0.174292 0.19742775 -0.23344171 -0.23980384 -0.031447772
-0.10919833 -0.35113278 -0.122075476 -0.1316463 -0.077716775 -0.1798318 -0.13252595 -0.13403495
-0.09420837 -0.2466415 -0.43010998 -0.39040813 -0.1692058 -0.06445009 -0.018453885 -0.1267107
-0.011763931 -0.18014686 -0.066418335 -0.35863984 0.09555276 -0.03711098 -0.028188739 -0.34475955
-0.010180884 -0.3274667 0.036018576 -0.17758507 -0.20869511 -0.09648941 0.103341505 -0.21552505
-0.54411453 -0.22458434 0.2874703 -0.34579232 -0.11269267 -0.4352785 -0.1193875 0.03791016
-0.0966515 -0.2779034 -0.20096081 -0.18944304 -0.2731137 0.081364125 -0.1103101 -0.24613781
-0.16848357 -0.11961223 -0.26922062 -0.23720525 -0.30475736 -0.19099195 -0.088410765 -0.2751214
-0.3746031 -0.013366945 -0.1660682 -0.28613624 -0.37806407 -0.056393966 0.10164304 -0.33650824
-0.28899932 -0.2755354 -0.15245834 -0.20252381 0.022165466 -0.34835643 -0.351895 -0.1398514
-0.27996367 -0.18706875 -0.18645841 -0.35249427 0.040710185 0.16559736 -0.24456494 -0.15378153
0.011089821 -0.23290081 -0.11797689 0.05076172 -0.17210282 -0.22055049 -0.17619725 -0.052983597
-0.21342416 -0.04684102 -0.045296464 -0.2188113 -0.09002228 0.07405805 -0.2036176 -0.16469836
-0.085875615 -0.119124725 -0.07743973 -0.22129317 -0.33871612 -0.2863952 -0.3183292 -0.27579042
-0.2680267 -0.26284337 -0.1735093 -0.19737232 -0.09413437 -0.05895365 -0.15772355 -0.29555064
-0.24005978 -0.09425318 -0.22758558 0.04155803 -0.2761262 -0.12520051 -0.20532009 0.023719065
-0.03270268 -0.17384662 -0.12923457 -0.19429612 -0.45945182 -0.40024886 -0.023013854 -0.056476284
-0.00030507095 -0.17206082 -0.20934561 -0.13051488 -0.055675313 -0.17819902 -0.24106088 -0.20792311
-0.15104239 -0.12054497 0.026869876 -0.041290067 -0.17966726 -0.31012595 -0.13593584 -0.010759243
-0.12319186 -0.34561545 -0.29479125 -0.1238018 -0.02962115 -0.2551479 -0.03551284 -0.11613252
-0.21166155 0.23801006 -0.12984 -0.08377151 -0.18585679 -0.1678526 -0.05945246 -0.037905663
0.39267096 -0.21582942 -0.15883441 -0.20325981 -0.19972871 -0.36069733 -0.2005866 -0.26539865
-0.23088743 0.054549847 -0.2426839 -0.14748324 -0.0908532 -0.3230201 -0.22355886 -0.22286683
-0.19990815 -0.12287132 -0.18293463 -0.12738542 -0.16504991 -0.16191308 -0.26716596 -0.20277815
0.029836671 -0.48838162 -0.11393373 -0.22173712 -0.2537921 -0.18212377 -0.4172858 -0.08200229
-0.1971331 -0.2320314 -0.11095841 -0.10727646 -0.21226282 -0.25006512 -0.1861956 -0.33631518
0.2197972 -0.17503835 -0.114661366 -0.16251448 -0.279766 -0.0035897128 -0.33403614 -0.2928231
-0.17974666 -0.3780404 -0.28264347 -0.11493755 -0.18452087 -0.15583283 -0.08586408 -0.13829432
0.22247966 -0.13322979 -0.42082813 -0.34702978 -0.21241939 -0.22654325 -0.021720717 0.036173057
00000000: e3f8 d6bd b839 9dbe da34 52bd c1e8 f8bd
00000010: 199d a4be 2ad5 1e3e a6a4 63be b721 81be
00000020: 861d b6be 144c 48be dc17 5bbe f335 a6bd
00000030: 0e40 f0bd 7915 72be 6df4 623d 4e3d 85be
00000040: 9e5d 593e d266 b2bd 941e 11be e475 dabe
00000050: 955e babe 9b18 57bd 79bd 1fbe 7314 b3be
00000060: 9f7d 7fbd b93f 6ebd 28d9 8abe 9a79 32be
00000070: 802a 4a3e 580b 6fbe 238f 75be 61cf 00bd
00000080: 60a3 dfbd adc7 b3be b502 fabd 4ace 06be
00000090: f929 9fbd d425 38be e2b4 07be 7540 09be
000000a0: 51f0 c0bd 978f 7cbe 6037 dcbe 93e3 c7be
000000b0: 4944 2dbe 69fe 83bd 9a2c 97bc 73c0 01be
000000c0: 81bd 40bc 6b78 38be 5606 88bd a49f b7be
000000d0: 2ab1 c33d af01 18bd 12ec e6bc 5384 b0be
000000e0: b9cd 26bc b7a9 a7be 3788 133d dcd8 35be
000000f0: 2cb4 55be 3d9c c5bd b6a4 d33d 99b2 5cbe
00000100: 174b 0bbf 70f9 65be 4f2f 933e b10b b1be
00000110: 6acb e6bd d3dc debe 6f81 f4bd af47 1b3d
00000120: 39f1 c5bd 5b49 8ebe acc8 4dbe 5bfd 41be
00000130: 8fd5 8bbe 3ca2 a63d 43ea e1bd 8d0b 7cbe
00000140: f586 2cbe 42f7 f4bd 49d7 89be efe5 72be
00000150: 2809 9cbe 6593 43be b410 b5bd b6dc 8cbe
00000160: facb bfbe 0801 5bbc c80d 2abe 7380 92be
00000170: 9d91 c1be 5cfd 66bd 3a2a d03d cf4a acbe
00000180: b8f7 93be fa12 8dbe 0a1e 1cbe 6762 4fbe
00000190: 5a94 b53c c65b b2be 952b b4be 3535 0fbe
000001a0: 6657 8fbe f38e 3fbe f4ee 3ebe 217a b4be
000001b0: b9bf 263d 5b92 293e 3b6f 7abe e878 1dbe
000001c0: 15b2 353c 8d7d 6ebe de9d f1bd 85eb 4f3d
000001d0: b93b 30be fdd7 61be 0d6d 34be 5405 59bd
000001e0: dd8b 5abe 5fdc 3fbd c988 39bd 1210 60be
000001f0: 9a5d b8bd bfab 973d 2281 50be b0a6 28be
00000200: 8edf afbd aaf7 f3bd b998 9ebd ad9a 62be
00000210: 336c adbe 64a2 92be 0bfc a2be 6734 8dbe
00000220: cc3a 89be 6893 86be 6cac 31be f81b 4abe
00000230: 85c9 c0bd 6279 71bd 4882 21be 6a52 97be
00000240: 3bd2 75be d007 c1bd 320c 69be c138 2a3d
00000250: 6a60 8dbe 9034 00be 6e3f 52be 7c4e c23c
00000260: 3ff3 05bd d904 32be 1156 04be 90f5 46be
00000270: 453d ebbe 6bed ccbe 8d87 bcbc ad53 67bd
00000280: eef1 9fb9 b630 30be b25e 56be b1a5 05be
00000290: cc0b 64bd ce79 36be aad8 76be cce9 54be
000002a0: dbaa 1abe 48e0 f6bd 371e dc3c c61f 29bd
000002b0: b2fa 37be d4c8 9ebe c432 0bbe 8947 30bc
000002c0: 044c fcbd 82f4 b0be e1ee 96be cc8b fdbd
000002d0: 0ea8 f2bc bfa2 82be e975 11bd e3d6 edbd
000002e0: cebd 58be e9b8 733e c7f4 04be 6690 abbd
000002f0: 3e51 3ebe 8de1 2bbe 6c84 73bd f842 1bbd
00000300: 2b0c c93e 6302 5dbe 7da5 22be 5723 50be
00000310: af85 4cbe 52ad b8be 9366 4dbe 55e2 87be
00000320: c16d 6cbe a96f 5f3d 2182 78be d905 17be
00000330: 3e11 babd e462 a5be 9dec 64be 3437 64be
00000340: b9b4 4cbe f5a3 fbbd 3753 3bbe 5371 02be
00000350: d802 29be 8bcc 25be fac9 88be 13a5 4fbe
00000360: 096c f43c 280d fabe 1656 e9bd 0e0f 63be
00000370: 0af1 81be a77e 3abe 7ca6 d5be d1f0 a7bd
00000380: 42dd 49be a499 6dbe 2a3e e3bd c3b3 dbbd
00000390: 6d5b 59be 8908 80be 0faa 3ebe 8131 acbe
000003a0: 8412 613e 413d 33be 94d3 eabd 326a 26be
000003b0: 7d3d 8fbe 6341 6bbb c906 abbe e9ec 95be
000003c0: 820f 38be 838e c1be a5b6 90be 6164 ebbd
000003d0: 0af3 3cbe a492 1fbe 82d9 afbd 079d 0dbe
000003e0: b5d1 633e 646d 08be c976 d7be e3ad b1be
000003f0: 7884 59be f4fa 67be a5ef b1bc 332a 143d

bn1.running_mean f4 [600]
0.71300477 0.100379065 -0.34155676 -0.6152183 1.006097 1.2272731 -0.6987758 0.38100868
0.17694362 0.5391566 -0.10505495 0.25134194 -0.20721631 0.34510013 -0.04848392 0.52426046
0.29471192 0.21810327 0.714695 0.24666102 0.57374084 0.16830754 0.18143472 0.78647023
0.28881684 -0.24950457 0.4648419 0.31520456 0.4534368 0.86056936 0.17604686 0.28124732
0.58081734 1.1752676 0.12754548 0.12445466 -0.60632473 -0.068715416 1.0511628 0.60085005
0.4699639 -0.4230011 -0.5088446 0.18852745 0.0657569 0.22579801 -0.8378149 -0.75514805
-0.2530134 -0.25614998 -0.4477664 -1.3454859 1.27627 -0.5557499 0.146665 0.45229748
0.55707955 0.4607992 0.2657887 -0.09946308 0.14339268 0.8299405 0.5464377 -0.29336527
0.038581673 0.15162018 -0.30150682 0.7859792 0.37655243 0.27467534 0.45556706 1.1788808
0.35774246 0.83044577 0.78546757 -0.46875492 -0.032741945 0.9236745 0.24922766 0.96273583
0.13923314 0.20115541 0.4700825 0.3379598 0.57683885 0.48537132 0.27801877 0.6530241
0.35886055 -0.70126283 -0.26112288 0.14888932 -0.31291768 -0.46887574 0.27618593 -0.067764945
0.6456184 0.7550054 0.23341703 0.00076232635 -0.4420262 -0.21280761 -0.16432706 0.4213783
-0.24684556 0.21012661 0.13593112 0.72678083 -1.1912315 -0.18393785 1.4894623 0.40651253
0.9919477 -0.21494406 0.34538868 0.092337474 0.32921377 -1.258359 0.11195913 -0.8770156
1.2850026 0.43531573 0.24911357 0.263428 0.1413274 0.8839978 0.65408 0.32639337
0.16750176 0.108835176 0.3576343 0.8046097 -0.20674747 -0.042363796 -0.076973684 -0.17936619
-0.052297812 0.4913079 -0.41413105 -0.1640714 -0.10678064 0.26341468 -0.19276968 -0.36947262
0.087819956 -1.0551797 0.2720183 0.8102475 0.08791351 -0.27817944 -0.48323524 -1.1002232
0.34824258 0.008134615 0.6280253 0.7904138 0.09203291 1.0219954 0.44405398 0.5794541
0.12541482 0.4969019 0.12227307 -0.66907096 0.061994586 0.5191227 -0.110809945 0.4079371
-0.3023418 0.4313286 0.097014606 -0.18503857 0.14489745 0.025212679 -1.1847923 -0.008237517
0.19492899 0.7542447 -0.14145955 1.6034007 1.4026086 0.5212977 -1.3489344 0.15594721
1.0008096 -0.35516858 -0.14345549 1.0188227 0.7211623 -1.1054403 -0.19361433 0.41460347
0.6002965 -0.68301797 -0.18462062 1.4082773 0.8019447 -0.38231927 0.8557091 0.37447268
0.16295624 1.432357 0.3686541 0.22398666 -0.34524703 0.11703691 0.41875416 0.114452645
-0.72862566 1.0594746 1.0364009 -0.46303335 0.1555399 -0.3778417 0.6954401 0.58271086
1.7279499 -0.19103742 -1.4611801 0.21127845 -0.07474753 0.018344883 0.10314114 0.9697843
-0.69341207 -0.4561765 1.313084 -0.08057959 -0.53949106 -0.05101676 0.7823776 -0.16616134
0.6573796 -1.2343404 0.042902097 1.1511018 0.58644235 -0.4092647 0.022713078 0.08631272
-0.15149198 -0.060628254 -0.48015928 0.2536775 0.5263181 -1.1440425 1.0952833 0.009550006
0.19534183 0.118410945 -0.3212704 0.0421371 -0.35696802 -0.06528148 -0.34747994 -0.14469697
00000000: 7b87 363f 8a93 cd3d 87e0 aebe f27e 1dbf
00000010: c9c7 803f 4917 9d3f f9e2 32bf 9213 c33e
00000020: b530 353e 2b06 0a3f 0d27 d7bd e4af 803e
00000030: 8330 54be f7b0 b03e 1397 46bd ef35 063f
00000040: 7be4 963e 7756 5f3e 40f6 363f b594 7c3e
00000050: aee0 123f d058 2c3e 06ca 393e 1d56 493f
00000060: cddf 933e 207e 7fbe c2ff ed3e 7e62 a13e
00000070: de28 e83e 464e 5c3f a145 343e a6ff 8f3e
00000080: 72b0 143f 2b6f 963f 489b 023e 16e2 fe3d
00000090: 1938 1bbf abba 8cbd 818c 863f 4fd1 193f
000000a0: 1c9f f03e 9a93 d8be a443 02bf 570d 413e
000000b0: 8eab 863d 9837 673e 0a7b 56bf 6251 41bf
000000c0: f98a 81be 1726 83be a341 e5be e238 acbf
000000d0: d15c a33f a045 0ebf 5a2f 163e 8993 e73e
000000e0: c49c 0e3f dfed eb3e 7515 883e 4db3 cbbd
000000f0: 88d5 123e fb76 543f 57e3 0b3f f933 96be
00000100: d107 1e3d 5242 1b3e 1a5f 9abe ef35 493f
00000110: 7bcb c03e 3fa2 8c3e 1640 e93e 91e5 963f
00000120: 052a b73e 1898 543f 6714 493f a500 f0be
00000130: 6b1c 06bd ef75 6c3f 8935 7f3e db75 763f
00000140: 2293 0e3e affb 4d3e a7ae f03e 1109 ad3e
00000150: b6ab 133f 9782 f83e 7a58 8e3e 962c 273f
00000160: 92bc b73e f685 33bf e6b1 85be 7176 183e
00000170: bf36 a0be 7b10 f0be 3e68 8d3e 59c8 8abd
00000180: 3f47 253f 0948 413f e004 6f3e dbd6 473a
00000190: 4251 e2be 3dea 59be 5a45 28be e6be d73e
000001a0: 15c5 7cbe 6e2b 573e 8731 0b3e 4f0e 3a3f
000001b0: 467a 98bf 345a 3cbe b3a6 be3f 6922 d03e
000001c0: 49f0 7d3f 4c1a 5cbe c9d6 b03e 6e1b bd3d
000001d0: b58e a83e e811 a1bf d44a e53d 1884 60bf
000001e0: f77a a43f b4e1 de3e a117 7f3e 09e0 863e
000001f0: 21b8 103e ae4d 623f c971 273f 081d a73e
00000200: 9585 2b3e fae4 de3d d81b b73e e7fa 4d3f
00000210: 9cb5 53be a985 2dbd 61a4 9dbd c5ab 37be
00000220: 3b36 56bd b68c fb3e fc08 d4be 5502 28be
00000230: cfaf dabd 4ade 863e 6a65 45be 842b bdbe
00000240: f3da b33d 2110 87bf fc45 8b3e 616c 4f3f
00000250: 000c b43d 896d 8ebe 9c6a f7be 1dd4 8cbf
00000260: da4c b23e 0c47 053c 44c6 203f 8f58 4a3f
00000270: c07b bc3d bfd0 823f 0b5b e33e 1b57 143f
00000280: be6c 003e ed69 fe3e 4e6a fa3d 3c48 2bbf
00000290: 09ee 7d3d 3ae5 043f 53f0 e2bd 22dd d03e
000002a0: 8bcc 9abe 1ad7 dc3e 98af c63d c07a 3dbe
000002b0: ff5f 143e d28a ce3c 46a7 97bf a7f6 06bc
000002c0: 779b 473e 2e16 413f c6da 10be 3c3c cd3f
000002d0: ae88 b33f c473 053f e2a9 acbf a0b0 1f3e
000002e0: 871a 803f a8d8 b5be ffe5 12be c868 823f
000002f0: 189e 383f 117f 8dbf d642 46be e846 d43e
00000300: 08ad 193f 44da 2ebf 300d 3dbe 6e42 b43f
00000310: 3f4c 4d3f 5abf c3be c00f 5b3f e2ba bf3e
00000320: 00de 263e 7957 b73f 3bc0 bc3e c25c 653e
00000330: 38c4 b0be 0cb1 ef3d f266 d63e 2666 ea3d
00000340: 3687 3abf dd9c 873f c9a8 843f b512 edbe
00000350: da45 1f3e 7874 c1be 5d08 323f 8a2c 153f
00000360: 762d dd3f 509f 43be f307 bbbf 6159 583e
00000370: 3c15 99bd 0248 963c a93b d33d c943 783f
00000380: 7483 31bf f78f e9be 2313 a83f e906 a5bd
00000390: 161c 0abf f3f6 50bd e649 483f 3326 2abe
000003a0: 084a 283f defe 9dbf 1cba 2f3d 4e57 933f
000003b0: 1621 163f 258b d1be c710 ba3c b9c4 b03d
000003c0: b720 1bbe 5555 78bd 70d7 f5be 04e2 813e
000003d0: c8bc 063f fc6f 92bf 3e32 8c3f a177 1c3c
000003e0: b007 483e 7081 f23d 8e7d a4be f497 2c3d
000003f0: 83c4 b6be 4cb2 85bd e4e8 b1be 712b 14be
