bipedal-walker/weights-hardcore/1checkpoint_critic.pth (torch_old, 799885 bytes, 11 tensors)

fcs1.weight f4 [600, 24]
00000000: f3ff cbbd 5631 5cbe f18f 46be 27b5 9bbe
00000010: 17c0 dc3d 5f39 053e 85f5 4b3e 282d d33d
00000020: d9df 4dbd ce8a dd3d a97d 503d cea6 83be
00000030: 210f 86bc 425e c1bd a521 00be 96bc 73bd
00000040: 6b23 fabd 6333 2cbd 7f4a 3bbd 660e 10be
00000050: d03b b3bd 4dfa 83bd 30b8 20be 5ef2 2fbd
00000060: b786 d73b e291 653d 9f86 08be 5d01 52bc
00000070: a12a 82be 0885 683d 34bc 8bbc 240f ad3c
00000080: 9478 b9bd d81a 3fbe 4378 0cbe 53d2 523d
00000090: 00c1 8bbc aad9 853e e1f9 b63d 0faf d83c
000000a0: aebb 613e 6090 9fbd d0d3 833c c65c 6a3e
000000b0: d365 04bd b561 103d 2314 27be a985 11bd
000000c0: 7873 923e 5ef6 783e 30a1 483e f820 66be
000000d0: 7953 223f 08ca 85bd eb2f 503e e2eb 54bd
000000e0: e15b 453d c8da 06bf ce19 863d 86bd 0b3e
000000f0: b293 143d 8b60 6e3e bf62 923e 4104 9b3e
00000100: 0600 49be b2e5 093f 800b fab9 c375 26bf
00000110: 3fc7 e73d dadf b63e cc59 2a3e c6dc 433e
00000120: 57c1 3c3f 5812 70be b648 193f f734 153f
00000130: 9025 b13e 5b65 be3d 23be 1a3f a7e2 473d
00000140: 676c 92bd f742 35be f72a 9dbd 442e 2dbd
00000150: 1ff7 41bd 6abb a43b a3b2 a63e 3763 b73d
00000160: 9ef1 173e 43d0 763e 2dbe 583d 7b39 993d
00000170: 78ed 1cbe e42c 6abe a49e f6bd 7e30 c5bd
00000180: 33a5 1291 128c eb11 e455 c713 8fa3 5714
00000190: 4ddb 9394 767c a515 eea1 4394 173f ca94
000001a0: 9688 eb94 43de a591 7faf b715 e7a4 9294
000001b0: 1e75 9996 8468 4a15 3469 0393 bfd1 ee93
000001c0: f058 0392 1dc0 af91 6104 2794 cbcc f994
000001d0: c7f2 8493 35ec cc93 0481 2714 1e3d 8c12
000001e0: 6d10 0080 1827 0000 771e 0000 e80e 0000
000001f0: c014 0080 6e12 0000 090e 0000 2212 0080
00000200: 7c15 0000 ed14 0000 6111 0080 0908 0000
00000210: 8513 0000 b302 0000 510d 0000 f607 0080
00000220: 0100 0000 e81d 0000 de0b 0000 b503 0000
00000230: 7b1b 0000 b90d 0080 c902 0080 6f24 0000
00000240: 137a 11bd 2516 abbd 6ed9 e1bc f5c0 773d
00000250: df8f 26bd c029 e3bc c8eb a1bd 53cf 9abc
00000260: afd8 ac3c 2791 60bd 8377 643c 6d2f 38be
00000270: c069 8a3c 816e 54bb 844e db3f 4fdb fd3e
00000280: 7554 5cbc 01cc e8be 178c c0be b789 263e
00000290: 6f6c fabe 5814 7fbd b1e2 45be 6e08 b0be
000002a0: 82f7 85be 210d ee3d b135 6cbc fe66 3ebd
000002b0: 655c 1abe 2a7d 36bd 8da3 04be 8c53 a4bd
000002c0: 34be f7bd 231b 3b3d 7dc1 863e 0672 b7bd
000002d0: dffa 903e 8317 22bc 0392 29be 6d62 9d3c
000002e0: f0ff 1ebe e9df 75bb 7a77 13bd e3ed 513e
000002f0: 3280 09bc 2f88 273e 6352 b3bd 5c46 933d
00000300: 1093 373e 3b21 00be c16c 1cbd 48fa 763f
00000310: 798d 25bd 4358 013d 98d4 aabc 72ed b0be
00000320: 8362 c33e 410f 993c 0724 133e 776a 603d
00000330: 86a6 463e 1e73 36bd d4ac 1bbe 769a 40bd
00000340: e815 76be 4511 ecbd dbc9 2e3e 2d9a 3e3e
00000350: 326f 373c 23fd a33d d045 bebd 6f06 4a3d
00000360: 0e37 d0bc a21b b83e 39c8 663e 335c 8ebe
00000370: 525d 57bd cbd5 b0bb 3b62 e0bc e1f9 a8bb
00000380: e542 dcbc 0b8f 243d 194b 183d b645 213d
00000390: bffb 8f3c 9224 d3bb b00f 9f3e ea84 363e
000003a0: 6fbd 903e 42f7 10c0 eb9b aa3d 1337 d4bd
000003b0: 4dcd cb3d 9388 713d 7464 82bd 79a6 f23d
000003c0: 0d9a 683e 2030 053f 61b7 21bf a3a3 c5bc
000003d0: 5cde 173e fe63 283d 3129 a7bd 9887 253d
000003e0: 1ce6 243d 2e22 d53a 2411 f83c 3754 233e
000003f0: a49b c8bb eba2 0c3d 02c4 003d 6b35 fa3e
-0.09960928 -0.21503195 -0.19390847 -0.30411646 0.10778826 0.13010167 0.19917877 0.10311347
-0.050262306 0.108174905 0.05090109 -0.257132 -0.016364636 -0.094418064 -0.12512834 -0.05950602
-0.12213787 -0.042041194 -0.045725342 -0.14067993 -0.08751643 -0.064442255 -0.15695262 -0.04295575
0.0065773386 0.056047328 -0.13332604 -0.012817708 -0.25423148 0.056767493 -0.017057516 0.021125384
-0.090562016 -0.18662584 -0.13717751 0.051470112 -0.017059803 0.26142627 0.08934379 0.026450662
0.2204425 -0.07791209 0.016092211 0.22886953 -0.03232367 0.03524943 -0.16316275 -0.03552786
0.2860372 0.24312732 0.19592738 -0.22473514 0.6340862 -0.06532675 0.20330779 -0.051982768
0.048183326 -0.52677584 0.065478906 0.13646516 0.036273666 0.23279016 0.28590962 0.30276683
-0.19628915 0.5386611 -0.00047692284 -0.6502344 0.113173 0.3571766 0.16635817 0.19127187
0.73732513 -0.23444498 0.59876573 0.5828394 0.3459897 0.09296676 0.60446376 0.048800137
-0.07149582 -0.17701326 -0.076742105 -0.04228045 -0.047354814 0.0050272243 0.32558164 0.089544706
0.14838263 0.24102883 0.05291574 0.07481667 -0.15324962 -0.22868687 -0.12041977 -0.0962839
-1.1568275e-28 3.7162788e-28 5.0319357e-27 1.0886982e-26 -1.4929706e-26 6.6839334e-26 -9.876919e-27 -2.0421672e-26
-2.378281e-26 -2.616939e-28 7.4189995e-26 -1.4807275e-26 -2.4792394e-25 4.0876023e-26 -1.6586394e-27 -6.0286472e-27
-4.1445935e-28 -2.772853e-28 -8.432209e-27 -2.5223351e-26 -3.356088e-27 -5.1729758e-27 8.456789e-27 8.850309e-28
-5.892e-42 1.4024e-41 1.0929e-41 5.347e-42 -7.444e-42 6.611e-42 5.035e-42 -6.505e-42
7.707e-42 7.507e-42 -6.234e-42 2.882e-42 7.002e-42 9.68e-43 4.777e-42 -2.856e-42
1e-45 1.0728e-41 4.257e-42 1.33e-42 9.858e-42 -4.923e-42 -9.99e-43 1.307e-41
-0.03551681 -0.08353833 -0.027569499 0.060486753 -0.04066455 -0.027729869 -0.079063 -0.018897688
0.021099417 -0.054825928 0.013944509 -0.17986841 0.016896129 -0.0032414498 1.7133336 0.49581382
-0.0134478705 -0.45468143 -0.3760688 0.16263472 -0.48910853 -0.06227526 -0.19324757 -0.3438143
-0.26165396 0.11623598 -0.014417098 -0.04648494 -0.15074308 -0.04455296 -0.12953015 -0.08023748
-0.12096825 0.045680176 0.26319495 -0.08957295 0.283164 -0.009893301 -0.16559605 0.019211972
-0.1552732 -0.0037517494 -0.036002614 0.20500903 -0.008392381 0.16360544 -0.087559484 0.07191154
0.17927194 -0.12512676 -0.038189653 0.9647565 -0.040418122 0.031578314 -0.020853326 -0.34556156
0.38161096 0.018684031 0.14369212 0.054789033 0.19399461 -0.044543378 -0.15202647 -0.047022305
-0.24031794 -0.115267314 0.17069189 0.18613501 0.011195945 0.08007266 -0.092906594 0.04932254
-0.025416877 0.35958582 0.22537316 -0.27804717 -0.05257923 -0.00539658 -0.02739059 -0.005156741
-0.026887367 0.04017548 0.037180994 0.039373122 0.017576097 -0.0064435685 0.31066656 0.1782414
0.28269526 -2.2650914 0.0833052 -0.10362067 0.099512674 0.058968138 -0.06366816 0.118481584
0.22715016 0.5202656 -0.6317044 -0.02412588 0.14830917 0.041110985 -0.081621535 0.040412515
0.040258512 0.0016260797 0.03028161 0.15950094 -0.0061220694 0.03433506 0.031436928 0.4886888

fcs1.bias f4 [600]
00000000: 1a3a 3eb9 7d36 0ab9 6a68 5739 8db3 f6b6
00000010: 63dc f424 c6e6 16b7 d035 2b3a 9924 8838
00000020: b27a 8d38 f010 1e39 88b3 5f38 8ded e037
00000030: c39e ca1f 2cbd e5b7 eb1f b530 9378 2bb9
00000040: f3ec a638 7ec7 353a 5118 282c 5d6c 23b8
00000050: f05e 41b9 4316 91b9 e48d eb28 9eb1 8cb8
00000060: 2841 c124 3387 a838 b593 0280 f933 cdb5
00000070: b3f5 17b8 434b 2e2e a6bd b3b8 e0b6 74b7
00000080: 5b9e f3b6 f4aa ffb2 4be9 c239 dfd2 fdaf
00000090: cf84 4baf c036 1d39 d734 acb8 5bd6 ba39
000000a0: 5523 2eba 731e 3cb9 d975 df39 bc9c 2406
000000b0: b67d a1b2 2259 c3b9 102a 0239 0825 36b0
000000c0: ffee f034 f712 2439 2a6c 3b36 720a 0eb9
000000d0: 1800 c7b9 092c 4baf e117 27b4 69e9 cc38
000000e0: 5b8d e539 ea9c 4239 dd95 46b3 026c 9a26
000000f0: a7e0 8034 d05b b8b8 784d d63a 1da8 8fb8
00000100: 367c f7b8 20a7 9239 e1b2 a5b8 490b 9539
00000110: 5dc3 e3b8 a6c1 5039 2392 48b9 fe8e 5e24
00000120: 2046 01b8 1794 ebab 4fe5 e4b0 74d9 29b8
00000130: ca3f 19a4 1963 ea38 b2ff 6438 1458 98b9
00000140: 9f90 ff31 33c5 72b7 cb8f efaa f3ea 4d38
00000150: 363c 7ab8 96ef 2439 a1ad ab2a dc9e 5138
00000160: e70b af38 5367 36ba 6a91 05b8 0dad 8fb9
00000170: 1cb4 203a ede1 7226 42db dcad 4803 0cb7
00000180: 2c0f b539 d2e4 f9b8 01ec 3238 bb37 0100
00000190: 4cb7 a6b9 229d 46b9 39be 10b3 bd24 f6ae
000001a0: 792e c939 438b ad39 6be3 1db7 719e 2fb5
000001b0: d204 0a39 e46b 68b8 a794 77b8 bcda 9a38
000001c0: 45ef 4a29 5675 3838 f6b8 8238 657e 1e39
000001d0: 1568 7197 2213 e9b9 3581 27b8 e74d 17ac
000001e0: e2d9 1dba 8102 19ba eea4 b0b8 5052 3737
000001f0: 54bd 58b9 d7d4 a737 5b69 52b8 f924 0080
00000200: 082f d5aa eb87 7db8 a8d4 e438 1856 09aa
00000210: c83d a939 b63c 8139 866c a838 793b 2aa5
00000220: 2373 dab7 3694 3538 3ccc ce36 0049 c938
00000230: f25d f9ac dd9d 5f31 e3f7 72b4 35bd a139
00000240: 918e 45b2 d474 61b8 5a8a 02b9 f9b8 8024
00000250: 74b2 3fb9 9547 0d39 3dcb adb9 c1c1 b0b8
00000260: 5fff 3638 773e 84b9 d1e1 35ae 31ff 1d2c
00000270: 4f0d 02ac a738 f239 9c80 0d31 df15 bfb9
00000280: 1e47 8139 8886 0e39 93ea 65a1 4988 c799
00000290: 2134 74a4 9cfa 24b9 de10 0ab4 e21d 91a8
000002a0: 6a18 2639 7a33 c338 669c 34b8 d62c 2f2d
000002b0: 8ab0 beb8 a069 f739 244a d9b2 20ac b080
000002c0: 01e8 c132 cd5f 5cba 0c7c cc38 cef5 8c2c
000002d0: 28e6 9d39 64ee b5b9 e864 19b6 4bec 91b6
000002e0: f3d9 bab8 65c2 cfb9 edb5 1e3a b287 bd2f
000002f0: b42b da26 c3b1 22ab 7f61 19b9 2b7f dcb5
00000300: a97e ac38 9956 54ba 94c7 0738 48fa 5838
00000310: f3f2 6539 6195 3538 58b5 47ba 6a33 0eb8
00000320: 2655 9039 51e2 9bb4 fef3 c0b8 e892 d3b4
00000330: 6feb 7e39 603a 14b8 1f29 8728 805a 8738
00000340: 618e 20a9 e193 f8b8 cba7 2eb7 b14d a639
00000350: 3fdf 79b8 530e 3337 d81c faab 65ad 0080
00000360: 7088 22b9 3ef5 4f39 a733 26b7 106d 44ba
00000370: 561b f438 afe1 f6b8 1acf 512a e86a c339
00000380: 48f7 95b9 4d63 2039 882f d2b7 5579 67ad
00000390: ee0a f7b8 37d0 2bb9 1463 4539 28ad 1eb1
000003a0: 60ad 5024 3ede 4838 aa9b 84b5 af6d 5039
000003b0: 4357 0eb0 29a1 3839 0e29 702f 517f a537
000003c0: 9b23 ab39 f7e5 9038 473a 483a ac0f 8c36
000003d0: b3cc a638 2e9b 5039 690d f139 d119 8e39
000003e0: 94dd 71b8 61f4 86b9 1f1d 8fb8 61d1 958d
000003f0: 1876 9638 70e3 9438 aa43 88b8 3ff6 6fb8
-0.00018141457 -0.00013181004 0.00020542895 -7.3522738e-06 1.0619148e-16 -8.994428e-06 0.0006531151 6.491802e-05
6.746258e-05 0.00015074364 5.3334545e-05 2.6813499e-05 8.581298e-20 -2.7387017e-05 1.3178555e-09 -0.00016352748
7.959632e-05 0.00069343287 2.3887734e-12 -3.896315e-05 -0.00018441281 -0.0002767314 2.6151776e-14 -6.708804e-05
8.381079e-17 8.036047e-05 -2.36658e-40 -1.5288816e-06 -3.623003e-05 3.9629865e-11 -8.57071e-05 -1.4586112e-05
-7.2603993e-06 -2.9763648e-08 0.0003717638 -4.6170265e-10 -1.8509926e-10 0.00014993083 -8.211441e-05 0.00035636392
-0.0006642838 -0.0001794042 0.00042621678 3.0960122e-35 -1.8800034e-08 -0.00037259707 0.00012413436 -6.626384e-10
4.4877376e-07 0.00015647324 2.7928131e-06 -0.00013546066 -0.00037956308 -1.8478387e-10 -1.5561774e-07 9.770954e-05
0.00043783602 0.00018559737 -4.6236767e-08 1.0715172e-15 2.4005314e-07 -8.790905e-05 0.0016349992 -6.850085e-05
-0.00011801014 0.00027971808 -7.901132e-05 0.00028427903 -0.00010860593 0.00019908565 -0.00019127926 4.8259696e-17
-3.0821306e-05 -1.6738857e-12 -1.6654357e-09 -4.049526e-05 -3.3230618e-17 0.00011176448 5.459757e-05 -0.00029057323
7.4379183e-09 -1.4470238e-05 -4.2554705e-13 4.9094622e-05 -5.966072e-05 0.00015729512 3.049618e-13 4.9977432e-05
8.346867e-05 -0.00069581455 -3.18451e-05 -0.00027404018 0.0006130354 8.4266803e-16 -2.5108474e-11 -8.345414e-06
0.00034534314 -0.00011915866 4.2658303e-05 1.11828e-40 -0.00031798554 -0.00018941288 -3.370062e-08 -1.1193311e-10
0.00038372332 0.0003310089 -9.410879e-06 -6.542314e-07 0.00013162501 -5.541359e-05 -5.9027832e-05 7.384035e-05
4.5060543e-14 4.3978296e-05 6.233335e-05 0.0001511514 -7.800267e-25 -0.00044455478 -3.9936236e-05 -2.1501635e-12
-0.0006021542 -0.000583686 -8.4230545e-05 1.0926815e-05 -0.00020669895 2.0007063e-05 -5.016602e-05 -1.3263e-41
-3.7869035e-13 -6.0446484e-05 0.000109114975 -1.2197914e-13 0.00032280223 0.0002465003 8.031078e-05 -1.47653e-16
-2.604124e-05 4.3291795e-05 6.1630544e-06 9.598024e-05 -7.0874357e-12 3.2540506e-09 -2.2628187e-07 0.00030849283
-1.1499325e-08 -5.3752985e-05 -0.00012449306 5.582451e-17 -0.00018281658 0.00013473474 -0.00033148556 -8.4284235e-05
4.3630014e-05 -0.00025223542 -4.13552e-11 2.2452702e-12 -1.8481499e-12 0.00046200046 2.0591306e-09 -0.00036446654
0.00024657784 0.00013592292 -7.7898674e-19 -2.0631163e-23 -5.295322e-17 -0.00015733618 -1.2858388e-07 -1.6111193e-14
0.00015840089 9.307913e-05 -4.3061e-05 9.957554e-12 -9.092789e-05 0.00047190208 -2.529584e-08 -1.6224794e-38
2.257366e-08 -0.00084066094 9.7505836e-05 4.006329e-12 0.00030116853 -0.00034700625 -2.2857512e-06 -4.348845e-06
-8.909767e-05 -0.00039626952 0.0006054331 3.4475317e-10 1.5138634e-15 -5.7800656e-13 -0.00014627537 -1.6428288e-06
8.2251914e-05 -0.0008100062 3.237238e-05 5.1731506e-05 0.00021929647 4.3292883e-05 -0.000761827 -3.390332e-05
0.0002752926 -2.9035667e-07 -9.2007205e-05 -3.94087e-07 0.00024311033 -3.5340316e-05 1.5005844e-14 6.4541586e-05
-3.565063e-14 -0.00011853106 -1.04102755e-05 0.00031719872 -5.957414e-05 1.06725665e-05 -1.7771574e-12 -6.2202e-41
-0.00015500351 0.00019832418 -9.906397e-06 -0.0007493058 0.000116399184 -0.00011772231 1.8634782e-13 0.0003727295
-0.00028603734 0.00015295781 -2.5056084e-05 -1.3157771e-11 -0.000117799136 -0.00016385397 0.00018824294 -2.3090454e-09
4.5249665e-17 4.7890695e-05 -9.880071e-07 0.00019877286 -5.1783305e-10 0.00017607644 2.1842458e-10 1.972882e-05
0.0003264219 6.9092894e-05 0.00076380785 4.1741496e-06 7.953625e-05 0.00019894235 0.00045977093 0.00027103585
-5.766524e-05 -0.00025740548 -6.8241956e-05 -9.23324e-31 7.174554e-05 7.0995535e-05 -6.497589e-05 -5.7211375e-05

fcs2.weight f4 [300, 600]
00000000: 1f72 e038 f51f 4abc 2895 a8be 0748 d3bd
00000010: 942f df34 f301 0000 c6bc 08be 26f4 99bd
00000020: bed4 a0bd bcd9 89be 24c3 523e 8b5b eabc
00000030: 8612 0080 8ebb 93be be0d 0000 5db3 cabd
00000040: 5152 ccbe 7c0c e83d 0f10 0000 35f7 4c3d
00000050: 21ae 4abd 3dc2 36be 6b17 0000 e687 0bbd
00000060: 181d 0000 fc04 2abe fb0c 0000 d2bd 15bd
00000070: e73a 323e 1808 0000 4d9a fabd 7ebc f43d
00000080: f387 8cbd 2008 0000 05f5 483e bd0f 0080
00000090: 1f00 0080 6677 28be 0d35 6e3d 39cf 00be
000000a0: 0bca 283e 7526 86bd 8df3 f4bd 94fe 5339
000000b0: 459d 4ebb 7875 8fbe 2608 573d 1f03 0080
000000c0: 0f0c 0080 009f cfbd c16f 1abe e996 64bd
000000d0: bc26 903d 042b 0080 0c17 0000 c07b f83d
000000e0: d5d9 c53c 0a2b 483d d788 3f20 330b 0000
000000f0: 0600 0000 b20c f73d a3eb c5bd 52c6 303e
00000100: 0075 0cbe ce9e 73bd 93bc 0c3e bf65 85bd
00000110: 6210 90bc e96f c13c fe5d 2f3d fb29 0080
00000120: 9f25 0000 63a8 ee39 e233 2bb8 a9f5 a5bc
00000130: 711b 0000 2dff 62bd 467e 8bbe 51f0 6d3d
00000140: b617 0000 8003 323d d4f9 74ae 1b54 a63b
00000150: e752 133e 7a9f 5fbe ab05 0080 a409 d43d
00000160: a74e 113e d8b5 0b3e 8131 413d 3b22 03bd
00000170: bcf9 96be b405 0080 474e bfa9 59cf 433b
00000180: b8a8 24bd 8e1e 253b 3641 823c 421b 9538
00000190: 59ec ff3c 110f 1e3e a106 0080 8112 0080
000001a0: 439b afbc 096b 5b3e a100 0000 5c0e 0000
000001b0: 967b 13be 290b 15be ab3a a93d ee88 e83d
000001c0: b24f b9ae 25b3 323e b953 b23d 1e2d a83d
000001d0: 7a55 4f30 c703 8a3d dff0 823e e902 12b4
000001e0: 6870 14be ecbe 17bd ee4a 68be 9df9 d0ab
000001f0: fbdd 00be 600a 2b3e a46b 643e 4c44 c236
00000200: 4a36 0000 449f 153e 6917 1abe 77ba 902a
00000210: 417f 53be 82bf dbbd ebbd 093e b72c 0080
00000220: 00c5 21be d5fb 0a3e 3c1d 0080 fb9c 073e
00000230: d000 0000 c97d 9b87 807f 4c10 a37e df3c
00000240: fa01 0080 9404 06be 355d 203c 29ff c79a
00000250: 04d0 b53d b12e abbe 2756 eabd e3bc 86be
00000260: fab7 303e 141e a73c 2f4e 3ab1 92b5 c02e
00000270: 022c 112f 99c2 dcbd f52e 0080 a493 ec3b
00000280: ed22 053e 1b49 133d 9c42 ca3b 2184 d124
00000290: b119 0080 5194 c23c 1906 0000 d611 0000
000002a0: 1c68 35be 745d 6a3d 9722 8ebd ab1c 0080
000002b0: 2f13 08bd fb3e 8ebd 3f17 0080 8a99 2081
000002c0: 3d36 0000 2019 f93d c441 3ebc 2818 0080
000002d0: 5ef8 393e 95e8 09be 58e5 c73c 73fa 0a3c
000002e0: 0a57 7abd 50d2 143e 7e82 e7bd bf22 0080
000002f0: 6c02 0080 180f 0080 0e96 25be 136f 413a
00000300: 2823 833e a622 f83b 6369 bb3d b391 32be
00000310: c4ff 353d 7892 18bd b172 943c 75f2 ba3d
00000320: 74e5 0b3e 1e07 0080 4164 9e3d 4f17 0080
00000330: 6286 823c 31ee 833d e54d 4808 66ba 973d
00000340: bb18 0080 6d33 c5bd 19a3 293e 6428 86bd
00000350: d8ba d13c bfd2 27be d403 0000 af0f 10bb
00000360: 3949 da3b 1646 043e 2380 49bd 24bf af3e
00000370: 6fce d63d cea4 10bc 1900 0000 f563 2c3c
00000380: f2c7 61be 51fe 54bb fc55 2c3e d204 0080
00000390: 1c26 0ebe e6ec 0fbd 3399 2dbe 0938 0000
000003a0: 2906 0000 e960 f0bc e21b 0080 5006 1cbc
000003b0: d229 0080 b7a2 f63c 9e8f 7735 bb8a 8e3d
000003c0: 1a69 a8be 1730 fc3d b389 5a3c 1bc0 083e
000003d0: bec8 1ebe fe30 4abe 574f 82be 129f dabd
000003e0: 9f1d 8f3d ee67 94bb b6be 04bd 1702 4d20
000003f0: 7ad8 b7bd a18b 0abe 698f b9be 3978 11bd
0.00010702409 -0.012336721 -0.32926297 -0.103164725 4.1571604e-07 6.99e-43 -0.13353261 -0.07517271
-0.07853077 -0.2692393 0.20582253 -0.028608104 -6.645e-42 -0.2885403 4.93e-42 -0.09897492
-0.39906552 0.11330506 5.761e-42 0.050040442 -0.04948247 -0.17847534 8.401e-42 -0.03406515
1.0437e-41 -0.16603464 4.657e-42 -0.03655798 0.17405282 2.903e-42 -0.12236462 0.119500145
-0.06861868 2.915e-42 0.19624718 -5.646e-42 -4.3e-44 -0.16451797 0.058156062 -0.12579049
0.16483323 -0.06550304 -0.11960516 0.00020217366 -0.0031526845 -0.2801931 0.052498005 -1.12e-42
-4.326e-42 -0.10137749 -0.15081693 -0.05580798 0.07038638 -1.5431e-41 8.268e-42 0.121329784
0.024151722 0.04886917 1.6223606e-19 4.018e-42 8e-45 0.12062968 -0.09664085 0.17263153
-0.13716507 -0.05947762 0.1374381 -0.06513547 -0.017585937 0.023612933 0.042814247 -1.506e-41
1.3496e-41 0.00045520355 -4.0817897e-05 -0.020258741 9.844e-42 -0.055419136 -0.27244776 0.05809051
8.506e-42 0.04346037 -5.570107e-11 0.005075944 0.14387093 -0.21838179 -2.033e-42 0.10353401
0.1419016 0.13643587 0.04716635 -0.032015067 -0.29487407 -2.046e-42 -8.495683e-14 0.0029878228
-0.040199965 0.0025195214 0.015900236 7.109951e-05 0.031240629 0.15435435 -2.378e-42 -6.638e-42
-0.02143634 0.2142755 2.26e-43 5.151e-42 -0.14402613 -0.14555039 0.08263143 0.11354242
-8.426983e-11 0.1745115 0.08707375 0.082117304 7.542763e-10 0.06739002 0.25574395 -1.3598368e-07
-0.14496005 -0.03704731 -0.22684833 -1.484857e-12 -0.12584679 0.16703176 0.22306687 5.7896013e-06
1.9475e-41 0.14611536 -0.15047993 2.5708924e-13 -0.20654012 -0.107298866 0.13451354 -1.604e-41
-0.15797806 0.13572629 -1.0487e-41 0.13243477 2.91e-43 -2.3395738e-34 4.033013e-29 0.027282065
-7.09e-43 -0.13087684 0.009787847 -8.2716704e-23 0.088775665 -0.3343406 -0.114422135 -0.26315984
0.17257681 0.020400085 -2.7111005e-09 8.7634025e-11 1.3203308e-10 -0.10779304 -1.6845e-41 0.0072197486
0.13001604 0.03595839 0.0061724912 9.086314e-17 -9.216e-42 0.023752363 2.187e-42 6.398e-42
-0.17715496 0.05721803 -0.06940191 -1.0284e-41 -0.03322142 -0.06945606 -8.339e-42 -2.9497518e-38
1.9457e-41 0.12162995 -0.011612359 -8.666e-42 0.18161151 -0.13467629 0.024401352 0.008482563
-0.061118163 0.14533353 -0.11304186 -1.2465e-41 -8.69e-43 -5.415e-42 -0.16170523 0.0007378917
0.2561276 0.00757249 0.0915096 -0.17438392 0.04443337 -0.03724906 0.018121095 0.09128276
0.13661748 -2.553e-42 0.07733966 -8.362e-42 0.01593322 0.06441916 6.0276875e-34 0.074085996
-8.872e-42 -0.09628949 0.16566123 -0.06550673 0.02560179 -0.16388987 1.373e-42 -0.0021982004
0.006661561 0.1291736 -0.049194466 0.34325516 0.10488593 -0.008828355 3.5e-44 0.0105218785
-0.2204893 -0.0032500217 0.16829675 -1.729e-42 -0.13881725 -0.035138033 -0.16952972 2.0102e-41
2.21e-42 -0.029343085 -1.0002e-41 -0.009522989 -1.5002e-41 0.030106885 9.222366e-07 0.069600545
-0.32892686 0.1231386 0.013338494 0.13354532 -0.15506265 -0.19745252 -0.25451156 -0.106748715
0.06988072 -0.004528991 -0.03240844 1.7364867e-19 -0.089768365 -0.13529827 -0.36242226 -0.035515044

fcs2.bias f4 [300]
00000000: 3374 bb3c 2bf3 0abe d207 19b6 dd0f c0bd
00000010: 431e a2bd 94f4 1bae 6d17 adbe 03d3 8bb5
00000020: f877 3eb0 d257 c33e dbfa 373d 2f0b 6ab8
00000030: 1b1a 42be eb5c a73e 376f 6dbe 49bc 01bb
00000040: 75dc 46be 83d6 023f 47b5 b33e 3739 a83b
00000050: 7dee a6ba c524 9bb8 ac4a 133e c28e 0ebe
00000060: 28e5 b0b5 9f3e 013d 5ace 29ba f118 573d
00000070: af1b d5b5 12db 58bc 83ed 60b6 b848 ed3d
00000080: b42c 39b1 5df3 44be 2160 3cbc d90d 99bd
00000090: 73f8 32be 64c3 89bd 67d9 e7bd f26e 6a3e
000000a0: 429e 29bc ecc7 80b0 a8aa 69b9 699e 993e
000000b0: 2f40 ec3d 34f2 cab8 7476 053d 2cf5 cbbe
000000c0: 2884 8bb8 8d0f d33c 93dc 96bc c77a 433e
000000d0: b532 613e 937e f53e de24 0ebe 78fe 033f
000000e0: 7511 15be 6da6 d73d 95bb 74b7 4fed ffbd
000000f0: 8b8b 82ba 33a0 173e 9af0 b0b8 adb0 beba
00000100: 8fc4 d23d 6108 abb9 0fb4 8ebd 675d cbb8
00000110: a6ca e03f 3cd7 cc3e 10eb fe3e fcdb 98b8
00000120: 497b 713e 565e 57bd 121d cb3e bbaf a7be
00000130: 0166 1ebc 934d ddbb 56ec 23bc 8eae 3dbe
00000140: 52bf 1a3e 01e1 21be bce6 3dbe 946a 44bd
00000150: 3535 86bd 59f0 8dbd 489a 77ba 9b78 ce3d
00000160: cecd 93b5 35f4 c9b8 ef1c eebd 5e13 1dbc
00000170: 778c 163e fcbf 87bd dc56 893e 6743 a03e
00000180: 8108 56be 8a78 c73e 8655 adbd 1028 c5b9
00000190: 3273 333e 6b0e c0be d26d 4abe 7921 25be
000001a0: 2147 493c 4a9b 6e3e bbe6 9aba 6aaa d7bd
000001b0: a9e8 e73e 913e 2d3d 43fe cfb1 fee9 0c3f
000001c0: e075 0dbb f542 a53d 3da2 8c3e 780c e8ba
000001d0: 027b 7d3e 054e e9bd c78f 06b1 d2ae 27bd
000001e0: 45ea ce3e 37c9 9ebd e202 9b3c 6051 18bb
000001f0: 3dcd 22be e5e4 a1b3 58f4 42be d0d0 a53d
00000200: af82 26bc 8d92 963c cd9c 01b9 e325 b63d
00000210: 136c d6b4 1abc 2dbb 076e 9a3f 1678 1e3d
00000220: c30a 56bd 4da0 94bb 816f 1eb5 ee76 68be
00000230: e277 153b 9703 193e a482 23be 28bb afbc
00000240: 0ccb a2bd 8dc5 3fbc 3dcf bcb7 3145 0ebf
00000250: d213 c4bb 758f 2cbb fcdc a5b6 2fc6 9cb8
00000260: 768b d83e af33 7abe 61b6 aebb 6162 0f3f
00000270: f1b5 80b8 9564 6db8 93c2 0ebc d8e6 c2ae
00000280: be36 86bd 8c7f 523e f020 44be 68b8 1f3e
00000290: df58 62ba e045 f3b8 a0a6 62b9 77da 07bb
000002a0: fe66 5a3e 5d56 30b9 1f99 3fb6 fc87 88be
000002b0: ed38 7cbc 84d6 dbba f7e4 8bbc c129 45b9
000002c0: f616 ccb8 fb24 3a3e 6e02 d3bd 2d47 d8b5
000002d0: 83e6 ce3e 6d7b 0a3e fbeb 7ebe 83b8 8f3d
000002e0: f76a 74bb 3ee9 da3d 9906 0fba 2553 ccbb
000002f0: 36d2 44be 63a5 8ab3 acc4 ad3d c102 14bd
00000300: c5db 2ab8 b42a 9eb2 54de 2abe 65ba dfbe
00000310: 263f c63e e210 a73e da3e dab4 e0b3 2bb3
00000320: bc07 443e 7680 a1be 18d0 9e3e a256 a6bd
00000330: 6a22 afbd 2a88 b9b9 a20e b8bd cb43 903e
00000340: 288c 1f3b 94f7 f1be d20d b4ba f019 0cbc
00000350: a628 38bf 8948 3fbc b4be 35be 4f5b b6b4
00000360: f6ba 84be b304 9cb8 46e6 7f3e bcac 253f
00000370: ab84 a73d 54da 103e 7b75 023e 4572 fabd
00000380: 6588 203e 73b4 0c3f 2b9a 1fbc 2cfc 1ab5
00000390: c033 57b9 4588 87bd 4294 f73e 8c4b ff3d
000003a0: 2287 05bb ee1d 7fbe 3214 06bb 831f 78b2
000003b0: cbee 29be 119e 6fbe 4cc5 55bc e07c 283d
000003c0: 4216 43b6 98dd 843d 9f9a e6be 07c9 d93c
000003d0: 3627 453e a14a b2ba ca6d a7b8 be2e f1b6
000003e0: 9cc3 c33e b301 5a3d f27a 223d 1110 d0be
000003f0: 6f40 893e 722a d8b2 9b65 a7bb f30b b43e
0.022882557 -0.13569324 -2.2803329e-06 -0.09378026 -0.07915928 -3.546015e-11 -0.33806935 -1.041772e-06
-6.9292083e-10 0.3815294 0.04491697 -5.5800363e-05 -0.18955271 0.32688078 -0.23186956 -0.0019796065
-0.19420035 0.5110857 0.3509924 0.0051337737 -0.001273587 -7.397825e-05 0.14383954 -0.13921645
-1.3179715e-06 0.03155386 -0.0006477587 0.05251402 -1.5877794e-06 -0.013235824 -3.351685e-06 0.115861356
-2.6946454e-09 -0.1923346 -0.011497528 -0.07473344 -0.17477588 -0.06726721 -0.11320763 0.22893885
-0.010352673 -9.370047e-10 -0.00022284186 0.3000367 0.115356795 -9.6772244e-05 0.03258367 -0.3983549
-6.6526525e-05 0.025764251 -0.018415725 0.19089805 0.21992 0.4794813 -0.13881251 0.51560163
-0.1455744 0.1052979 -1.4587208e-05 -0.12496435 -0.00099598 0.14807205 -8.4371495e-05 -0.0014548503
0.10291397 -0.00032621904 -0.06967937 -9.697192e-05 1.7561843 0.4000796 0.49788713 -7.2889e-05
0.23582186 -0.0525802 0.39670616 -0.3275126 -0.009667874 -0.0067536323 -0.010005077 -0.18523619
0.15112045 -0.15808488 -0.1854505 -0.047953203 -0.06553117 -0.06930608 -0.0009445292 0.100815974
-1.101225e-06 -9.629914e-05 -0.116266124 -0.009587137 0.1470202 -0.06628415 0.2682408 0.31301424
-0.20901681 0.38959152 -0.08463578 -0.00037604617 0.17524412 -0.37511 -0.19768456 -0.1612605
0.012285025 0.23301426 -0.0011818031 -0.10530551 0.45294693 0.042295996 -6.053399e-09 0.55044544
-0.0021585152 0.08069412 0.27467528 -0.0017703911 0.24753955 -0.11391834 -1.9581294e-09 -0.040938206
0.40413108 -0.077532224 0.018922273 -0.0023241863 -0.15898605 -7.5387824e-08 -0.19038522 0.080964684
-0.010162993 0.018380428 -0.00012360812 0.08893945 -3.993924e-07 -0.0026509822 1.2064828 0.03868874
-0.052256357 -0.004535711 -5.9021846e-07 -0.22701618 0.0022807051 0.14942776 -0.15967804 -0.021451548
-0.07948884 -0.011704815 -2.250785e-05 -0.5557433 -0.005983808 -0.0026330624 -4.943109e-06 -7.475574e-05
0.422939 -0.24433778 -0.0053318 0.5600949 -6.137405e-05 -5.6598878e-05 -0.008713382 -8.863105e-11
-0.0655341 0.20556468 -0.1915319 0.15597689 -0.00086344586 -0.00011600158 -0.00021615112 -0.002072958
0.21328351 -0.00016816841 -2.8550346e-06 -0.26666248 -0.015394432 -0.0016772305 -0.017076952 -0.00018802939
-9.731755e-05 0.1817817 -0.10303198 -1.6113969e-06 0.4041024 0.13523646 -0.24894707 0.07017615
-0.0037295201 0.10689019 -0.0005456 -0.0062354975 -0.19220814 -6.4562094e-08 0.08484778 -0.03613544
-4.0735835e-05 -1.841304e-08 -0.16686374 -0.43696895 0.38720053 0.32630068 -4.0651395e-07 -3.9977635e-08
0.19143575 -0.3154332 0.31018138 -0.08121993 -0.08551486 -0.000353874 -0.08987166 0.28176722
0.0024345014 -0.472592 -0.0013737029 -0.008551106 -0.71937025 -0.011675009 -0.17748529 -3.3966577e-07
-0.2592389 -7.439535e-05 0.24990186 0.64716697 0.08179601 0.14145786 0.12740128 -0.122288264
0.1567703 0.54962844 -0.009741346 -5.773643e-07 -0.00020523276 -0.06617788 0.483553 0.12465581
-0.0020374735 -0.24913761 -0.0020458815 -1.4442665e-08 -0.16594999 -0.23400141 -0.0130475275 0.041134715
-2.907022e-06 0.06487578 -0.45039842 0.026585115 0.19253239 -0.0013602563 -7.98363e-05 -7.187801e-06
0.38235176 0.053224277 0.03966803 -0.40637258 0.2680697 -2.5165011e-08 -0.005108548 0.35165367

fca1.weight f4 [300, 4]
00000000: 3ad7 acbe 7787 f5bd 0945 39bd 81cd dc3d
00000010: b3dc 16bd a22e 2bbd 43fb a3bc bb3c ae3c
00000020: ee5e b6b5 eb22 dcb5 2a69 c0b2 fdd0 48b6
00000030: b632 c43e aa3e e6be 8802 92be 0308 c7bc
00000040: 3d13 1c3d de80 3fbd 60d5 b03d 6305 0f3e
00000050: cfac 3aab 10ad ad2d d884 85a2 409b 32ad
00000060: 2202 753c 1d82 ac3a 20cf b2bc b075 4fbd
00000070: 5c98 05b0 80df 15b1 e6bc 5e27 269e c2b6
00000080: baef e02d 8f5b a7ae 6493 45a7 6064 4831
00000090: ce06 483e 0d6e e23e c7af a9be aae9 6bbe
000000a0: 8fc4 4cbf b481 55bf f36b 4bbd 93a0 103e
000000b0: a4c1 a137 4026 cbb7 be7c 9fb4 9a19 d6b8
000000c0: 2f5a 92bd a5b4 0c3e 0f3e 6cbd 7688 0c3d
000000d0: b806 be3e 31c9 843e 9d54 33be ac0c 8abe
000000e0: 1124 e7bd 6274 e0bc 8257 883d 22c2 97bd
000000f0: 4810 a43a 3e1f e9bb acd3 d8bb 2509 8c39
00000100: 1acf 3a3e f3c2 c5bd 3da3 a0bc 2d56 04bd
00000110: 97ca 58be b8b4 d0be 4d1d 5b3d b8be da3c
00000120: 6e84 6abd 0378 e13d 99b6 59bd e68d 84bd
00000130: c7b2 f33d 4dc2 06bf c2a1 dc3b 3fa8 1e3d
00000140: f06c 5fba e704 9439 463c 1c39 421e c2ba
00000150: 4817 e4b8 24d1 0039 47c8 a2b3 f68a 53b8
00000160: dca2 e93d 2e1d 683e 08aa 3ebe b448 a7bd
00000170: 09a8 4fbd 2df3 78bd 746c 13be a60d 01bd
00000180: 5ddc c6b4 415f 29b5 1f6d 1fb6 9b69 e9b5
00000190: dbdc 093d c4b4 173e 1eaf 3cbd 050f 913c
000001a0: 8134 6eb8 3660 4bba f9da 0e38 5db2 8cba
000001b0: 6391 483e a52c cdbd d802 79bd 2392 0b3e
000001c0: 02bf 67b5 71b8 3f35 ee23 b733 40c3 05b6
000001d0: 2d6b 8d3b f8bb 0d3c d766 74bc e59b 47bb
000001e0: e952 07b3 00ec a5af 6dac 3ead 1ab4 3db6
000001f0: a1bb fdbd d629 b83c 1634 2abe e988 0a3e
00000200: 6080 2025 3a8c 5228 d14a 84a4 17cd 0fb1
00000210: 5212 96bd 8171 8e3e 6c11 783d ba86 7e3d
00000220: f2a4 3e3c 9f44 833d 9df6 603e 7d94 01be
00000230: 6bfc c2bc e72d 463d 007f cf3e 139d af3d
00000240: aa88 7c3b 4ed5 4c3d 91f3 9e3d 7489 f73c
00000250: c8fd 6dbd ad69 363d fe4f 833d f198 923d
00000260: b0e0 0d3c 319e 093e cd64 ce3e e750 bb3d
00000270: 3fad 8bbe 1f67 a6be 3652 9a3e 87fd 833e
00000280: 3eaa a13b 2b23 74bc 8466 1d3c c84d 55bc
00000290: 62fd 0fae 0170 9aad fce6 5e25 6dbb 3eb1
000002a0: f010 d536 5121 82b6 f107 03b6 3279 6238
000002b0: 98f2 5a3d a4ed b33d e1d7 eabd 390a b53d
000002c0: 828c 793e 0e0e 823d 4d58 b03d 282a 9abc
000002d0: 64f9 5f37 6ad0 b5b8 14d9 90b5 04cb fab7
000002e0: 5ab5 863c 8a3b 483d 574c a63d aaaa 9bbd
000002f0: ceb8 96bc ce4b cd3c e4c4 0bbe fa7e f7bd
00000300: 658b 5438 b627 1ab8 14be 8838 8416 c8b8
00000310: c798 32bf 18b2 6c3e 10cf 71bd 2ffe ae3d
00000320: 8af9 e0ba 43df babc a6df 8b3c 6dd6 5bbc
00000330: e69b 503e 78fe c9bd 12ca 8ebe 4ad2 af39
00000340: 5fae adbd f2ef 213e 7b3e 6abd 0122 183c
00000350: 73ee 9e3d bc17 993d c830 5a3d b6a7 26be
00000360: 5baa 43bc f3b7 9e3d 777e 083e b93d 7f3d
00000370: af67 e33d aa60 503d 6420 00bb 3f76 76bd
00000380: d0e4 c13d 547f 793d 90d7 5f3e de0f c13d
00000390: 4bf0 a83d 2fc8 90be 6b50 4b3e 909f 563e
000003a0: 601a 8e34 4eb9 2eb6 4e47 bbb1 ed2a 7ab8
000003b0: a9a7 783d 5815 853d 8e96 b2be 2800 203c
000003c0: de46 023a a51c a439 e93a 8cba 9849 9cba
000003d0: ec92 e9be d3c6 90bc 092a 583d 90fe 0f3e
000003e0: c26a d9b8 e73e 9338 d6fc 3438 caa9 1ab8
000003f0: 99c8 7ab9 3526 58b9 b145 68b8 8853 003a
-0.33757955 -0.119887285 -0.045231853 0.10781384 -0.03683157 -0.04179252 -0.020017272 0.021269193
-1.3587685e-06 -1.640144e-06 -2.2399565e-08 -2.992397e-06 0.3831994 -0.44969684 -0.28517556 -0.024295812
0.038104285 -0.046753757 0.08634448 0.13966899 -6.6320295e-13 1.9744678e-11 -3.6190376e-18 -1.0152601e-11
0.014954122 0.0013161335 -0.02182728 -0.050649345 -4.8601634e-10 -2.1809399e-09 3.091109e-15 -5.8000614e-06
2.5572312e-11 -7.610545e-11 -2.7419143e-15 2.9160887e-09 0.19533846 0.44224587 -0.3314192 -0.23038355
-0.79987425 -0.83401036 -0.049663495 0.14123754 1.9282867e-05 -2.4217297e-05 -2.970682e-07 -0.00010209084
-0.071461074 0.13740785 -0.05767637 0.034309827 0.371145 0.25934747 -0.17512746 -0.26962793
-0.11286176 -0.027399246 0.06657316 -0.07410075 0.0012517059 -0.00711432 -0.00661703 0.00026709694
0.18243065 -0.09656324 -0.019609088 -0.032308746 -0.21171032 -0.40762877 0.05349474 0.02670227
-0.0572552 0.110092185 -0.053152654 -0.064723775 0.118993334 -0.5264023 0.00673315 0.03873467
-0.0008523008 0.00028232412 0.00014899773 -0.0014810043 -0.00010876224 0.00012284942 -7.580143e-08 -5.0435738e-05
0.11408016 0.22667381 -0.1861955 -0.08168164 -0.05069736 -0.060778785 -0.1439684 -0.031507157
-3.704071e-07 -6.309602e-07 -2.3756363e-06 -1.7390588e-06 0.03365789 0.1481505 -0.046065442 0.017707357
-5.679252e-05 -0.0007758172 3.4059372e-05 -0.0010734309 0.1958671 -0.10018281 -0.060793728 0.13629965
-8.633216e-07 7.142144e-07 8.528137e-08 -1.9932195e-06 0.004315755 0.008650772 -0.014917097 -0.003045791
-3.1507543e-08 -3.0181013e-10 -1.0838536e-11 -2.8268028e-06 -0.12389303 0.022480886 -0.16621432 0.1352879
1.3921283e-16 1.16877485e-14 -5.737262e-17 -2.0925819e-09 -0.07327713 0.27820972 0.06056349 0.062140204
0.011636006 0.06409573 0.21969076 -0.126543 -0.023802003 0.04838362 0.4052658 0.085748814
0.0038533607 0.05000811 0.077613 0.03021691 -0.058103353 0.044534374 0.06411742 0.071580775
0.008659527 0.13439251 0.4031128 0.0914629 -0.27280614 -0.3250055 0.30140847 0.25779364
0.0049336245 -0.014900963 0.009606961 -0.013019033 -3.2739485e-11 -1.7557513e-11 1.9333691e-16 -2.7755178e-09
6.3498665e-06 -3.8781805e-06 -1.9525144e-06 5.399547e-05 0.05345401 0.08785561 -0.11466957 0.088398404
0.24370006 0.06350337 0.08610592 -0.01881893 1.3349902e-05 -8.669573e-05 -1.0792014e-06 -2.9896859e-05
0.016443897 0.048884906 0.081200294 -0.07600911 -0.018398669 0.02506056 -0.13649327 -0.12084766
5.067456e-05 -3.6753445e-05 6.52039e-05 -9.540937e-05 -0.6976437 0.23114812 -0.05903536 0.085445754
-0.0017164212 -0.022811538 0.017074417 -0.013417822 0.2037197 -0.09862989 -0.27888542 0.0003353528
-0.08480524 0.15814188 -0.057188492 0.009285451 0.07760324 0.0747523 0.053269178 -0.16274914
-0.011942471 0.07749929 0.13329493 0.062314723 0.111037605 0.050873436 -0.0019550556 -0.060171362
0.09467471 0.060912445 0.21859574 0.094268546 0.08248957 -0.28277728 0.19854896 0.20959306
2.6468751e-07 -2.6035882e-06 -5.4505227e-09 -5.9644623e-05 0.06070677 0.064982116 -0.3488049 0.009765662
0.00049696665 0.0003130186 -0.0010698709 -0.0011923788 -0.45619905 -0.017672932 0.052774463 0.14061952
-0.000103672515 7.021223e-05 4.3150816e-05 -3.687459e-05 -0.00023916586 -0.00020613598 -5.5378016e-05 0.00048952596

fca1.bias f4 [300]
00000000: 3374 bb3c 2bf3 0abe d207 19b6 dd0f c0bd
00000010: 431e a2bd 94f4 1bae 6d17 adbe 03d3 8bb5
00000020: f877 3eb0 7bb7 dc3e 47fb 613d 2f0b 6ab8
00000030: 0476 42be 0e5f b73e 376f 6dbe 49bc 01bb
00000040: 75dc 46be 5bce 073f e500 b13e 3739 a83b
00000050: 7dee a6ba c524 9bb8 ac4a 133e f75e 0ebe
00000060: 28e5 b0b5 9f3e 013d 5ace 29ba f118 573d
00000070: af1b d5b5 12db 58bc 83ed 60b6 b848 ed3d
00000080: b42c 39b1 5df3 44be 2160 3cbc d90d 99bd
00000090: 73f8 32be 64c3 89bd 67d9 e7bd a315 7b3e
000000a0: 429e 29bc ecc7 80b0 a8aa 69b9 699e 993e
000000b0: 0830 f23d 34f2 cab8 7476 053d 453a cbbe
000000c0: 2884 8bb8 8d0f d33c 93dc 96bc c77a 433e
000000d0: b532 613e c672 f53e de24 0ebe 7af8 083f
000000e0: 7511 15be 6da6 d73d 95bb 74b7 4fed ffbd
000000f0: 8b8b 82ba 33a0 173e 9af0 b0b8 adb0 beba
00000100: 8fc4 d23d 6108 abb9 0fb4 8ebd 675d cbb8
00000110: 45e2 e53f 0aca ef3e 1bfc 023f fcdb 98b8
00000120: 497b 713e 9e5e 57bd 476e e03e bbaf a7be
00000130: 0166 1ebc 934d ddbb 56ec 23bc 8eae 3dbe
00000140: 52bf 1a3e 01e1 21be bce6 3dbe 946a 44bd
00000150: 3535 86bd 59f0 8dbd 489a 77ba 9b78 ce3d
00000160: cecd 93b5 35f4 c9b8 ef1c eebd 82b3 f4bb
00000170: 778c 163e fcbf 87bd 8d28 7d3e 7ded b03e
00000180: 8108 56be 8a78 c73e 8655 adbd 1028 c5b9
00000190: 3273 333e 89fe bfbe d26d 4abe 3821 25be
000001a0: 2147 493c c43c 5f3e bbe6 9aba 6aaa d7bd
000001b0: 440a e83e 913e 2d3d 43fe cfb1 541f 183f
000001c0: e075 0dbb f542 a53d 38a4 923e 780c e8ba
000001d0: 6a30 8d3e 7e48 e9bd c78f 06b1 d2ae 27bd
000001e0: a2d1 eb3e 37c9 9ebd e202 9b3c 6051 18bb
000001f0: 3dcd 22be e5e4 a1b3 58f4 42be d0d0 a53d
00000200: af82 26bc 8d92 963c cd9c 01b9 e325 b63d
00000210: 136c d6b4 1abc 2dbb 2255 983f b72a 1e3d
00000220: c30a 56bd 4da0 94bb 816f 1eb5 ee76 68be
00000230: e277 153b 9703 193e a482 23be 28bb afbc
00000240: 0ccb a2bd 8dc5 3fbc 3dcf bcb7 b345 0ebf
00000250: d213 c4bb 758f 2cbb fcdc a5b6 2fc6 9cb8
00000260: d388 d93e dd33 7abe 61b6 aebb 28e7 063f
00000270: f1b5 80b8 9564 6db8 93c2 0ebc d8e6 c2ae
00000280: 732b 80bd 8c7f 523e f020 44be 68b8 1f3e
00000290: df58 62ba e045 f3b8 a0a6 62b9 77da 07bb
000002a0: fe66 5a3e 5d56 30b9 1f99 3fb6 fc87 88be
000002b0: ed38 7cbc 84d6 dbba f7e4 8bbc c129 45b9
000002c0: f616 ccb8 886b 573e 6e02 d3bd 2d47 d8b5
000002d0: 87c4 f03e 6d7b 0a3e fbeb 7ebe d192 a53d
000002e0: f76a 74bb 3ee9 da3d 9906 0fba 2553 ccbb
000002f0: 36d2 44be 63a5 8ab3 acc4 ad3d c102 14bd
00000300: c5db 2ab8 b42a 9eb2 54de 2abe fb16 e0be
00000310: 6df9 d03e a69b c33e da3e dab4 e0b3 2bb3
00000320: bc07 443e 7680 a1be 1143 b73e a256 a6bd
00000330: 6a22 afbd 2a88 b9b9 a20e b8bd cb43 903e
00000340: 288c 1f3b 3f13 f2be d20d b4ba f019 0cbc
00000350: 9c82 38bf 8948 3fbc b4be 35be 4f5b b6b4
00000360: f6ba 84be b304 9cb8 4be2 963e 5aa2 2b3f
00000370: ab84 a73d 54da 103e 7b75 023e 4572 fabd
00000380: 6588 203e 0284 123f 2b9a 1fbc 2cfc 1ab5
00000390: c033 57b9 4768 86bd 66ed fb3e 8c4b ff3d
000003a0: 2287 05bb 5036 7ebe 3214 06bb 831f 78b2
000003b0: cbee 29be 55b6 6fbe 4cc5 55bc e07c 283d
000003c0: 4216 43b6 98dd 843d e081 e6be 9c7c db3c
000003d0: 9ccd 643e a14a b2ba ca6d a7b8 be2e f1b6
000003e0: 96b8 b33e c224 573d f27a 223d 48d0 d0be
000003f0: 1880 8c3e 722a d8b2 9b65 a7bb 6945 d53e
0.022882557 -0.13569324 -2.2803329e-06 -0.09378026 -0.07915928 -3.546015e-11 -0.33806935 -1.041772e-06
-6.9292083e-10 0.43108734 0.055171277 -5.5800363e-05 -0.18990332 0.35814708 -0.23186956 -0.0019796065
-0.19420035 0.5304925 0.34570995 0.0051337737 -0.001273587 -7.397825e-05 0.14383954 -0.13903414
-1.3179715e-06 0.03155386 -0.0006477587 0.05251402 -1.5877794e-06 -0.013235824 -3.351685e-06 0.115861356
-2.6946454e-09 -0.1923346 -0.011497528 -0.07473344 -0.17477588 -0.06726721 -0.11320763 0.24519973
-0.010352673 -9.370047e-10 -0.00022284186 0.3000367 0.118255675 -9.6772244e-05 0.03258367 -0.39692894
-6.6526525e-05 0.025764251 -0.018415725 0.19089805 0.21992 0.47939128 -0.13881251 0.53504145
-0.1455744 0.1052979 -1.4587208e-05 -0.12496435 -0.00099598 0.14807205 -8.4371495e-05 -0.0014548503
0.10291397 -0.00032621904 -0.06967937 -9.697192e-05 1.7959677 0.4683383 0.5116593 -7.2889e-05
0.23582186 -0.05258047 0.43834135 -0.3275126 -0.009667874 -0.0067536323 -0.010005077 -0.18523619
0.15112045 -0.15808488 -0.1854505 -0.047953203 -0.06553117 -0.06930608 -0.0009445292 0.100815974
-1.101225e-06 -9.629914e-05 -0.116266124 -0.007467688 0.1470202 -0.06628415 0.247225 0.3455619
-0.20901681 0.38959152 -0.08463578 -0.00037604617 0.17524412 -0.37498882 -0.19768456 -0.16125953
0.012285025 0.21800524 -0.0011818031 -0.10530551 0.45320332 0.042295996 -6.053399e-09 0.594228
-0.0021585152 0.08069412 0.28640914 -0.0017703911 0.27576 -0.1139078 -1.9581294e-09 -0.040938206
0.46058375 -0.077532224 0.018922273 -0.0023241863 -0.15898605 -7.5387824e-08 -0.19038522 0.080964684
-0.010162993 0.018380428 -0.00012360812 0.08893945 -3.993924e-07 -0.0026509822 1.190098 0.038614955
-0.052256357 -0.004535711 -5.9021846e-07 -0.22701618 0.0022807051 0.14942776 -0.15967804 -0.021451548
-0.07948884 -0.011704815 -2.250785e-05 -0.555751 -0.005983808 -0.0026330624 -4.943109e-06 -7.475574e-05
0.424872 -0.24433847 -0.0053318 0.52696466 -6.137405e-05 -5.6598878e-05 -0.008713382 -8.863105e-11
-0.06258287 0.20556468 -0.1915319 0.15597689 -0.00086344586 -0.00011600158 -0.00021615112 -0.002072958
0.21328351 -0.00016816841 -2.8550346e-06 -0.26666248 -0.015394432 -0.0016772305 -0.017076952 -0.00018802939
-9.731755e-05 0.21037114 -0.10303198 -1.6113969e-06 0.47024938 0.13523646 -0.24894707 0.08084644
-0.0037295201 0.10689019 -0.0005456 -0.0062354975 -0.19220814 -6.4562094e-08 0.08484778 -0.03613544
-4.0735835e-05 -1.841304e-08 -0.16686374 -0.43767533 0.40815297 0.38204688 -4.0651395e-07 -3.9977635e-08
0.19143575 -0.3154332 0.35793355 -0.08121993 -0.08551486 -0.000353874 -0.08987166 0.28176722
0.0024345014 -0.4728031 -0.0013737029 -0.008551106 -0.72074294 -0.011675009 -0.17748529 -3.3966577e-07
-0.2592389 -7.439535e-05 0.29469523 0.67044604 0.08179601 0.14145786 0.12740128 -0.122288264
0.1567703 0.5723268 -0.009741346 -5.773643e-07 -0.00020523276 -0.06562858 0.49204558 0.12465581
-0.0020374735 -0.24825406 -0.0020458815 -1.4442665e-08 -0.16594999 -0.23409398 -0.0130475275 0.041134715
-2.907022e-06 0.06487578 -0.45020962 0.026792817 0.22344059 -0.0013602563 -7.98363e-05 -7.187801e-06
0.35101765 0.05252529 0.03966803 -0.40783906 0.27441478 -2.5165011e-08 -0.005108548 0.41654518

fc1.weight f4 [1, 300]
00000000: 45c5 e3bf 0f59 df3f 9f00 b8b8 f26c c4bf
00000010: 70f2 07c0 62e7 803a 2698 7e3f a671 2f3b
00000020: ba5f 8738 e4bb c3bf 45ba 07c0 dd8c b4bb
00000030: b531 cbbf d0b9 a2bf bd79 07bf f0bc 9c38
00000040: a733 ee3f 3d19 e5bf 4026 aebf 1c15 c0bf
00000050: aee7 35ba a830 cfb9 fc2c 36c0 9ed0 8fbf
00000060: e0cb 88ba 3d02 13c0 e571 76bb 2f6b fe3f
00000070: 4356 9c39 3349 3a3b 07ff 693c 86b8 e8bf
00000080: fead 88ba cd14 36bf 8be0 eebf 3cf2 c6bf
00000090: 52ee 753f b20d bb3f de29 f5bf 1312 8ebf
000000a0: b157 cd3b adca 4bb9 e4ab 1dbb a5e3 b73f
000000b0: c05d 03c0 01ae 3c3b 3b1b 9ebf 84b7 cbbf
000000c0: 9fd8 92bb 4e50 31c0 8b94 3b3c 6e97 f93e
000000d0: 580c a73f 5361 ccbf 62c7 65bf 5ad5 a1bf
000000e0: cdcc 0cc0 2e40 80bf bb75 b339 3d7d c0bf
000000f0: 1730 32bc aab7 1140 958b 2eb9 4d3c 9c3c
00000100: ea2b e43f 8cca 4437 ac06 493f faa1 ccbb
00000110: ad87 1d40 b70f d5bf 984e c6bf edaa 6eba
00000120: 7cb2 de3f 36d0 a9bf 55e5 99bf ad53 f2bf
00000130: 9c9c 08c0 13d3 653a 0cf9 e93e 6dd9 afbf
00000140: bca8 4ac0 f2d9 26bf ea4b 893f f0a1 ccbf
00000150: a73b d8bf 089a efbf 054b f7b6 d073 01c0
00000160: 98d5 af36 4c65 0138 d04c f8bf 59d6 e4bf
00000170: 10bf ab3f aa4d 0bc0 c890 08bf 9eeb 84bf
00000180: d4c2 bcbf cf9b 4b3f 07bd e6bf 3e9b 0538
00000190: 113c 503f 14f2 bdbf 1b1b fbbf 5f8f 30c0
000001a0: 9229 9a3f abf5 79bf 2436 a83b 66fc 3dbf
000001b0: f7eb 2e3f db76 d0bf 94b2 4834 c21a c5bf
000001c0: a17e 553b 988a 0740 f7a7 01c0 3f8d f6ba
000001d0: fd97 01c0 9788 8ebf b807 8ab9 0084 f5be
000001e0: 327f d8bf b9ce bbbf d3f6 12c0 e258 c438
000001f0: 50b0 91bf 6dc8 57ba 67f5 febf 708a a3bf
00000200: 10ab 9a3c 37ed c8bf 1e24 18bb c9f8 33c0
00000210: 3dab 903a 7b0c 25ba b3bb 853f 84fa a6bf
00000220: 930f 0dc0 522d 813b 2bb0 3137 78e1 e2be
00000230: f8c9 09c0 d48b 0240 3e26 78bf dbaf 8d3a
00000240: 6a44 e1bf b047 cb3b 0a05 d33b f6f7 9bbf
00000250: 8a48 c63b 60ad a5ba eaca 3d3b d2b1 6537
00000260: c80f d63f 8db0 19bf 6ffc 143a b229 b5bf
00000270: 9b77 1139 044f a3b9 f196 543b 7bdb a03a
00000280: 032e 11c0 1e5b 663f 49e3 0cbf ede3 3dc0
00000290: 0c1b 86b9 f362 de38 9760 9b3a 7102 5539
000002a0: 89f4 1240 0fea 1cba 13e6 98bb 9802 c63f
000002b0: 1b10 ce3b 9363 8f3a a8cb f53b e94e 10b8
000002c0: 6be0 31b8 feca e9bf 2e75 cabf db15 40bc
000002d0: 59ef 99bf de38 773f c203 1cbf 616b debf
000002e0: fa6f 203b 1546 4c40 2435 3c38 b6e7 df3a
000002f0: bc3c bebf 9b12 6f3a 5932 b83f b24b b8bf
00000300: 0432 0eb7 441d 8d3b fde0 b5bf 752c f2bf
00000310: dc8e b7bf 04b5 89bf 9e12 dab8 2637 03bb
00000320: de29 1d40 794b 1540 a0b9 9dbf 6d54 b4bf
00000330: 350b a4bf c7f7 2b38 3a15 06c0 9698 573f
00000340: f89f e33f 84d4 f0bf 79ad 99b9 c721 efbb
00000350: 526d 12c0 9eab 7939 ca15 c9be bd39 0f3c
00000360: 8cbc d23f 7462 e93b 255e 5cbf 897a ecbf
00000370: 8c88 11c0 86f8 0cc0 7372 1040 4ac9 803f
00000380: 55dd 1cc0 d9f3 02c0 2ad1 4e3f e404 e43a
00000390: 2dac 43bb 8349 11c0 7e91 c9bf f71b 1640
000003a0: 0ed7 86bb fa78 19bf 553d f43a 9cca 09b8
000003b0: db99 dbbf 59ad 04bf c203 e9bf cca9 07c0
000003c0: 86bf 16bc a3e8 0940 58e2 23bf 4103 2fc0
000003d0: aa8e 51bf 44f2 06ba 2f3b 9e3b 51d4 fdbb
000003e0: 88a3 95bf 49cb f3bf 24d9 f9bf 3d85 c6bf
000003f0: 8b3f a1bf c879 d6bb 7d9e 3f3c 15e6 a3bf
-1.7794577 1.7449054 -8.7739194e-05 -1.5345747 -2.1241722 0.0009834582 0.9945091 0.002677062
6.455132e-05 -1.5291715 -2.120744 -0.0055099563 -1.5874544 -1.2712955 -0.5292013 7.473852e-05
1.8609513 -1.7898327 -1.3605423 -1.5006442 -0.0006939125 -0.00039518368 -2.8464956 -1.123554
-0.0010436736 -2.2970116 -0.0037604508 1.987646 0.0002981891 0.0028424978 0.014281995 -1.8181312
-0.001042783 -0.7112549 -1.8662275 -1.5542674 0.9606677 1.4613554 -1.9153402 -1.1099266
0.006266557 -0.00019435091 -0.0024058754 1.4366347 -2.052597 0.0028790238 -1.235206 -1.591538
-0.0044813897 -2.7705264 0.01144899 0.48748344 1.3050642 -1.5967201 -0.8975736 -1.2643235
-2.2 -1.0019586 0.00034229257 -1.503822 -0.010875723 2.276835 -0.00016645931 0.019071722
1.7825902 1.17296695e-05 0.78525805 -0.006244895 2.461406 -1.6645421 -1.5492735 -0.00091044494
1.7398219 -1.3266666 -1.2023112 -1.8931786 -2.1345587 0.0008767109 0.4569782 -1.3738228
-3.1665487 -0.6517631 1.0726292 -1.5986919 -1.6893204 -1.8718882 -7.369907e-06 -2.0226936
5.240272e-06 3.0850337e-05 -1.9398441 -1.7877914 1.3417683 -2.1766152 -0.5334592 -1.0384405
-1.4746957 0.7953462 -1.8026437 3.185425e-05 0.81341654 -1.4839501 -1.9617647 -2.7587507
1.2043936 -0.97640485 0.005133407 -0.74213254 0.68328804 -1.6286272 1.8691418e-07 -1.5398791
0.0032576697 2.117834 -2.0258768 -0.0018810405 -2.0249016 -1.1135434 -0.00026327162 -0.4795227
-1.6913817 -1.4672462 -2.296315 9.362564e-05 -1.1381931 -0.0008231465 -1.9918641 -1.2776623
0.018880397 -1.5697392 -0.0023214887 -2.8120596 0.0011037361 -0.000629611 1.0447906 -1.3045201
-2.2040756 0.00394217 1.0591039e-05 -0.44312644 -2.1529522 2.0397844 -0.9693335 0.0010809855
-1.7599003 0.006203614 0.0064398097 -1.2185047 0.006051128 -0.0012640171 0.0028960058 1.3690866e-05
1.6723566 -0.6003502 0.00056833675 -1.4153349 0.00013872834 -0.00031148654 0.00324386 0.0012272442
-2.2684333 0.89982784 -0.5503431 -2.9670365 -0.00025578623 0.00010604216 0.0011854348 0.00020314172
2.2961752 -0.0005985805 -0.004666099 1.5469542 0.006288541 0.001093971 0.0075010844 -3.4405766e-05
-4.2409094e-05 -1.8265073 -1.581701 -0.011723961 -1.2026168 0.9657115 -0.60943234 -1.737652
0.0024480806 3.1917775 4.4872184e-05 0.0017082605 -1.4862285 0.0009119899 1.4390365 -1.43981
-8.475505e-06 0.0043064672 -1.4209286 -1.8919817 -1.4340472 -1.0758367 -0.00010398518 -0.0020021885
2.4556804 2.3327315 -1.2322273 -1.4088265 -1.281592 4.1000338e-05 -2.0950456 0.842172
1.7783194 -1.8814855 -0.0002931168 -0.0072977277 -2.2879224 0.00023810423 -0.39274436 0.008741793
1.646379 0.007122332 -0.86081153 -1.8474895 -2.2739592 -2.2026687 2.2569854 1.0061429
-2.451009 -2.0461333 0.8078791 0.0017396477 -0.0029857263 -2.2701118 -1.5747526 2.3454568
-0.004114992 -0.5995022 0.0018634001 -3.285204e-05 -1.7156328 -0.5182701 -1.8204272 -2.1197386
-0.009200936 2.154824 -0.6401725 -2.7345736 -0.81858313 -0.0005147795 0.0048288326 -0.0077462574
-1.1690531 -1.9046413 -1.9519391 -1.5509411 -1.2597517 -0.006545279 0.011695501 -1.280459
