bipedal-walker/weights-simple/checkpoint_actor.pth (torch_old, 802654 bytes, 14 tensors)

fc1.weight f4 [600, 24]
-0.04494634 -0.049197115 -0.26677048 -0.11746296 0.012155361 0.08564877 0.054428354 0.1233253
0.22448708 0.090725906 -0.040646527 0.12169437 -0.20784332 0.041318294 -0.07878204 0.015098937
0.09093212 0.1369321 -0.12179118 -0.068730615 0.09903795 0.18134117 0.083347924 0.1548223
-0.1450793 -0.09352088 0.4581445 -0.050818037 -0.19687138 -0.0282451 -0.051315203 0.11661313
-0.14483406 0.016201034 -0.1688194 -0.17482501 -0.05962625 0.18585208 0.13523787 0.14768821
0.062996894 -0.04868956 0.09615089 -0.12709951 -0.085856326 -0.047074433 0.21752806 0.24747042
-0.16419141 -0.11363094 0.2996163 0.4547939 0.02288017 0.033260234 0.13655195 -0.0542688
0.02677858 -0.08997789 -0.20871915 -0.051486045 0.07633877 0.016352814 -0.20098485 -0.018958809
0.028012762 -0.11511858 -0.08643901 -0.042738322 0.03991134 0.14694324 -0.29791254 -0.0917305
0.05977558 0.34906808 0.17702685 0.27844432 0.0026067356 -0.11133437 0.0023512668 -0.19044593
-0.27272928 0.111464314 0.21277526 -0.19801863 0.040847033 -0.06341333 -0.029627303 -0.0900312
0.08280827 -0.11088648 0.09167474 0.12939203 0.17586254 0.107714854 -0.2653005 -0.11735915
0.2469359 0.38449067 -0.38678184 0.19119261 0.07088903 -0.012131812 -0.028274503 -0.001881464
0.09383694 0.23948449 -0.015989032 -0.009873958 -0.013334027 0.057541598 0.06616962 0.2632246
0.008733731 0.31033477 0.25396246 -0.06701507 0.048387248 0.08924607 0.21648104 0.07504578
0.0943523 0.07165886 0.008523186 0.3673652 -0.03283704 -0.0468474 -0.085803755 -0.079421215
-0.024399145 -0.34934014 -0.03647965 -0.06786468 -0.0034305365 0.024984116 0.29372695 0.09857077
0.09863758 0.045354668 0.07074539 0.13668431 0.17990336 0.14293963 0.5343524 0.31289348
-0.15259778 0.008030451 -0.056396484 -0.18218194 -0.050561003 -0.24229039 -0.24164653 -0.12468602
0.13402207 0.14063358 0.06628859 -0.11369801 0.018807795 -0.06522134 -0.26191396 -0.28838587
-0.23487562 -0.2299801 -0.37254888 -0.3636874 -0.2176447 -0.17600404 -0.0984252 0.5853551
-0.2726519 -0.0039999625 0.25085866 0.08184169 0.08283031 0.002521523 -0.31159252 0.030469485
0.043028172 0.08718597 -0.009414692 -0.100720696 0.0022655698 0.12391907 0.08000414 0.014251092
0.078485474 0.06810258 -0.048994187 -0.04345512 -0.1816646 0.028297607 0.2466089 0.27763847
-0.29177004 -0.67742944 -0.17539458 -0.099259324 -0.11040554 -0.044290308 -0.07715418 0.0037781172
-0.011323732 0.030095056 -0.0413806 -0.13213684 -0.005366865 0.015383532 -0.07863915 0.16598663
0.06299186 0.008148996 -0.024824625 -0.070593975 -0.0077913194 -0.08634045 -0.035589814 0.34454113
-0.11835571 -0.243151 0.27184692 -0.5229752 -0.066485874 0.14794485 -0.0455424 0.085210554
-0.109938696 0.12878248 -0.11424839 0.04134441 -0.051438604 0.019836182 0.024211256 0.19190846
0.05097098 0.21133855 0.15934762 -0.08827624 0.14679632 -0.10139108 -0.16542606 0.5562432
0.10239393 0.24136388 -0.27096802 0.07556799 0.03682801 -0.20841806 0.1328147 -0.07465746
0.18421827 -0.13269089 0.08849739 0.05642831 0.057669744 0.07438548 -0.152986 -0.10236542
00000000: a719 38bd ea82 49bd 2496 88be 6c90 f0bd
00000010: 4727 473c 9f68 af3d 44f0 5e3d fa91 fc3d
00000020: f1df 653e 81ce b93d f97c 26bd e63a f93d
00000030: e1d4 54be 5f3d 293d 7a58 a1bd 8861 773c
00000040: 9f3a ba3d ee37 0c3e a76d f9bd a3c2 8cbd
00000050: 69d4 ca3d 80b1 393e 51b2 aa3d bd89 1e3e
00000060: ab8f 14be e087 bfbd ea91 ea3e 9326 50bd
00000070: a798 49be 4562 e7bc e42f 52bd ddd2 ee3d
00000080: 614f 14be 08b8 843c fede 2cbe 5405 33be
00000090: a83a 74bd 0250 3e3e cc7b 0a3e 943b 173e
000000a0: 8404 813d b46e 47bd c2ea c43d 6026 02be
000000b0: 71d5 afbd 1fd1 40bd adbf 5e3e e368 7d3e
000000c0: cb21 28be 57b7 e8bd 4f67 993e bfda e83e
000000d0: 326f bb3c e23b 083d 46d4 0b3e f648 5ebd
000000e0: c15e db3c 5446 b8bd 79ba 55be 08e3 52bd
000000f0: 8057 9c3d 56f6 853c f9ce 4dbe 814f 9bbc
00000100: 057b e53c 4ac3 ebbd f006 b1bd 610e 2fbd
00000110: 137a 233d 4a78 163e fe87 98be 33dd bbbd
00000120: 3dd7 743d 0db9 b23e 8746 353e 4190 8e3e
00000130: c4d5 2a3b 4603 e4bd b617 1a3b 4204 43be
00000140: 2ca3 8bbe 6747 e43d c2e1 593e 65c5 4abe
00000150: 384f 273d d9de 81bd f5b4 f2bc 4762 b8bd
00000160: 6297 a93d 7318 e3bd f7bf bb3d 587f 043e
00000170: 4f15 343e 9b99 dc3d 78d5 87be fe59 f0bd
00000180: c4dc 7c3e f6db c43e 4508 c6be ffc7 433e
00000190: 452e 913d 82c4 46bc ee9f e7bc 759b f6ba
000001a0: 952d c03d 6c3b 753e 6efb 82bc 62c6 21bc
000001b0: f676 5abc bdb0 6b3d f083 873d 60c5 863e
000001c0: ec17 0f3c 33e4 9e3e 5e07 823e 323f 89bd
000001d0: b531 463d a5c6 b63d 35ad 5d3e 9ab1 993d
000001e0: c73b c13d e1c1 923d d5a4 0b3c 4b17 bc3e
000001f0: 2280 06bd 0fe3 3fbd e1b9 afbd 97a7 a2bd
00000200: b7e0 c7bc b6dc b2be af6b 15bd a3fc 8abd
00000210: dad2 60bb 7dab cc3c 6163 963e 79df c93d
00000220: 8002 ca3d d1c5 393d f6e2 903d f9f6 0b3e
00000230: 9638 383e c45e 123e 52cb 083f 9333 a03e
00000240: 9842 1cbe 2792 033c 0000 67bd e78d 3abe
00000250: 0e19 4fbd f91a 78be 3072 77be 625b ffbd
00000260: 153d 093e 4002 103e 50c2 873d 81da e8bd
00000270: ce12 9a3c c492 85bd 9619 86be 50a7 93be
00000280: 3c83 70be e77f 6bbe babe bebe 3c35 babe
00000290: 41de 5ebe 673a 34be 2793 c9bd d5d9 153f
000002a0: 0899 8bbe 1e12 83bb 8c70 803e 9e9c a73d
000002b0: f0a2 a93d 2340 253b 0e89 9fbe 249b f93c
000002c0: 4f3e 303d 8f8e b23d 1540 1abc a746 cebd
000002d0: f479 143b 48c9 fd3d 36d9 a33d 6a7d 693c
000002e0: febc a03d 5e79 8b3d 21ae 48bd fffd 31bd
000002f0: 4906 3abe 62d0 e73c 0b87 7c3e a126 8e3e
00000300: e262 95be 046c 2dbf a39a 33be 7948 cbbd
00000310: 4d1c e2bd c169 35bd 0303 9ebd 4a9a 773b
00000320: 2d87 39bc e889 f63c b47e 29bd e14e 07be
00000330: 87dc afbb 360b 7c3c 900d a1bd 66f8 293e
00000340: e001 813d 5e83 053c 035d cbbc 9393 90bd
00000350: 534e ffbb 43d3 b0bd a0c6 11bd b267 b03e
00000360: 7a64 f2bd 93fc 78be 852f 8b3e b4e1 05bf
00000370: bf29 88bd db7e 173e ab8a 3abd df82 ae3d
00000380: 8a27 e1bd 8edf 033e 0ffb e9bd c258 293d
00000390: 49b1 52bd 7d7f a23c af56 c63c a783 443e
000003a0: f2c6 503d 2269 583e 062c 233e 2cca b4bd
000003b0: c651 163e 20a6 cfbd 7365 29be f465 0e3f
000003c0: e9b3 d13d 1828 773e 52bc 8abe 64c3 9a3d
000003d0: f8d8 163d 8b6b 55be 9400 083e 03e6 98bd
000003e0: b7a3 3c3e 1fe0 07be 1f3e b53d 5f21 673d
000003f0: 1c37 6c3d 6a57 983d 5da8 1cbe f6a4 d1bd

fc1.bias f4 [600]
-0.00759812 -0.10466672 -0.12434591 -0.1816553 0.039166052 -0.032607365 -0.11668778 0.1859996
0.13194473 0.03813594 0.053417146 -0.026479084 0.13910523 -0.20163141 -0.12154158 0.13510744
0.16784824 -0.018620992 -0.06603733 0.11180612 0.14505488 -0.070877135 0.08870498 0.07974107
-0.015605088 -0.11209108 0.06454921 -0.03114632 0.054807864 -0.15785544 0.08186478 0.19639878
-0.09771038 0.14658454 0.09307967 -0.02838949 -0.12508272 0.1021695 -0.14826062 0.12833644
-0.1619367 -0.18171608 0.019608907 0.10196987 -0.18143967 0.053181577 -0.0027508286 -0.11918237
-0.047516957 0.15916522 -0.14226708 -0.08820615 0.042761166 -0.16393936 0.022815006 0.05576839
0.0654276 0.088182 0.17507997 0.013486189 0.19311889 -0.11598977 0.02409249 -0.13732044
-0.2036776 0.021908088 0.006267301 -0.13533494 -0.09466192 -0.15543783 0.039444048 0.11932154
-0.09656419 0.18276164 -0.1656177 -0.17074609 0.20160578 0.06048289 -0.108628504 -0.10055082
-0.01221838 -0.16150276 0.1013793 -0.07332265 0.18814036 0.12624663 0.15727499 -0.18718067
0.13429046 -0.12763901 -0.096927725 0.08242265 -0.17810805 -0.067401595 0.077456675 -0.0969572
0.18105109 0.11856988 -0.1359735 0.035953637 -0.21016856 0.107283615 -0.06558687 0.048249397
-0.088552155 0.1533121 0.007864151 -0.14587991 -0.19519386 -0.080970146 -0.034515668 -0.06992152
-0.038337626 -0.10827226 -0.004600031 0.09354203 -0.106958464 -0.043954037 -0.026676666 0.14257675
-0.016962621 -0.06698492 0.12119894 0.031830125 0.08508334 -0.09139953 -0.08026945 0.09974398
0.14161699 0.06542464 0.040415253 -0.010772679 -0.1679111 0.030752633 0.035624687 0.113576666
0.024075262 0.18911524 -0.031091364 0.12505576 -0.1806989 -0.031791277 -0.122313455 0.0044867974
-0.18043374 -0.101539634 0.16329639 0.08680311 0.15594426 0.084531836 0.13097385 -0.10320213
0.069170296 -0.19915588 -0.14654808 -0.19556345 0.12352654 0.04975109 -0.12593739 0.013419914
0.17925476 -0.11570219 -0.13924782 -0.15796728 -0.030053882 0.17615792 0.033836205 -0.004594357
-0.035077907 -0.06016015 -0.08743947 0.19195202 -0.092366084 -0.07331105 -0.06483733 0.17857334
-0.13239847 0.20325176 -0.012287205 -0.07964556 0.12146826 0.17848945 -0.069810785 0.11567855
-0.11506162 -0.070759185 0.13891307 0.13821842 -0.18743713 -0.13541971 -0.16305935 -0.023320902
-0.031629134 0.098439895 0.05119724 -0.15742886 -0.010594585 -0.1226384 0.020452356 0.085122585
-0.18711446 0.20794824 0.07229843 -0.20391592 -0.0940952 0.19546354 0.011112509 -0.16872638
-0.0987394 -0.17788497 0.060659688 -0.11742053 0.19258381 0.05708997 -0.13601534 0.15262343
-0.03456912 -0.14707017 -0.16103403 -0.09668428 0.10151923 0.039530497 -0.06598328 -0.07129736
-0.04672932 -0.13682555 0.1968809 -0.1828519 -0.02504933 0.035205256 -0.00035803104 -0.0068221022
-0.15210104 -0.0913631 -0.11544521 0.18227327 -0.07352544 -0.14655827 -0.14567065 -0.14944358
-0.037921056 -0.08776379 -0.15041022 -0.07566312 0.17299242 -0.1942155 -0.019543203 0.19813728
0.13258432 0.048289243 0.0888934 -0.075504944 -0.18958832 -0.13164645 -0.11721841 0.1498592
00000000: a6f9 f8bb 815b d6bd 12a9 febd d903 3abe
00000010: 956c 203d 4d8f 05bd 01fa eebd ae76 3e3e
00000020: 851c 073e 6e34 1c3d f0cb 5a3d aaea d8bc
00000030: 9a71 0e3e 7778 4ebe cbea f8bd 9b59 0a3e
00000040: 69e0 2b3e 0d8b 98bc 943e 87bd 9bfa e43d
00000050: 4489 143e 0828 91bd f5aa b53d 494f a33d
00000060: 7cac 7fbc 0290 e5bd 6032 843d 9126 ffbc
00000070: 367e 603d dba4 21be b9a8 a73d c31c 493e
00000080: 611c c8bd 421a 163e 8ea0 be3d 1391 e8bc
00000090: af15 00be 3e3e d13d a2d1 17be a16a 033e
000000a0: bcd2 25be c813 3abe dca2 a03c 94d5 d03d
000000b0: 52cb 39be edd4 593d 3f47 34bb e315 f4bd
000000c0: 24a1 42bd 35fc 223e 76ae 11be 6da5 b4bd
000000d0: 5526 2f3d b8df 27be 89e6 ba3c 656d 643d
000000e0: e8fe 853d c498 b43d 2a48 333e 2df5 5c3c
000000f0: f5c0 453e 0b8c edbd 9d5d c53c bb9d 0cbe
00000100: dc90 50be 9778 b33c ee5d cd3b 3e95 0abe
00000110: 1cde c1bd 182b 1fbe 1590 213d da5e f43d
00000120: 72c3 c5bd de25 3b3e b097 29be 10d8 2ebe
00000130: bf71 4e3e e8bc 773d 9f78 debd 97ed cdbd
00000140: 9a2f 48bc fb60 25be f39f cf3d 2f2a 96bd
00000150: dea7 403e cc46 013e b20c 213e 4aac 3fbe
00000160: 7083 093e cdb3 02be 0b82 c6bd 35cd a83d
00000170: f561 36be d909 8abd 9ba1 9e3d 7f91 c6bd
00000180: 7565 393e c4d4 f23d a33c 0bbe 1f44 133d
00000190: 6d36 57be 83b7 db3d 6952 86bd 29a1 453d
000001a0: d55a b5bd d9fd 1c3e a4d8 003c 8b61 15be
000001b0: e6e0 47be add3 a5bd 4d60 0dbd 0433 8fbd
000001c0: ea07 1dbd d9bd ddbd dbbb 96bb f792 bf3d
000001d0: 0a0d dbbd 2609 34bd 0689 dabc a4ff 113e
000001e0: 32f5 8abc 642f 89bd 2637 f83d 4e60 023d
000001f0: 2d40 ae3d ad2f bbbd 4f64 a4bd 9246 cc3d
00000200: 0b04 113e 5bfd 853d 778a 253d e47f 30bc
00000210: e3f0 2bbe f2ec fb3c 31eb 113d e29a e83d
00000220: 7c39 c53c 6da7 413e 51b3 febc 9e0e 003e
00000230: 2209 39be 9237 02bd 7a7f fabd fc05 933b
00000240: 9fc3 38be 03f4 cfbd 2b37 273e d4c5 b13d
00000250: daaf 1f3e 071f ad3d 021e 063e a35b d3bd
00000260: 28a9 8d3d 85ef 4bbe b310 16be c941 48be
00000270: 7cfb fc3d cdc7 4b3d bbf5 00be 33df 5b3c
00000280: 8f8e 373e 45f5 ecbd fb96 0ebe 2dc2 21be
00000290: 8f33 f6bc be62 343e d597 0a3d 438c 96bb
000002a0: daad 0fbd 7d6a 76bd 7713 b3bd 128f 443e
000002b0: 6e2a bdbd 1b24 96bd 6fc9 84bd eedb 363e
000002c0: 7793 07be 3b21 503e 4650 49bc 361d a3bd
000002d0: 5ac4 f83d f0c5 363e f5f8 8ebd e0e8 ec3d
000002e0: 6da5 ebbd 31ea 90bd 3a3f 0e3e 2189 0d3e
000002f0: 85ef 3fbe 77ab 0abe 08f9 26be 7a0b bfbc
00000300: 8d8d 01bd db9a c93d 32b4 513d 0835 21be
00000310: e994 2dbc d729 fbbd b38b a73c c054 ae3d
00000320: ef9a 3fbe 62f0 543e 3311 943d 56cf 50be
00000330: fcb4 c0bd 9827 483e 3e11 363c 9cc6 2cbe
00000340: e237 cabd 7a27 36be 4b76 783d 2d7a f0bd
00000350: b134 453e 2cd7 693d 9b47 0bbe 5149 1c3e
00000360: 5998 0dbd 9099 16be 1be6 24be 6802 c6bd
00000370: 50e9 cf3d bbea 213d 3e22 87bd 5a04 92bd
00000380: 3e67 3fbd ff1b 0cbe 269b 493e 873d 3bbe
00000390: 4134 cdbc 6333 103d 1db6 bbb9 f18b dfbb
000003a0: 60c0 1bbe 941c bbbd 8a6e ecbd d8a5 3a3e
000003b0: 8294 96bd 5f13 16be b02a 15be bd07 19be
000003c0: 1c53 1bbd 80bd b3bd 2305 1abe 44f5 9abd
000003d0: ed24 313e 6ee0 46be 1119 a0bc 80e4 4a3e
000003e0: 2fc4 073e f1ca 453d be0d b63d 56a2 9abd
000003f0: 7123 42be 54ce 06be 3510 f0bd b174 193e

fc2.weight f4 [300, 600]
-0.096535526 0.122884154 -0.020490123 0.040073007 -0.06948426 -0.06365128 -0.02039797 -0.12389463
-0.036354642 0.012053389 -0.0060711233 -0.0054612053 0.024920171 -0.02843464 -0.075217225 -0.14022775
0.0421501 0.11579203 -0.113898635 0.045393825 -0.023155913 -0.18283316 0.022456506 -0.05354289
-0.03321905 -0.026465122 -0.016779378 -0.049320824 -0.035120808 -0.08691877 -0.023771245 0.10971781
-0.07989801 -0.16672303 0.022235094 -0.026157442 0.025070185 0.10906724 0.04926692 0.033063136
0.11317546 0.09600429 -0.07065509 0.08078592 0.056161862 -0.098603174 0.034058385 0.061465655
0.1178687 -0.09324967 -0.16239667 0.121801816 -0.019162564 0.103267126 0.020269588 0.0018384991
-0.00015985484 0.018366935 -0.022341566 -0.01927636 -0.055376723 -0.089539796 -0.02366551 -0.08151897
-0.017739424 0.026610356 -0.073517404 -0.07674779 -0.03199156 0.002388003 0.037039567 0.079056345
-0.0054557724 0.0072567863 -0.018115416 0.073597215 0.042306103 0.010270324 -0.085427836 -0.053516693
-0.014582028 -0.042655203 -0.03647268 0.056462206 -0.08881849 0.011318387 0.13198234 0.030690001
0.005411182 -0.08101979 -0.0037139133 -0.0047365804 0.008934798 -0.027618254 -0.032967675 -0.0531711
-0.11406302 0.13028733 -0.06528368 -0.09931918 0.00237503 -0.010052535 -0.0029352335 -0.06475963
-0.09021418 -0.04976128 -0.16881572 -0.085677244 -0.0110029755 -0.0029700887 -0.019626662 0.028334685
-0.0023222775 0.061397307 -0.0632386 -0.0025162566 -0.08004899 0.08244235 0.06546352 0.029560601
-0.007433661 -0.028548306 0.039660923 -0.14984834 0.002023486 0.009876688 -0.015379096 -0.039883886
-0.024076281 -0.008510546 0.022126995 -0.056061156 -0.06360175 -0.016234087 0.034222536 -0.04696395
-0.1198664 -0.057092384 0.0045395824 -0.04460974 -0.01178114 -0.0412128 0.028800149 0.070329264
0.1270018 0.073672414 -0.15776394 -0.0769686 0.042923324 -0.078757636 -0.063367955 0.041947193
-0.022482 -0.06399826 0.022316437 -0.07396867 -0.0690849 -0.13819689 0.009427523 0.06428797
-0.00030187503 -0.03631678 -0.07827937 -0.021412287 -0.09052185 -0.019730872 0.023203954 -0.045611523
-0.08107407 0.017624991 -0.012966892 0.034299847 0.084404476 0.117185496 -0.065849505 -0.002826688
-0.0547186 -0.024881687 0.04615617 -0.056521624 0.005115317 0.119893745 0.08277162 0.06972244
-0.042906314 -0.0152865825 -0.054861043 -0.069545455 0.14621527 0.050121404 0.039661728 0.006492183
-0.022710888 -0.058444228 -0.06474381 -0.046028074 -0.09652368 0.06853491 -0.16530445 -0.042359933
-0.08842662 0.023245031 -0.101494625 0.029481402 0.1433484 -0.13141476 0.09150719 -0.04464874
-0.13692476 0.112822816 -0.09558754 0.041112628 -0.03737863 -0.026269667 -0.11730409 -0.09896789
-0.015171424 0.030858975 0.07903443 0.007006059 -0.0020288674 0.010129943 0.064328365 -0.01173373
0.025509845 -0.0022016112 -0.017342385 0.061377607 -0.10446305 -0.02134159 -0.07107673 0.030793447
0.009943057 -0.05533874 -0.020397246 0.048924472 -0.0575507 0.009784245 0.07786485 0.051465813
0.05482022 0.011763571 0.017333793 -0.13424297 -0.18149541 -0.017742908 -0.08456802 -0.0058666747
-0.07462929 0.02444589 0.012252677 -0.053011052 -0.109166496 0.0017758406 0.0032712438 0.12477683
00000000: 6bb4 c5bd b0aa fb3d e7da a7bc 9823 243d
00000010: c44d 8ebd 9a5b 82bd a519 a7bc 78bc fdbd
00000020: 9be8 14bd 947b 453c 46f0 c6bb e9f3 b2bb
00000030: 6325 cc3c c3ef e8bc 7d0b 9abd dd97 0fbe
00000040: 95a5 2c3d 5f24 ed3d b043 e9bd e0ee 393d
00000050: 78b1 bdbc 9e38 3bbe b5f6 b73c ca4f 5bbd
00000060: b310 08bd 62cd d8bc e874 89bc a204 4abd
00000070: d6da 0fbd 7802 b2bd eabb c2bc bbb3 e03d
00000080: 91a1 a3bd 71b9 2abe 5f26 b63c 2248 d6bc
00000090: fd5f cd3c a55e df3d 1ccc 493d 366d 073d
000000a0: 89c8 e73d e69d c43d 9eb3 90bd 1773 a53d
000000b0: fb09 663d 76f0 c9bd ce80 0b3d 69c3 7b3d
000000c0: 2565 f13d aff9 bebd 504b 26be 3b73 f93d
000000d0: cffa 9cbc b77d d33d 680c a63c cbf9 f03a
000000e0: b59e 27b9 4176 963c a905 b7bc 75e9 9dbc
000000f0: b4d2 62bd a460 b7bd 2cde c1bc 6bf3 a6bd
00000100: 4552 91bc f6fd d93c 4b90 96bd f22d 9dbd
00000110: 9509 03bd 0b80 1c3b cdb6 173d 4be8 a13d
00000120: 56c6 b2bb 56ca ed3b c866 94bc 23ba 963d
00000130: 2a49 2d3d dc44 283c caf4 aebd 5234 5bbd
00000140: 75e9 6ebc 39b7 2ebd 6064 15bd ea44 673d
00000150: 78e6 b5bd c270 393c 6126 073e 9969 fb3c
00000160: 4950 b13b b4ed a5bd 2065 73bb 5135 9bbb
00000170: 4263 123c ad3f e2bc 1d09 07bd f0c9 59bd
00000180: df99 e9bd 0b6a 053e 73b3 85bd db67 cbbd
00000190: 64a6 1b3b 63b3 24bc 0c5d 40bb b2a0 84bd
000001a0: 36c2 b8bd 7cd2 4bbd 07de 2cbe 8d77 afbd
000001b0: d345 34bc d2a5 42bb 18c8 a0bc 241e e83c
000001c0: 5a31 18bb be7b 7b3d 3d83 81bd c8e7 24bb
000001d0: baf0 a3bd 89d7 a83d bd11 863d 1329 f23c
000001e0: 1196 f3bb 23de e9bc 7e73 223d d871 19be
000001f0: 769c 043b d5d1 213c 9bf8 7bbc 495d 23bd
00000200: 9f3b c5bc d16f 0bbc ac43 b53c 62a0 65bd
00000210: a241 82bd 59fd 84bc ee2c 0c3d 455d 40bd
00000220: 847c f5bd b4d9 69bd c7c0 943b b4b8 36bd
00000230: af05 41bc c1ce 28bd 4aee eb3c ca08 903d
00000240: c30c 023e 90e1 963d df8c 21be b7a1 9dbd
00000250: 5ed0 2f3d af4b a1bd 0fc7 81bd d2d0 2b3d
00000260: 2c2c b8bc 8511 83bd f6d0 b63c e37c 97bd
00000270: 627c 8dbd 7c83 0dbe e675 1a3c 69a9 833d
00000280: fb44 9eb9 e7c0 14bd ef50 a0bd d268 afbc
00000290: 8563 b9bd a3a2 a1bc 3816 be3c 26d3 3abd
000002a0: 290a a6bd 4962 903c 1673 54bc ff7d 0c3d
000002b0: 41dc ac3d f3fe ef3d 1bdc 86bd f53f 39bb
000002c0: 9c20 60bd aed4 cbbc 410e 3d3d 3883 67bd
000002d0: 649e a73b da8a f53d 2b84 a93d a3ca 8e3d
000002e0: 88be 2fbd 9374 7abc f9b5 60bd d96d 8ebd
000002f0: 75b9 153e 1a4c 4d3d 5674 223d 61bc d43b
00000300: 2f0c babc 3763 6fbd 6798 84bd ef87 3cbd
00000310: 35ae c5bd 085c 8c3d 9245 29be 9c81 2dbd
00000320: 0419 b5bd 5d6c be3c 6adc cfbd fb82 f13c
00000330: ecc9 123e 9791 06be 1f68 bb3d 99e1 36bd
00000340: 0136 0cbe a60f e73d 66c3 c3bd b765 283d
00000350: 561a 19bd 7c33 d7bc 203d f0bd adaf cabd
00000360: 9091 78bc f6cb fc3c cedc a13d 1593 e53b
00000370: bff6 04bb 0ff8 253c 97be 833d d53e 40bc
00000380: 06fa d03c e848 10bb 9e11 8ebc 1667 7b3d
00000390: b9f0 d5bd 8fd4 aebc ad90 91bd 8a42 fc3c
000003a0: 34e8 223c e0aa 62bd 2018 a7bc 0765 483d
000003b0: 48ba 6bbd 194e 203c 9b77 9f3d d1cd 523d
000003c0: 2b8b 603d febb 403c 99ff 8d3c fd76 09be
000003d0: efd9 39be 9359 91bc 0032 adbd 3c3d c0bb
000003e0: 3ed7 98bd bf42 c83c 74bf 483c 1e22 59bd
000003f0: af92 dfbd 53c3 e83a 5d62 563b ff8a ff3d

fc2.bias f4 [300]
0.013900514 -0.017200846 0.037198953 -0.021602597 -0.038019672 0.004679648 0.04070179 0.003980771
-0.0033526868 -0.024631083 0.02092961 -0.0050375126 0.025873201 0.002461987 -0.006353797 0.004878204
0.031782027 -0.03954635 0.035150398 -0.033061523 -0.036098644 0.0121809095 -0.0027803942 0.035489596
-0.027433202 0.0051738257 -0.009149125 -0.035682242 -0.027304038 -0.022498028 0.034302637 0.015579781
-0.01391887 -0.031352896 0.030703107 -0.017440598 -0.0416236 -0.034365054 0.030728377 -0.009164671
-0.026287127 -0.0375206 -0.02584316 -0.0034072816 0.013939569 0.018367134 -0.0019305709 0.019228661
-0.023720935 0.01242803 -0.00238535 0.011004895 -0.0061724586 0.019701991 -0.017203921 -0.0021292644
-0.027966272 0.003947888 0.007492296 0.03604659 -0.015934436 0.01370283 0.025935955 0.027308606
-0.02085694 0.011620992 -0.0059994385 0.032801036 0.023865473 -0.0119334115 0.03213626 0.025566224
-0.037529 -0.030858736 -0.008472746 0.03681379 -0.018784719 -0.027674831 -0.03259987 -0.024047218
0.016696509 -0.001559132 -0.006667436 -0.017586166 -0.014571226 -0.013653878 -0.0036944163 -0.029218074
-0.038622566 -0.022101922 0.03404906 -0.04037471 0.0065356153 -0.054235272 0.021974588 -0.01592835
-0.0024217383 0.031101987 0.036230747 0.009620059 -0.007301383 -0.008882032 0.030857893 -0.038476504
-0.027580265 0.029146181 0.010891036 0.028561791 -0.037820246 0.02042144 -0.009180559 0.016470816
-0.032771397 -0.03255585 -0.018647527 0.0076309787 -0.006411004 -0.036896467 0.012553007 -0.018589133
-0.0370792 0.016120018 -0.027611872 0.00074416946 -0.036341332 -0.026363697 -0.01803234 -0.031793308
0.00015962897 -0.00046629825 0.009910328 -0.039359324 0.007955434 -0.02543258 -0.024802545 0.024067422
-0.022220045 -0.017449165 -0.00012158124 -0.03272829 0.0123211015 -0.03363304 0.039433442 -0.042776436
-0.021672409 0.031383898 -0.00030790077 -0.0119597735 0.007367838 0.0030790255 -0.030506171 0.00030017315
0.028156213 -0.011135913 0.01026656 -0.022043625 0.02243212 -0.020162323 -0.008165423 -0.0006312766
0.0075472267 -0.02326357 -0.03351018 0.018838707 0.022669403 0.021801056 0.00788407 0.030923234
0.015457167 -0.031405862 0.019166224 0.021480592 0.007874346 -0.01764685 0.002792032 0.025201581
0.03207078 -0.014817257 0.018080594 0.026645506 0.013229425 0.035257593 0.009290978 0.029120626
0.0060376567 0.0074930633 0.009916923 -0.033928413 0.01983872 0.002181901 -0.0053327633 -0.033011336
-0.034814607 -0.012252412 -0.013731562 -0.018495519 -0.0066411016 0.03923713 -0.027460456 -0.00013931422
0.02125518 0.0016493873 -0.02464422 -0.027739646 0.030960808 0.03707301 0.031596087 -0.034163605
-0.013277375 -0.037019666 -0.037638016 -0.015844494 0.0038757017 -0.018502051 -0.002120814 0.0027536605
0.030616676 0.035253093 0.011278496 -0.033069316 0.014283612 0.0005075877 0.032606713 -0.013873789
0.004141487 -0.036600836 -0.005862525 -0.019969786 -0.018353079 0.02583125 0.03416124 -0.0022871676
0.03267738 0.020599728 -0.013611288 -0.0042616585 -0.026792996 -0.0132184215 0.0006376635 0.019045802
0.008937833 -0.025656812 0.015279143 0.023910047 0.030134233 0.030975575 0.036484655 -0.0462166
0.041519947 -0.009481467 0.008165424 -0.037218217 0.016971149 -0.0042937617 -0.031758476 -0.039698057
00000000: fbbe 633c cae8 8cbc ee5d 183d eef7 b0bc
00000010: 84ba 1bbd bc57 993b ecb6 263d 2171 823b
00000020: c0b8 5bbb 20c7 c9bc 9374 ab3c b811 a5bb
00000030: 09f4 d33c 4a59 213b 8333 d0bb 57d9 9f3b
00000040: df2d 023d 5afb 21bd ddf9 0f3d 856b 07bd
00000050: 2cdc 13bd 7092 473c 4637 36bb 8a5d 113d
00000060: 98bb e0bc 3289 a93b 36e6 15bc 8b27 12bd
00000070: b8ac dfbc c94d b8bc ec80 0c3d 5642 7f3c
00000080: f90b 64bc e56b 00bd 1585 fb3c 96df 8ebc
00000090: 827d 2abd 5fc2 0cbd 14ba fb3c 6b27 16bc
000000a0: 1a58 d7bc 33af 19bd 09b5 d3bc b34c 5fbb
000000b0: ca62 643c ac76 963c 360b fdba 6d85 9d3c
000000c0: 6852 c2bc f09e 4b3c 8853 1cbb e04d 343c
000000d0: 5642 cabb 1266 a13c 3def 8cbc 218b 0bbb
000000e0: 8619 e5bc 495d 813b ef81 f53b 97a5 133d
000000f0: ef88 82bc d681 603c a477 d43c 4cb6 df3c
00000100: 2cdc aabc f965 3e3c f096 c4bb 615a 063d
00000110: 8681 c33c 5b84 43bc 50a1 033d 4270 d13c
00000120: 02b8 19bd 76cb fcbc 46d1 0abc 0fca 163d
00000130: 69e2 99bc 54b6 e2bc 7187 05bd acfe c4bc
00000140: 1ec7 883c ca5b ccba 827a dabb dd10 90bc
00000150: 27bc 6ebc 84b4 5fbc 051e 72bb be5a efbc
00000160: b232 1ebd 170f b5bc 0777 0b3d f45f 25bd
00000170: b728 d63b ce25 5ebd 0d04 b43c 2c7c 82bc
00000180: 07b6 1ebb 98c9 fe3c b166 143d 749d 1d3c
00000190: 7140 efbb f185 11bc b1c9 fc3c 8a99 1dbd
000001a0: 02f0 e1bc f9c3 ee3c 5170 323c 6bfa e93c
000001b0: 67e9 1abd dd4a a73c 0e6a 16bc ceed 863c
000001c0: 4d3b 06bd 4859 05bd b3c2 98bc 4a0d fa3b
000001d0: 6613 d2bb c020 17bd 21ab 4d3c 3d48 98bc
000001e0: 5ce0 17bd 210e 843c 4b32 e2bc 5e14 433a
000001f0: a6da 14bd aef8 d7bc 8fb8 93bc b339 02bd
00000200: 1362 2739 7e79 f4b9 ee5e 223c 3e37 21bd
00000210: 8257 023c fc57 d0bc b52e cbbc 0b29 c53c
00000220: d006 b6bc 8df1 8ebc 6ef9 feb8 190e 06bd
00000230: 72de 493c ccc2 09bd f684 213d 5836 2fbd
00000240: 568a b1bc 678c 003d be6d a1b9 edf2 43bc
00000250: e86d f13b 7ac9 493b 14e8 f9bc 8f60 9d39
00000260: dca7 e63c 6873 36bc 1335 283c d594 b4bc
00000270: 91c3 b73c 752b a5bc 44c8 05bc 417c 25ba
00000280: ba4e f73b 3e93 bebc f841 09bd a253 9a3c
00000290: 2fb5 b93c 2198 b23c 302c 013c b952 fd3c
000002a0: 0f40 7d3c 6fa3 00bd 7c02 9d3c 11f8 af3c
000002b0: 6703 013c 2090 90bc 86fa 363b 8c73 ce3c
000002c0: a65c 033d 15c4 72bc c11d 943c ad47 da3c
000002d0: 3bc0 583c 446a 103d 3039 183c 618e ee3c
000002e0: 89d7 c53b 5f88 f53b 977a 223c 85f8 0abd
000002f0: d084 a23c 39fe 0e3b 76be aebb e536 07bd
00000300: c399 0ebd 57be 48bc 58fa 60bc ea83 97bc
00000310: 999d d9bb 1db7 203d c0f4 e0bc e014 12b9
00000320: 581f ae3c 4130 d83a ade2 c9bc 413e e3bc
00000330: 85a1 fd3c ded9 173d e66a 013d 23ef 0bbd
00000340: 5989 59bc efa1 17bd 522a 1abd 50cc 81bc
00000350: 7cff 7d3b 9d91 97bc 5bfd 0abb c276 343b
00000360: d3cf fa3c 8c65 103d 71c9 383c b173 07bd
00000370: d005 6a3c a20f 053a 9e8e 053d e44e 63bc
00000380: 50b5 873b c2ea 15bd 6d1a c0bb ad97 a3bc
00000390: 3259 96bc 0f9c d33c a8ec 0b3d 4ee4 15bb
000003a0: b7d8 053d c3c0 a83c e101 5fbc 62a5 8bbb
000003b0: fc7c dbbc 1492 58bc e028 273a f105 9c3c
000003c0: fd6f 123c 3c2e d2bc 5f55 7a3c 01df c33c
000003d0: 11dc f63c 7dc0 fd3c ef70 153d 9e4d 3dbd
000003e0: d210 2a3d 2858 1bbc 45c8 053c 2172 18bd
000003f0: 1407 8b3c afb2 8cbb 2d15 02bd 6e9a 22bd

fc3.weight f4 [4, 300]
0.12613629 -0.20343627 0.027122485 -0.25765148 -0.09154038 0.44806564 0.37178144 0.28168187
0.026582487 0.086303264 0.046628542 0.24773322 -0.03440913 -0.18037088 -0.081774764 -0.026338555
-0.0923407 0.4665902 0.36218718 0.06679939 -0.20975548 -0.12262935 -0.108637474 -0.0072442144
0.2349952 0.36186823 -0.045646295 0.12619635 0.09053336 -0.016999615 0.46152228 0.1131496
-0.06915882 0.37400588 0.07910542 -0.02681095 -0.71517265 -0.058298804 0.017234745 0.031455122
0.6004869 -0.24523138 -0.34203142 0.11103645 0.13253245 -0.04618156 0.0024911044 0.24129783
0.22674148 -0.102724925 -0.017946325 0.28913668 -0.037853703 0.031300493 -0.391151 -0.14153677
0.050395712 -0.1342129 -0.073621504 -0.20726337 -0.0907141 -0.4224314 -0.06702532 -0.52804714
-0.1577358 0.028087074 -0.096363895 0.27661735 -0.30420598 -0.02490229 0.17971888 0.087706454
0.06429079 -0.05501929 0.08217258 0.060748994 -0.003778399 0.05751525 0.088967904 -0.117171
0.79354924 0.08083889 -0.043749616 -0.0804583 0.32832834 0.20548217 -0.11493585 0.42008734
-0.6264588 0.08860176 0.009354506 0.09962181 0.10664237 1.5986806 -0.07248135 -0.08892473
-0.10886712 0.37819916 -0.10861663 0.1731908 -0.041755356 0.07943592 -0.31669754 0.14789876
0.2686977 -0.04241713 -0.11359289 0.11957824 -0.38836786 -0.104623914 -0.26033863 -0.93977445
0.28090087 -0.253088 0.12390369 -0.08422363 0.29353485 -0.60470915 0.36126128 0.023197033
-0.3430805 0.082660116 0.061940715 -0.05827912 -0.3194054 0.3143111 0.2570811 0.13876267
0.04356624 0.020402344 0.11466905 0.1118663 0.013875602 -0.33085737 -0.9227425 -0.13859046
0.26403174 0.015390613 0.03459797 0.099039406 -0.22008234 -0.0798792 0.21054757 0.23137417
0.039550718 0.88636684 0.1918106 0.15178032 -0.28499135 0.1270552 0.36520535 -0.21499358
0.11963923 -0.41124773 -0.1910634 0.14714094 0.023614919 0.15931349 -0.010457735 0.24616508
-0.04053828 -0.23159364 -0.054607257 -0.77468127 -0.28853083 0.16619222 0.10873771 0.10339291
-0.37153232 0.08572037 0.16969737 0.052691016 -0.31393662 -0.3545419 -0.06755928 -0.40401074
-0.030654589 0.34189346 -0.11953588 -0.25553322 -0.08209088 0.11248407 -0.010942806 -0.61099076
-0.077597864 -0.50529313 -0.030586058 -0.2947507 0.21645151 0.11400305 -0.16152747 0.017292285
-0.5883198 0.296711 1.0793924 0.12212063 0.13224058 -0.17537634 -0.18201782 -0.18357456
0.0047408473 -0.11745045 -0.025185326 0.63005966 0.34597412 0.10125341 -0.042811338 0.5565285
0.44254547 -0.02054047 -0.2505259 0.00037379615 -0.24769816 0.08988077 -0.7346011 0.13891274
-0.058842108 -0.050034128 0.23305495 0.06960068 0.13718984 -0.17274648 0.4206852 0.20564601
0.4493826 0.0418841 0.31117508 -0.3091608 0.04775003 0.1327516 -0.3946449 -0.48844275
0.2551675 -0.18491198 0.46920785 0.09568099 -0.23411739 -0.13238868 -0.05171853 -0.12367866
0.5841483 -0.22089304 0.045118667 0.5260521 -0.020070504 -0.057839323 0.22381401 -0.29960862
0.27714288 0.08334236 -0.22439383 0.5094438 -0.023146115 0.20595385 0.16550095 -0.2079899
00000000: df29 013e 9951 50be f92f de3c e5ea 83be
00000010: 8679 bbbd dc68 e53e 235a be3e 9b38 903e
00000020: 84c3 d93c c4bf b03d 92fd 3e3d c7ad 7d3e
00000030: 97f0 0cbd 25b3 38be 8779 a7bd f4c3 d7bc
00000040: 1f1d bdbd e9e4 ee3e 9970 b93e 1ece 883d
00000050: 24ca 56be 1925 fbbd 537d debd e060 edbb
00000060: 95a2 703e cb46 b93e 9cf7 3abd 9e39 013e
00000070: 8e69 b93d c742 8bbc a64c ec3e faba e73d
00000080: 24a3 8dbd b37d bf3e 0602 a23d a3a2 dbbc
00000090: 8e15 37bf baca 6ebd e12f 8d3c 16d7 003d
000000a0: 82b9 193f ef1d 7bbe be1e afbe 1467 e33d
000000b0: 96b6 073e e028 3dbd cc41 233b c716 773e
000000c0: eb2e 683e 7261 d2bd 2c04 93bc b909 943e
000000d0: 7c0c 1bbd f234 003d f244 c8be 04ef 10be
000000e0: bc6b 4e3d 1b6f 09be dfc6 96bd d93c 54be
000000f0: 50c8 b9bd ee48 d8be 9244 89bd 192e 07bf
00000100: 7e85 21be dd16 e63c 6f5a c5bd caa0 8d3e
00000110: e3c0 9bbe e3ff cbbc 3a08 383e 719f b33d
00000120: e4aa 833d e85b 61bd 194a a83d f0d3 783d
00000130: 049f 77bb 1c95 6b3d ce34 b63d 59f7 efbd
00000140: 0b26 4b3f dc8e a53d cc32 33bd 52c7 a4bd
00000150: a71a a83e eb69 523e 7d63 ebbd b015 d73e
00000160: 9b5f 20bf d774 b53d a443 193c 8506 cc3d
00000170: 5167 da3d 91a1 cc3f 1a71 94bd 2b1e b6bd
00000180: baf5 debd 52a3 c13e 6572 debd ee58 313e
00000190: aa07 2bbd 4daf a23d 2e26 a2be c672 173e
000001a0: bf92 893e 96bd 2dbd 64a3 e8bd 70e5 f43d
000001b0: 27d8 c6be 1045 d6bd 1b4b 85be 0f95 70bf
000001c0: 3dd2 8f3e c094 81be 38c1 fd3d 707d acbd
000001d0: 334a 963e 38ce 1abf 3df7 b83e b407 be3c
000001e0: 3fa8 afbe b549 a93d 8cb5 7d3d 16b6 6ebd
000001f0: 1b89 a3be 62ed a03e 22a0 833e cd17 0e3e
00000200: 8472 323d d122 a73c 9bd7 ea3d 291a e53d
00000210: 7e56 633c 2366 a9be da38 6cbf a8ea 0dbe
00000220: 2b2f 873e e928 7c3c 9ab6 0d3d 2cd5 ca3d
00000230: 445d 61be b597 a3bd c899 573e 5aed 6c3e
00000240: efff 213d f0e8 623f ff69 443e 4d6c 1b3e
00000250: 63ea 91be c21a 023e 32fc ba3e 4727 5cbe
00000260: 6a05 f53d 108f d2be 20a6 43be 1dac 163e
00000270: 1374 c13c 1323 233e eb56 2bbc b312 7c3e
00000280: 780b 26bd e226 6dbe dcab 5fbd 8351 46bf
00000290: 50ba 93be 4b2e 2a3e e0b1 de3d a9bf d33d
000002a0: 7c39 bebe 298e af3d 26c5 2d3e 89d2 573d
000002b0: 4dbc a0be 8486 b5be 855c 8abd 7fda cebe
000002c0: 551f fbbc a90c af3e 3acf f4bd 40d5 82be
000002d0: 431f a8bd 0c5e e63d 7449 33bc e469 1cbf
000002e0: a1eb 9ebd e45a 01bf 9d8f fabc 90e9 96be
000002f0: 77a5 5d3e 6e7a e93d 7567 25be 8da8 8d3c
00000300: 209c 16bf 81ea 973e 8829 8a3f 621a fa3d
00000310: 136a 073e db95 33be e162 3abe f8fa 3bbe
00000320: 1c59 9b3b dd89 f0bd 7551 cebc 974b 213f
00000330: 8523 b13e f35d cf3d f15a 2fbd a778 0e3f
00000340: 5295 e23e 7d44 a8bc ee44 80be 12fa c339
00000350: 96a4 7dbe 6913 b83d d10e 3cbf 243f 0e3e
00000360: 6c04 71bd 96f0 4cbd f5a5 6e3e cd8a 8e3d
00000370: 7e7b 0c3e 74e4 30be 0d64 d73e de94 523e
00000380: 7a15 e63e a98e 2b3d 5752 9f3e 534a 9ebe
00000390: 8995 433d 09f0 073e e50e cabe 2b15 fabe
000003a0: 51a5 823e 9159 3dbe 033c f03e 65f4 c33d
000003b0: 78bc 6fbe e690 07be cfd6 53bd 3d4b fdbd
000003c0: be8a 153f c931 62be 5ace 383d 5aab 063f
000003d0: e66a a4bc ede8 6cbd 802f 653e 4d66 99be
000003e0: ace5 8d3e 66af aa3d 7fc7 65be e96a 023f
000003f0: ec9c bdbc 91e5 523e 1579 293e 4efb 54be

fc3.bias f4 [4]
-0.03671947 0.009675777 0.011564174 0.052191358
00000000: 2867 16bd 2687 1e3c a977 3d3c 9bc6 553d

bn1.weight f4 [600]
0.18125674 0.48096156 0.10069262 0.14350668 0.4759174 0.5755433 0.6904959 0.30628222
0.41471115 0.7393411 0.2644981 0.23194182 0.68255293 0.60931414 0.47546947 0.93932706
0.8751185 0.17954662 0.6492585 0.53437763 0.51520956 0.294194 0.33243895 0.7050878
0.5247087 0.6081381 0.9653993 0.4271168 0.18856815 0.85613984 0.393247 0.6326526
0.16867152 0.35600388 0.43396318 0.5637538 0.0916008 0.24803913 0.5281937 0.44691062
0.6708077 0.6630471 0.5658733 0.4647517 0.44436154 0.17315874 0.24763562 0.18271424
0.48958647 0.4368865 0.11719432 0.5577332 0.6250311 0.11406052 0.07629875 0.4304272
0.0016141236 0.69457114 1.0966884 0.19985661 0.6022975 0.3416843 0.23472978 0.600954
0.64197433 0.65146697 1.0967835 0.9605635 0.27244672 0.5708735 0.8391577 0.656138
0.06987102 0.84892046 0.6974294 1.0294019 0.40207624 0.9555237 0.17997494 0.45927906
0.19504355 0.5795786 0.51612204 0.8672907 0.52370477 0.5086493 0.22057848 0.8092684
0.3272143 0.16366442 0.31377423 0.61664826 0.46495998 0.11278285 0.7255531 0.67254895
0.40407914 0.40258515 0.6721385 0.20735508 0.71671563 0.49006665 0.6105941 0.25280333
0.5526218 0.17199223 0.44606578 0.8263733 0.08539359 0.5189598 0.5170772 0.52664334
0.615619 0.67591894 0.19709933 0.06204111 0.8078438 0.45932674 0.48323536 0.12629925
0.35940266 0.07764347 0.22805451 0.5665285 0.43259552 0.6648562 0.42206246 0.1414106
1.0601511 0.0711662 0.32650593 0.38478386 0.40018153 0.6541852 0.71948516 0.373616
0.32238635 0.89549124 0.67080337 0.2932162 0.33240095 0.32945397 0.34635633 0.5321842
0.50443083 0.13145313 0.31075102 0.17626561 0.6764198 0.12059523 0.4333255 0.14913598
0.26464424 0.6615731 0.28105748 0.17986001 0.5975923 0.76732445 0.22000961 0.20428532
0.06468963 0.20840998 0.5460656 0.3568583 0.28146353 0.39115012 0.75254464 0.8084877
0.23623982 0.20515545 0.7440705 0.27359766 0.50335044 0.74825233 0.5151473 -0.0012710264
0.8655228 0.318766 0.61708176 0.6460846 0.58744127 0.54463476 0.18829663 0.17979085
0.5764431 0.98989195 0.16183247 0.8906755 0.83510804 0.15244558 0.8291979 0.32094038
0.7219408 0.9406301 0.80577993 0.73021346 0.4868562 0.70613575 0.6182531 0.42926678
0.6221936 0.18051738 0.9904521 0.7606457 0.13109258 0.47322062 0.36026025 0.42658198
0.35219574 0.4212215 0.47460458 0.21959697 0.18428926 0.25208062 0.68016607 0.5406449
0.5810081 0.5931584 0.24146472 0.17786692 0.4793852 0.76916736 0.56414473 0.24766135
0.4184691 0.7805198 0.4689525 0.5381505 0.24965857 0.68122464 0.79928076 0.6591728
0.6232362 0.28558615 0.12736303 0.5400594 0.41143006 -0.0004538933 0.46577933 0.51683146
0.581112 0.37179452 0.56642675 0.766867 0.39577052 0.204169 0.404948 0.4148609
0.6257488 0.12626387 0.58768165 0.68676186 0.2787416 0.75882566 0.6525278 0.30047193
00000000: 5e9b 393e 9840 f63e ef37 ce3d 6af3 123e
00000010: 72ab f33e ce56 133f 57c4 303f 06d1 9c3e
00000020: 0555 d43e 7545 3d3f 4c6c 873e 2882 6d3e
00000030: cabb 2e3f 03fc 1b3f bc70 f33e bd77 703f
00000040: c407 603f 12db 373e ce35 263f f9cc 083f
00000050: c6e4 033f 99a0 963e 7035 aa3e a280 343f
00000060: 4f53 063f f0ae 1b3f 6924 773f 0eaf da3e
00000070: 0218 413e fb2b 5b3f ac57 c93e 85f5 213f
00000080: 3ab8 2c3e 2446 b63e 6c30 de3e 2b52 103f
00000090: 3399 bb3d f8fd 7d3e b437 073f 78d1 e43e
000000a0: 0eba 2b3f 74bd 293f 13dd 103f eff3 ed3e
000000b0: 5b83 e33e 8650 313e 3194 7d3e 7119 3b3e
000000c0: 14ab fa3e 96af df3e 9303 f03d 9ac7 0e3f
000000d0: 0a02 203f 9098 e93d 8542 9c3d f460 dc3e
000000e0: 0091 d33a 6acf 313f 4960 8c3f 36a7 4c3e
000000f0: 2b30 1a3f 3ff1 ae3e 015d 703e 1fd8 193f
00000100: 6e58 243f 8ac6 263f 6763 8c3f 7de7 753f
00000110: 237e 8b3e c424 123f 0ad3 563f a9f8 273f
00000120: 8a18 8f3d da52 593f bc8a 323f 71c3 833f
00000130: f0dc cd3e 349d 743f 5a4b 383e a026 eb3e
00000140: 7fb9 473e 435f 143f 9320 043f c306 5e3f
00000150: 8411 063f d736 023f 53df 613e 372c 4f3f
00000160: a288 a73e a597 273e 04a7 a03e a9dc 1d3f
00000170: 3c0f ee3e b2fa e63d d9bd 393f 2b2c 2c3f
00000180: 76e3 ce3e a41f ce3e 4511 2c3f e454 543e
00000190: ad7a 373f 04ea fa3e e54f 1c3f 706f 813e
000001a0: 9f78 0d3f bb1e 303e bc62 e43e 338d 533f
000001b0: d6e2 ae3d 8dda 043f 2c5f 043f 19d2 063f
000001c0: 3599 1d3f 0609 2d3f 68d4 493e d21e 7e3d
000001d0: dace 4e3f e02c eb3e a06a f73e 9754 013e
000001e0: a003 b83e 8a03 9f3d 1f87 693e 0308 113f
000001f0: 297d dd3e 0434 2a3f 9218 d83e f1cd 103e
00000200: 08b3 873f 96bf 913d c92b a73e 6402 c53e
00000210: 98e4 cc3e ae78 273f 2e30 383f 994a bf3e
00000220: d30f a53e ea3e 653f c5b9 2b3f 6f20 963e
00000230: 7530 aa3e 31ae a83e 9e55 b13e 393d 083f
00000240: 6122 013f a69b 063e c21a 9f3e f97e 343e
00000250: d929 2d3f a2fa f63d d7dc dd3e 1ab7 183e
00000260: 737f 873e db5c 293f c4e6 8f3e 392d 383e
00000270: cffb 183f 606f 443f 334a 613e 2c30 513e
00000280: ff7b 843d 6d69 553e f5ca 0b3f 22b6 b63e
00000290: fd1b 903e d444 c83e c4a6 403f 0df9 4e3f
000002a0: dae8 713e 4514 523e 677b 3e3f fe14 8c3e
000002b0: 93db 003f 778d 3f3f b2e0 033f 9298 a6ba
000002c0: e792 5d3f 4c35 a33e 12f9 1d3f cd65 253f
000002d0: 8d62 163f 2f6d 0b3f d5d0 403e 181b 383e
000002e0: c691 133f 8f69 7d3f 69b7 253e 4f03 643f
000002f0: a4c9 553f b21a 1c3e 5046 543f 4c52 a43e
00000300: 1dd1 383f 22cd 703f 9847 4e3f 45ef 3a3f
00000310: 3745 f93e 50c5 343f d645 1e3f dbc8 db3e
00000320: 1448 1f3f 8cd9 383e 458e 7d3f adb9 423f
00000330: 223d 063e f949 f23e 0874 b83e f468 da3e
00000340: 0053 b43e 58aa d73e 5fff f23e 07de 603e
00000350: 53b6 3c3e b610 813e 5d1f 2e3f b467 0a3f
00000360: f2bc 143f 3bd9 173f 8742 773e bf22 363e
00000370: fa71 f53e 27e8 443f ca6b 103f f09a 7d3e
00000380: 9541 d63e 25d0 473f 8b1a f03e 3bc4 093f
00000390: 7fa6 7f3e bd64 2e3f aa9d 4c3f 8cbf 283f
000003a0: 688c 1f3f 5938 923e 746b 023e 5541 0a3f
000003b0: f6a6 d23e 87f8 edb9 a17a ee3e 114f 043f
000003c0: c2c3 143f da5b be3e 5801 113f 6551 443f
000003d0: 6fa2 ca3e ae11 513e 5855 cf3e a668 d43e
000003e0: 1331 203f 514b 013e 4e72 163f a0cf 2f3f
000003f0: 38b7 8e3e 6642 423f 100c 273f 75d7 993e

bn1.bias f4 [600]
-0.0811628 -0.29853126 -0.10605054 -0.13786301 -0.34398144 0.17138352 -0.18881114 -0.23961066
-0.27085105 -0.2159308 -0.15777059 -0.0628059 -0.09194094 -0.34069994 0.037922673 -0.21114388
0.14754185 -0.09711211 -0.06109432 -0.4532274 -0.3389885 -0.07894862 -0.19838238 -0.3605909
-0.07861779 -0.038405832 -0.1829619 -0.16873169 0.22220652 -0.23311822 -0.14588714 -0.032044455
-0.13070771 -0.34233716 -0.20499957 -0.1870571 -0.07102369 -0.21360147 -0.11204301 -0.15077549
-0.15274379 -0.291774 -0.36859846 -0.34384125 -0.18950936 -0.09865747 -0.10895965 -0.10933744
-0.029283788 -0.22507553 -0.09155469 -0.44737452 0.08890206 -0.08899556 -0.024964027 -0.35586375
-0.010180947 -0.344884 0.13176371 -0.14561667 -0.15274121 -0.11529646 0.12786633 -0.20513056
-0.45224366 -0.25484988 0.32010755 -0.2826464 -0.112832904 -0.34040728 -0.18886915 -0.017375847
-0.12505344 -0.24270397 -0.15908134 -0.19367565 -0.26777145 0.06301365 -0.13290477 -0.17604987
-0.17779873 -0.17814867 -0.30437988 -0.27101642 -0.2957644 -0.15783957 -0.14385328 -0.18032993
-0.30397403 -0.06946979 -0.16079132 -0.3133509 -0.3347041 -0.08479675 0.17397408 -0.28416193
-0.23378377 -0.32795954 -0.17527524 -0.12910213 -0.009323215 -0.45033813 -0.32099566 -0.15181962
-0.24599393 -0.1987633 -0.17139965 -0.25308585 0.02767268 0.16725901 -0.21815223 -0.16901623
0.06643471 -0.19899093 -0.12490064 0.03269451 -0.15309303 -0.21292086 -0.12488222 -0.08657622
-0.16619326 -0.06526261 -0.08518224 -0.21012777 -0.09148075 0.13963225 -0.14792676 -0.1511368
-0.019506287 -0.10227584 -0.09478903 -0.10197966 -0.33221534 -0.20564839 -0.29362717 -0.2774137
-0.2220003 -0.24137023 -0.24964073 -0.1638922 -0.09126306 -0.15477899 -0.13862713 -0.29993904
-0.21176505 -0.07449028 -0.2527005 0.022497445 -0.26013234 -0.13644283 -0.24370565 0.02708566
-0.06900407 -0.23427744 -0.1293639 -0.15700449 -0.38033104 -0.30956727 -0.0234532 -0.052763175
-0.038739745 -0.17804538 -0.24854784 -0.11025509 -0.043153927 -0.23600866 -0.2755077 -0.18346474
-0.1667322 -0.1366872 -0.0741533 -0.035913758 -0.20307118 -0.27314416 -0.15754353 -0.010759483
-0.03768056 -0.26178834 -0.23489298 -0.09057436 -0.0273947 -0.2549188 -0.06119592 -0.15710016
-0.16577978 0.23295847 -0.18739922 -0.08270531 -0.20421311 -0.19413234 -0.037178658 -0.08469088
0.3681705 -0.2181933 -0.1406486 -0.21935642 -0.23332492 -0.26296166 -0.18325774 -0.30206198
-0.2387883 0.012956578 -0.31348702 -0.09611133 -0.09171421 -0.32530707 -0.24008006 -0.20995088
-0.22676685 -0.15901133 -0.123957925 -0.14129253 -0.11565746 -0.06845634 -0.2710614 -0.17588931
0.13802935 -0.4070332 -0.13274221 -0.17957696 -0.28910193 -0.19786356 -0.48159346 -0.054992817
-0.1200421 -0.26850045 -0.092827454 -0.041410502 -0.19791564 -0.21307635 -0.19257799 -0.18398666
0.24723344 -0.14724828 -0.09205818 -0.18955825 -0.2116404 -0.0035898432 -0.30864996 -0.22688788
-0.14398658 -0.36050117 -0.3002944 -0.14545844 -0.17540932 -0.19899808 -0.009594692 -0.11141844
0.21012928 -0.14862427 -0.4302565 -0.25029263 -0.2665505 -0.23259144 -0.070340335 0.08177162
00000000: af38 a6bd 17d9 98be 0731 d9bd f62b 0dbe
00000010: 561e b0be 297f 2f3e b557 41be 7f5c 75be
00000020: fdac 8abe f71c 5dbe 9d8e 21be 61a0 80bd
00000030: 884b bcbd 3970 aebe ce54 1b3d 1a36 58be
00000040: 3615 173e b7e2 c6bd 0a3e 7abd 6c0d e8be
00000050: e78f adbe d0af a1bd c024 4bbe 5f9f b8be
00000060: 5d02 a1bd 6f4f 1dbd 5d5a 3bbe 00c8 2cbe
00000070: 1b8a 633e 8bb6 6ebe 7063 15be 0c41 03bd
00000080: 3ed8 05be d146 afbe 68eb 51be e58b 3fbe
00000090: de74 91bd 58ba 5abe ce76 e5bd e464 1abe
000000a0: de68 1cbe 6763 95be f0b8 bcbe f60b b0be
000000b0: be0e 42be ed0c cabd 3d26 dfbd 4fec dfbd
000000c0: 8ee4 efbc 337a 66be 0681 bbbd 460e e5be
000000d0: 4912 b63d 4e43 b6bd 5c81 ccbc c633 b6be
000000e0: fdcd 26bc a394 b0be 11ed 063e 891c 15be
000000f0: 3168 1cbe 8d20 ecbd 64ef 023e bf0d 52be
00000100: 7b8c e7be af7b 82be 23e5 a33e 07b7 90be
00000110: f014 e7bd dd49 aebe ea66 41be cb57 8ebc
00000120: 020e 00be 6487 78be 38e6 22be e952 46be
00000130: 5719 89be 4d0d 813d 3018 08be 6b46 34be
00000140: df10 36be 9b6c 36be aed7 9bbe aac2 8abe
00000150: 6e6e 97be b2a0 21be 464e 13be 69a8 38be
00000160: 7ca2 9bbe 2d46 8ebd 7ba6 24be 876f a0be
00000170: 565e abbe eba9 adbd 4326 323e ac7d 91be
00000180: 0365 6fbe 50ea a7be 5a7b 33be 5933 04be
00000190: 66c0 18bc b892 e6be 8b59 a4be 9a76 1bbe
000001a0: d5e5 7bbe 9b88 4bbe 6483 2fbe 7894 81be
000001b0: d1b1 e23c f245 2b3e 4c63 5fbe 9712 2dbe
000001c0: ec0e 883d 47c4 4bbe e8cb ffbd aeea 053d
000001d0: 6bc4 1cbe ed07 5abe 40c2 ffbd e04e b1bd
000001e0: 912e 2abe 67a8 85bd 0774 aebd bc2b 57be
000001f0: 425a bbbd c2fb 0e3e 1d7a 17be 9bc3 1abe
00000200: a6cb 9fbc ff75 d1bd c020 c2bd b6da d0bd
00000210: 2118 aabe 7e95 52be 4d56 96be 2b09 8ebe
00000220: 0c54 63be c229 77be d2a1 7fbe 5bd3 27be
00000230: 21e8 babd 627e 1ebe 45f4 0dbe 9c91 99be
00000240: f0d8 58be 5c8e 98bd f661 81be 904c b83c
00000250: 1130 85be abb7 0bbe f98d 79be bfe2 dd3c
00000260: 0152 8dbd 6de6 6fbe f877 04be c9c5 20be
00000270: c0ba c2be 9a7f 9ebe ed20 c0bc 331e 58bd
00000280: 91ad 1ebd 8751 36be 5383 7ebe 6ccd e1bd
00000290: 2cc2 30bd 41ac 71be 580f 8dbe 2ede 3bbe
000002a0: d9bb 2abe bbf7 0bbe afdd 97bd 4e1a 13bd
000002b0: e4f1 4fbe 8dd9 8bbe 1753 21be 8b48 30bc
000002c0: ee56 1abd 1f09 86be c987 70be 0d7f b9bd
000002d0: da6a e0bc b884 82be 93a8 7abd ddde 20be
000002e0: 2dc2 29be aa8c 6e3e 95e5 3fbe 6761 a9bd
000002f0: 3e1d 51be a1ca 46be a648 18bd 6972 adbd
00000300: d880 bc3e 106e 5fbe 3006 10be f89e 60be
00000310: baec 6ebe e9a2 86be eba7 3bbe dea7 9abe
00000320: ec84 74be d447 543c 5f81 a0be 04d6 c4bd
00000330: a9d4 bbbd a68e a6be 8cd7 75be 5dfd 56be
00000340: 9235 68be ded3 22be a7dd fdbd fdae 10be
00000350: d2dd ecbd d632 8cbd 8fc8 8abe 541c 34be
00000360: 9157 0d3e a866 d0be 93ed 07be 06e3 37be
00000370: 2b05 94be bf9c 4abe 6b93 f6be 2640 61bd
00000380: a2d8 f5bd e478 89be 521c bebd 0f9e 29bd
00000390: 66aa 4abe b030 5abe 2a33 45be 0067 3cbe
000003a0: c32a 7d3e 41c8 16be 0089 bcbd 8f1b 42be
000003b0: 43b8 58be 9343 6bbb 5e07 9ebe 4c55 68be
000003c0: 3871 13be 9c93 b8be 30c0 99be 0ff3 14be
000003d0: 809e 33be 27c6 4bbe 0e33 1dbc 5a2f e4bd
000003e0: 212c 573e f630 18be 944a dcbe 5b26 80be
000003f0: 4f79 88be 732c 6ebe 980e 90bd e177 a73d

bn1.running_mean f4 [600]
0.51988107 0.21274583 -0.48145825 -0.6184126 0.6678211 1.3771647 -0.7342526 0.76451695
0.22832409 0.65373033 0.35295 0.49559957 -0.18733995 0.088702016 -0.055114284 0.9183045
0.38470292 0.15179579 0.84760994 -0.33416182 0.566402 0.23770653 0.17575702 0.9907376
0.5808792 -0.29976496 0.38898358 0.23283152 0.54747015 0.83694583 0.12305642 0.57978123
0.42829993 1.2087716 -0.064480655 0.23116751 -0.48936972 -0.022855666 1.619317 0.7351925
0.35982904 -0.6502722 -0.6766418 0.10533124 0.2546559 0.51836014 -1.196363 -0.8676781
-0.266568 -0.13747278 -0.74437463 -1.7677164 1.4216114 -0.7479479 0.16944066 0.73368657
0.4927358 0.65468454 -0.07673811 -0.03447422 0.22767936 0.8881066 0.6139687 -0.1258028
-0.33327767 -0.02675419 -0.35538033 0.72965753 0.5294145 -0.099552944 0.29976568 1.2440671
0.65009815 1.0668582 0.69718504 -0.7105638 -0.1547041 0.96515405 0.10312587 1.180361
-0.3394764 0.067684695 0.30405518 0.46522188 0.55110687 0.7059169 0.43264052 0.66580033
0.33497572 -0.7357182 -0.24548392 0.39877284 -0.6501255 -0.5489875 0.455394 0.09964984
0.92162573 0.66630334 0.24430838 -0.19216312 -0.6878792 -0.49086452 -0.5233546 0.8088701
-0.5029026 -0.014871655 0.45143396 0.9066674 -1.2515315 0.07221958 1.5976459 0.15611212
0.84910136 -0.47710326 0.29774368 -0.017531924 0.96016526 -1.0234592 0.26448944 -1.1204227
1.1196054 0.3141778 0.058783952 0.04695953 0.1413544 0.874701 0.7487228 0.27099022
0.15414308 0.14826222 0.48978803 0.88106513 -0.27488753 0.09417037 0.18516883 -0.31162417
0.20928858 -0.07769298 -0.64799833 0.11346937 -0.059935875 0.053850926 0.057817172 -0.25984713
0.25060663 -0.86114657 0.17836656 0.80145043 -0.29091248 0.10144335 -0.48531604 -0.835244
0.25279063 -0.25203502 0.77188426 0.8829522 -0.22938488 1.4791942 0.24548602 0.6097781
0.20171006 0.6587804 0.21222949 -0.89615613 0.22924276 0.1476779 -0.2671355 0.56159896
-0.30603224 0.22356239 0.29632655 -0.17944336 0.14470722 -0.33524954 -1.1479851 -0.068887606
0.36258245 0.7629233 -0.34137124 1.7078019 1.182329 1.00686 -0.8837509 0.2994859
1.2533619 -0.09777962 0.28944525 0.84820783 0.53395754 -1.0085814 0.048669692 0.1310571
0.6183747 -0.8133665 -0.17435075 1.0822423 0.95076424 0.23403794 0.8256349 0.3531432
0.6079713 1.5917273 0.41835663 -0.056299876 -0.31662992 0.5176788 0.31013107 -0.132886
-0.35995826 0.73542386 1.4644275 -0.5458758 0.13605696 -0.2829798 0.99841696 0.77445835
1.809718 -0.49590668 -1.3362296 0.32377273 0.17417212 0.28485364 -0.41727814 1.2519742
-0.36335146 -0.29541993 1.2671888 -0.13036226 -0.56364363 -0.19969392 0.86168456 -0.18991596
0.5586099 -1.1962438 0.026754383 1.221062 0.50294656 -0.3783307 -0.102174 0.3540959
-0.075973526 -0.4242044 -0.6570276 0.29307136 0.58890986 -1.259231 1.0910699 0.23911442
0.036033038 -0.52691466 -0.58725476 -0.0056497697 -0.7421539 -0.015404666 -0.48905534 0.3332057
00000000: ed16 053f 0bda 593e b281 f6be 4a50 1ebf
00000010: 53f6 2a3f ef46 b03f faf7 3bbf 62b7 433f
00000020: cacd 693e df5a 273f ddb5 b43e 3abf fd3e
00000030: 0bd6 3fbe 67a9 b53d 84bf 61bd 0116 6b3f
00000040: c8f7 c43e 5b70 1b3e f7fc 583f 4217 abbe
00000050: b9ff 103f 5769 733e a6f9 333e fba0 7d3f
00000060: 80b4 143f cb7a 99be db28 c73e 636b 6e3e
00000070: 0127 0c3f 1542 563f 0105 fc3d 8b6c 143f
00000080: 214a db3e 07b9 9a3f 6f0e 84bd 2db7 6c3e
00000090: ab8e fabe ce3b bbbc c845 cf3f 9335 3c3f
000000a0: 833b b83e 3d78 26bf 6638 2dbf e8b7 d73d
000000b0: 4262 823e 40b3 043f 6c22 99bf 2720 5ebf
000000c0: 9a7b 88be aac5 0cbe 568f 3ebf 8844 e2bf
000000d0: 5df7 b53f 8379 3fbf da81 2d3e e2d2 3b3f
000000e0: de47 fc3e 6899 273f df28 9dbd d734 0dbd
000000f0: c724 693e f45a 633f 0d2d 1d3f 73d2 00be
00000100: 5fa3 aabe 9a2b dbbc 69f4 b5be d6ca 3a3f
00000110: b587 073f 6ae2 cbbd e37a 993e 973d 9f3f
00000120: d56c 263f cf8e 883f b87a 323f 82e7 35bf
00000130: c06a 1ebe 5614 773f a833 d33d 1216 973f
00000140: dacf adbe 469e 8a3d 1fad 9b3e 9031 ee3e
00000150: 5715 0d3f f8b6 343f 0f83 dd3e e471 2a3f
00000160: f081 ab3e 0758 3cbf 2360 7bbe f42b cc3e
00000170: a06e 26bf 728a 0cbf 6729 e93e 3715 cc3d
00000180: aaef 6b3f db92 2a3f fa2b 7a3e 69c6 44be
00000190: da18 30bf 9852 fbbe 91fa 05bf 1c12 4f3f
000001a0: 3abe 00bf 3ea8 73bc 5a22 e73e 5b1b 683f
000001b0: 2f32 a0bf dce7 933d a97f cc3f dbdb 1f3e
000001c0: b55e 593f e146 f4be dc71 983e 1c9f 8fbc
000001d0: 64cd 753f b600 83bf 296b 873e 036a 8fbf
000001e0: 3b4f 8f3f eadb a03e 71c7 703d a358 403d
000001f0: 35bf 103e 68ec 5f3f 4cac 3f3f 3bbf 8a3e
00000200: afd7 1d3e 0dd2 173e 7fc5 fa3e 7c8d 613f
00000210: 0fbe 8cbe 65dc c03d e69c 3d3e 348d 9fbe
00000220: bf4f 563e 7f1d 9fbd 38e3 25bf a162 e83d
00000230: 527f 75bd ca92 5c3d b3d1 6c3d af0a 85be
00000240: 834f 803e 1a74 5cbf b9a5 363e db2b 4d3f
00000250: 7bf2 94be 88c1 cf3d 587b f8be 8dd2 55bf
00000260: c66d 813e bc0a 81be 359a 453f 2809 623f
00000270: dfe3 6abe 3c56 bd3f b060 7b3e 6b1a 1c3f
00000280: 158d 4e3e d5a5 283f b052 593e 7d6a 65bf
00000290: 9dbe 6a3e e038 173e fcc5 88be f3c4 0f3f
000002a0: 42b0 9cbe 8aed 643e 1db8 973e 00c0 37be
000002b0: 212e 143e d4a5 abbe 2df1 92bf f214 8dbd
000002c0: 68a4 b93e f14e 433f 36c8 aebe 4199 da3f
000002d0: 8f56 973f cae0 803f 803d 62bf 3756 993e
000002e0: 2a6e a03f ae40 c8bd 2b32 943e 2624 593f
000002f0: 71b1 083f 3219 81bf df59 473d d533 063e
00000300: ce4d 1e3f c938 50bf 0189 32be ea86 8a3f
00000310: 4965 733f a4a7 6f3e cf5c 533f 2fcf b43e
00000320: 02a4 1b3f b8bd cb3f d732 d63e b39a 66bd
00000330: 511d a2be 9986 043f 80c9 9e3e 4513 08be
00000340: 734c b8be bd44 3c3f 5c72 bb3f 84be 0bbf
00000350: 8452 0b3e bae2 90be 4198 7f3f e742 463f
00000360: d7a4 e73f 7be7 fdbe 9209 abbf 8ac5 a53e
00000370: 2d5a 323e 56d8 913e 7ba5 d5be b140 a03f
00000380: 3409 babe 4841 97be 3e33 a23f af7d 05be
00000390: f34a 10bf 907c 4cbe 5c97 5c3f 5479 42be
000003a0: 0f01 0f3f 841e 99bf 022c db3c c24b 9c3f
000003b0: 1bc1 003f 90b4 c1be 9a40 d1bd 0f4c b53e
000003c0: 0298 9bbd 5231 d9be f632 28bf 730d 963e
000003d0: ccc2 163f 7b2e a1bf 2ea8 8b3f 69da 743e
000003e0: 6197 133d e1e3 06bf 5456 16bf b421 b9bb
000003f0: ccfd 3dbf da63 7cbc 7665 fabe f099 aa3e
