Bipedal-Walker/weights-simple/checkpoint_critic.pth (torch_old, 799885 bytes, 11 tensors)

fcs1.weight f4 [600, 24]
-1.299978e-06 -5.38e-42 2.655414e-22 6.473e-42 0.00026448493 -8.600244e-09 1.120588e-12 -3.6286427e-14
-1.6151458e-14 -5.444435e-06 -1.030375e-05 1.0303343e-11 -7.786188e-06 -4.6410888e-24 3.666e-42 3.314e-42
5.443e-42 1.541e-42 4.913e-42 -9.22e-43 1.3194996e-37 -1.815989e-30 2.0684778e-25 -5.506e-42
0.022566728 0.0075649037 0.12414206 0.0017561902 0.07484996 -0.0005270849 0.091457985 0.18788804
-0.24437271 -0.3006628 -0.14544603 -0.18622637 0.11334221 0.39998886 0.04480665 0.04437712
0.0460622 0.051067296 0.05840939 0.07711014 0.114728436 0.20197175 0.05679054 -0.010688881
0.008250399 -0.14473197 0.7308839 0.22979447 0.31451884 -0.056468572 0.42787316 -0.01619948
0.04702548 -0.41573763 0.29027438 0.24579217 0.18207617 0.72055274 -0.025187656 0.0064097596
0.032135196 0.03888886 0.06689993 0.081313245 0.09150036 0.15998502 0.034440722 0.19631906
0.7137952 0.34382454 0.5068479 0.60062164 0.45720163 -0.09580856 0.42828313 0.112394676
-0.19080433 -0.12529121 -0.21111 -0.011051974 0.07525206 0.17964497 0.034430277 0.043600045
0.0589234 0.06715863 0.116264544 0.14314042 0.14747466 0.20859207 -0.26602346 -0.1574657
-3.208e-42 -1.395e-41 -3.7347e-41 2.2236e-41 1.794e-41 8.098e-42 5.615e-42 -1.9167e-41
1.6628e-41 8.811e-42 1.649e-41 4.445e-42 1.2673e-41 -2.0666e-41 2.7785e-41 -8.406e-42
-5.3105e-41 3.4068e-41 2.991e-41 -2.0919e-41 1.7474e-41 -2.939e-42 3.2408e-41 3.56e-42
-8.546299e-35 7.264e-42 -4.378e-42 2.151e-42 -3.767e-42 -6.264e-42 1.64e-42 -4.051e-42
1.846e-42 -6.368e-42 -1.557e-42 -6.209e-42 -6.183675e-25 -8.59e-43 1.015e-41 -3.269e-42
9.578e-42 -8.778e-42 9.18e-43 2.913e-42 -8.077e-42 2.186e-42 -5.267e-42 -1.2815e-41
3.222e-42 -3.673e-42 -6.56e-43 -1.092e-42 8.93646e-25 -4.825e-42 1.3276106e-29 6.18e-42
-2.482e-42 -4.121e-42 6.192e-42 2.1134864e-32 -2.1e-43 -2.92852e-40 -1.74e-43 3.96e-42
-5.93e-42 -8.022e-42 1.18e-42 7.039e-42 -5.55e-42 6.334e-42 3.129e-42 -1.4555e-41
-8.625614e-12 -7.945433e-12 -2.8205842e-11 2.4464185e-12 3.632398e-11 -5.3505197e-11 4.843286e-12 1.6147082e-11
1.1517423e-12 5.5644486e-12 4.5069382e-11 -1.684408e-11 3.3477096e-11 1.1801796e-11 4.560382e-09 -3.039163e-07
6.241964e-06 -4.4097424e-11 -2.573466e-10 -0.00010494679 -4.0573128e-11 8.721853e-12 4.798563e-12 -4.5165298e-06
-0.21175307 0.018633066 -0.3137897 0.12712081 0.026782768 0.0013524088 0.050349012 -0.5110693
0.4415987 0.18206047 0.20217687 -0.05088541 0.13356838 -0.09132676 0.098366804 0.100530535
0.10812664 0.12148134 0.12758304 0.12293103 0.10585374 0.082616165 0.16758071 0.05264553
-5.655109e-08 -1.022e-42 -1.9444701e-16 -1.05372435e-29 -2.0213398e-07 1.9659279e-14 2.7021758e-07 -2.706674e-09
-6.894214e-09 -1.8635513e-14 -4.8699853e-08 4.1089785e-14 7.716123e-14 -1.6843447e-17 7.23e-42 6.515e-42
4.291e-42 -6.742e-42 4.986e-42 2.257e-42 -3.116e-42 -5.65e-43 -5.727e-42 6.68e-43
-9.15e-43 7.32e-42 2.322e-42 6.178e-42 4.593e-42 1.6177228e-29 4.331e-42 -1.3273023e-33
-1.02e-43 6.744e-42 6.92e-43 6.971e-42 -1.546e-42 -3.527e-42 -1.195e-42 -9.124e-42
00000000: e77a aeb5 ff0e 0080 8b82 a01b 0b12 0000
00000010: 91aa 8a39 46c0 13b2 70b5 9d2b 676b 23a9
00000020: ba7a 91a8 57af b6b6 45de 2cb7 2242 352d
00000030: 6ca1 02b7 1e8b b398 380a 0000 3d09 0000
00000040: 2c0f 0000 4c04 0000 b20d 0000 9202 0080
00000050: da99 3302 9e54 138e 5708 8016 590f 0080
00000060: dcdd b83c 03e3 f73b 313e fe3d f72f e63a
00000070: f04a 993d 122c 0aba 534e bb3d b965 403e
00000080: d73c 7abe 79f0 99be ceef 14be 20b2 3ebe
00000090: f61f e83d 57cb cc3e 2e87 373d c8c4 353d
000000a0: b8ab 3c3d f12b 513d af3e 6f3d eceb 9d3d
000000b0: bef6 ea3d afd1 4e3e 339d 683d 6b20 2fbc
000000c0: ae2c 073c 9e34 14be 351b 3b3f 3e4f 6b3e
000000d0: 9d08 a13e 974b 67bd 3112 db3e c6b4 84bc
000000e0: ca9d 403d 90db d4be d89e 943e f1b0 7b3e
000000f0: 2d72 3a3e 2576 383f 5856 cebc f608 d23b
00000100: 32a0 033d ed49 1f3d d502 893d 8f87 a63d
00000110: 8a64 bb3d 1dd3 233e b711 0d3d dd07 493e
00000120: 48bb 363f c509 b03e c9c0 013f 57c2 193f
00000130: 5516 ea3e 4737 c4bd ed47 db3e 2e2f e63d
00000140: 3662 43be 574c 00be 382d 58be 5713 35bc
00000150: c11d 9a3d daf4 373e c306 0d3d f695 323d
00000160: aa59 713d 778a 893d 1b1c ee3d 6793 123e
00000170: 9903 173e 2999 553e 3a34 88be b03e 21be
00000180: f108 0080 e326 0080 1c68 0080 fc3d 0000
00000190: 0232 0000 9316 0000 a70f 0000 6e35 0080
000001a0: 5a2e 0000 9018 0000 f82d 0000 640c 0000
000001b0: 5423 0000 9c39 0080 744d 0000 6f17 0080
000001c0: 0994 0080 f85e 0000 6053 0000 503a 0080
000001d0: b630 0000 3108 0080 575a 0000 ed09 0000
000001e0: 1933 e386 4014 0000 340c 0080 ff05 0000
000001f0: 800a 0080 7611 0080 9204 0000 4b0b 0080
00000200: 2505 0000 c011 0080 5704 0080 4f11 0080
00000210: 1f60 3f97 6502 0080 4b1c 0000 1d09 0080
00000220: b31a 0000 7818 0080 8f02 0000 1f08 0000
00000230: 8416 0080 1806 0000 af0e 0080 b923 0080
00000240: fb08 0000 3d0a 0080 d401 0080 0b03 0080
00000250: f748 8a17 730d 0080 bea2 860f 3a11 0000
00000260: eb06 0080 7d0b 0080 4311 0000 1b7a db0a
00000270: 9600 0080 5a30 0380 7c00 0080 0a0b 0000
00000280: 8810 0080 5d16 0080 4a03 0000 9f13 0000
00000290: 790f 0080 a811 0000 b908 0000 9328 0080
000002a0: 50be 17ad 0dc7 0bad e919 f8ad c226 2c2c
000002b0: 2ac1 1f2e 7f51 6bae 7168 aa2c ff07 8e2d
000002c0: e417 a22b 19c8 c32c 9d37 462e 7f29 94ad
000002d0: dc3b 132e 909e 4f2d 8bb1 9c31 f029 a3b4
000002e0: 1072 d136 49f1 41ae 507a 8daf e116 dcb8
000002f0: 4871 32ae bc6f 192d 9dd5 a82c b28c 97b6
00000300: ccd5 58be 5fa4 983c 0ba9 a0be f52b 023e
00000310: 8967 db3c 4f43 b13a c43a 4e3d 70d5 02bf
00000320: 3a19 e23e 0f6e 3a3e 7407 4f3e 386d 50bd
00000330: 26c6 083e 8609 bbbd 8974 c93d f4e2 cd3d
00000340: 8071 dd3d 35cb f83d 21a5 023e 44c3 fb3d
00000350: d8c9 d83d aa32 a93d 479a 2b3e d7a2 573d
00000360: 95e2 72b3 d902 0080 a12e 60a5 7fb8 558f
00000370: 2a0a 59b4 3613 b128 6c12 9134 5000 3ab1
00000380: 26e2 ecb1 91da a7a8 0e2a 51b3 4c0d 3929
00000390: 6cc0 ad29 775a 9ba3 2814 0000 2912 0000
000003a0: f60b 0000 cb12 0080 e60d 0000 4b06 0000
000003b0: b008 0080 9301 0080 f70f 0080 dd01 0000
000003c0: 8d02 0080 6814 0000 7906 0000 3911 0000
000003d0: ce0c 0000 7c0e a40f 130c 0000 3289 dc88
000003e0: 4900 0080 cd12 0000 ee01 0000 6f13 0000
000003f0: 4f04 0080 d509 0080 5503 0080 6f19 0080

fcs1.bias f4 [600]
2.0548876e-08 -4.9279864e-05 0.00015958396 0.00013124009 1.2130087e-07 -2.1438461e-14 -8.1940975e-11 8.952257e-10
0.00034150318 1.305336e-07 -9.3784466e-11 8.961673e-06 -1.5149774e-13 -0.0003572325 -2.805227e-06 0.000309103
-0.00034356673 3.870082e-10 1.0181642e-06 -4.548073e-06 -0.000111599846 9.042549e-13 -2.8255457e-17 -1.8020158e-11
1.8141841e-07 -0.00014149406 9.59898e-09 4.0320036e-05 1.7546575e-11 -4.3305263e-08 -6.0345266e-12 3.7401856e-05
-0.0001480924 -3.1486997e-11 1.735892e-07 -1.8736047e-07 7.959681e-09 8.306344e-09 -1.491627e-05 6.28811e-06
1.0750121e-11 1.3363889e-05 -1.3641719e-05 -5.0953548e-14 -1.8723684e-06 0.00039005067 4.6513488e-08 2.0598823e-11
-1.0276342e-11 -2.0219873e-10 2.8060923e-14 1.1122044e-06 7.532043e-05 -7.0587763e-12 3.1730564e-05 4.878741e-13
-1.0295309e-09 0.00023041714 3.9039045e-05 -2.3011478e-28 6.350813e-09 1.3058849e-07 -1.3191195e-13 6.416761e-09
-2.3195647e-05 -0.0005816847 8.094313e-05 -3.467132e-05 4.714574e-05 -8.08881e-08 0.0008812385 5.105072e-15
-1.2909127e-09 -2.309952e-13 7.740625e-14 3.624537e-05 5.026922e-12 -0.00042331775 -1.4658819e-29 0.00014277802
-2.5385327e-09 -2.3245312e-12 -2.0438061e-14 4.998114e-05 1.5690051e-05 -0.0002318081 1.8193038e-13 -9.135931e-07
4.0461914e-06 5.503499e-05 2.7356042e-05 -4.5300937e-11 4.2405348e-13 1.4132848e-07 -5.5497265e-05 -5.6256854e-06
3.212826e-14 1.4563733e-06 -1.4251774e-12 -3.5485803e-07 -2.4898056e-14 0.0006082277 -1.6703469e-05 -1.1724569e-13
1.5122786e-12 1.4019595e-07 -3.820557e-09 2.414841e-05 -6.203924e-05 4.4687285e-11 -3.7248216e-14 1.4173791e-05
-6.1158e-41 -3.89299e-05 -2.273718e-21 -7.6383156e-05 1.3260382e-07 3.760048e-12 -4.1940253e-12 -4.880302e-11
-0.0005277376 3.0690687e-13 -0.00023823038 -6.9983797e-10 -0.0002527572 -2.7330765e-08 2.9466257e-10 8.648814e-08
4.5503393e-14 -0.00013720467 -0.00019631058 -1.1478258e-12 -2.3736974e-12 -9.269061e-05 -0.00046126946 5.787502e-09
-4.9931554e-05 7.25721e-10 -8.678716e-09 -1.1742912e-11 7.82127e-07 3.5195705e-10 2.4869277e-14 1.2058784e-13
-3.3199527e-23 -4.0719264e-05 -3.346066e-13 4.216012e-09 1.7684208e-08 0.00033177593 -2.9907365e-10 0.0005006781
0.00030910803 9.086365e-09 8.715711e-14 -6.598844e-08 -5.905168e-13 3.742733e-05 2.0542055e-08 1.4650917e-05
-4.222305e-09 0.0001595542 6.0441785e-08 1.7268063e-06 5.1947322e-36 -1.1503789e-06 -3.9609382e-15 -5.1573994e-07
-9.413966e-14 -1.1293055e-12 -2.3107063e-08 -2.9290408e-09 -1.3141578e-05 -2.8433485e-06 -2.6308773e-09 -5.1522543e-06
4.756342e-13 1.8364767e-12 -0.00010214862 1.35941445e-08 -1.45175285e-08 -8.091924e-05 3.818326e-08 -2.4551911e-05
0.00044004718 2.691091e-06 -3.2676908e-10 3.0503016e-09 6.425717e-19 1.4566702e-05 1.878014e-08 -1.15780545e-11
0.00020993406 -2.6615255e-06 1.3414838e-13 4.0445866e-05 -0.0003464994 -9.592493e-08 0.00079655665 6.472643e-05
-1.4906054e-07 6.2316197e-09 -5.504351e-06 -1.0154209e-06 -2.0278098e-13 -2.0271208e-11 -1.8091203e-15 -1.9249144e-11
2.435586e-05 -0.00013429462 8.415628e-06 -3.391696e-08 4.1090407e-09 1.9946114e-05 -7.850865e-14 1.6636995e-10
2.284961e-05 -9.2593314e-07 -3.46807e-11 0.00017199351 -1.4056443e-14 0.0004793142 -1.4696802e-10 -1.3023636e-13
1.9932811e-05 9.087608e-11 -1.0212583e-06 9.375311e-12 -3.0530668e-05 2.2062552e-06 0.00023156365 -2.7727673e-11
-8.455683e-06 -2.4087858e-06 5.2829288e-09 3.2058735e-05 -1.4655689e-08 4.88086e-15 2.9748825e-12 -0.0002368768
2.985511e-08 -9.3491835e-08 -1.7662425e-05 -0.00035641922 4.996339e-10 9.592068e-05 3.3164764e-05 -0.0001916075
-1.8678752e-07 2.3873241e-09 -9.657529e-06 3.5666877e-16 4.6895464e-05 9.727761e-08 1.4434871e-14 3.181702e-05
00000000: 7583 b032 dab1 4eb8 fe55 2739 7e9d 0939
00000010: ee3e 0234 ba19 c1a8 ab30 b4ae e913 7630
00000020: c80b b339 ce28 0c34 f63b ceae 185a 1637
00000030: 4092 2aaa ef4a bbb9 6f41 3cb6 1a0f a239
00000040: bf20 b4b9 90c2 d42f dba7 8835 a69b 98b6
00000050: b60a eab8 6f86 7e2b 284e 02a4 ca81 9ead
00000060: eacb 4234 065e 14b9 c3e8 2432 4f1d 2938
00000070: 6057 9a2d a4fe 39b3 2f52 d4ac f0df 1c38
00000080: 4049 1bb9 357b 0aae d663 3a34 412d 49b4
00000090: 0cbf 0832 b0b3 0e32 e440 7ab7 74fe d236
000000a0: 3e1e 3d2d 7735 6037 bdde 64b7 7179 65a9
000000b0: 174e fbb5 b77f cc39 1fc6 4733 6d30 b52d
000000c0: 88c8 34ad e251 5eaf 15c0 fc28 0d47 9535
000000d0: 59f5 9d38 ce5b f8ac 6f16 0538 0953 092b
000000e0: 667f 8db0 219c 7139 dbbd 2338 42da 9191
000000f0: 5836 da31 e437 0c34 0885 14aa 6d7a dc31
00000100: 4694 c2b7 337c 18ba 03c0 a938 0c6c 11b8
00000110: 5abe 4538 b4b4 adb3 ea02 673a faed b727
00000120: f46b b1b0 eb09 82aa aa4d ae29 2b06 1838
00000130: 7dde b02c bff0 ddb9 78a8 948f afb6 1539
00000140: 5772 2eb1 0893 23ac f616 b8a8 d7a2 5138
00000150: 219e 8337 8311 73b9 ddd5 4c2a a43d 75b5
00000160: 85c4 8736 5fd5 6638 a77a e537 523c 47ae
00000170: 8cb8 ee2a 14c0 1734 bcc5 68b8 45c4 bcb6
00000180: 5db1 1029 9b78 c335 6d93 c8ab 5183 beb4
00000190: 0243 e0a8 7871 1f3a 6d1e 8cb7 c501 04aa
000001a0: 94d5 d42b c588 1634 fa45 83b1 5192 ca37
000001b0: 101b 82b8 6989 442e 45c0 27a9 f8cb 6d37
000001c0: 7caa 0080 a948 23b8 1acc 2b9d e52f a0b8
000001d0: dc61 0e34 804b 842c 6c90 93ac 51a3 56ae
000001e0: df57 0aba f1c5 ac2a 7bcd 79b9 b85e 40b0
000001f0: 7f84 84b9 fdc4 eab2 12fe a12f 5cbb b933
00000200: d7ed 4c29 99de 0fb9 b8d8 4db9 c88a a1ab
00000210: bb08 27ac e462 c2b8 8ad6 f1b9 68db c631
00000220: 996d 51b8 137c 4730 6619 15b2 6095 4ead
00000230: 5cf3 5135 8d7d c12f a600 e028 14c5 072a
00000240: 068b 209a fac9 2ab8 e55d bcaa 6fdc 9031
00000250: fce7 9732 36f2 ad39 e06a a4af f03f 033a
00000260: c70f a239 421a 1c32 a742 c429 87b5 8db3
00000270: 3837 26ab 4afb 1c38 7574 b032 36cd 7537
00000280: ca13 91b1 014e 2739 39cc 8133 9dc4 e735
00000290: a0f5 dc04 b866 9ab5 35b5 8ea7 6171 0ab5
000002a0: d2fb d3a9 85ef 9eab f87c c6b2 3b48 49b1
000002b0: a67a 5cb7 5bd0 3eb6 e2ca 34b1 87e1 acb6
000002c0: 0ee1 052b 063b 012c 9f38 d6b8 ae8b 6932
000002d0: c468 79b2 30b3 a9b8 f0fe 2333 d4f4 cdb7
000002e0: 22b6 e639 9798 3436 a9a4 b3af 799d 5131
000002f0: 58a7 3d21 8263 7437 f751 a132 ecae 4bad
00000300: bf21 5c39 a99c 32b6 a309 172a 6ba4 2938
00000310: 5daa b5b9 4aff cdb3 03d0 503a bdbd 8738
00000320: 730d 20b4 e81d d631 04b2 b8b6 9949 88b5
00000330: a34f 64aa b44e b2ad 615c 02a7 3851 a9ad
00000340: d04f cc37 70d1 0cb9 d930 0d37 18ac 11b3
00000350: 812f 8d31 f451 a737 28c9 b0a9 faec 362f
00000360: 2aad bf37 a48d 78b5 ff86 18ae 2859 3439
00000370: e737 7da8 774c fb39 d297 21af 13a2 12aa
00000380: 6335 a737 afd6 c72e 2b12 89b5 a6ee 242d
00000390: 0e0e 00b8 2d0f 1436 e5cf 7239 2be5 f3ad
000003a0: e2dc 0db7 a0a6 21b6 2285 b531 ce76 0638
000003b0: 67c8 7bb2 fdd9 af27 b856 512c 2262 78b9
000003c0: 0a3a 0033 aec5 c8b3 c529 94b7 c7dd bab9
000003d0: 9c56 0930 0629 c938 651a 0b38 3fea 48b9
000003e0: c38f 48b4 400e 2431 c506 22b7 059b cd25
000003f0: 9fb1 4438 efe6 d033 8c04 8228 4473 0538

fcs2.weight f4 [300, 600]
9.209382e-23 0.001861144 -0.012148256 -0.01445336 6.976089e-13 6.500811e-06 1.0558918e-11 3.9240085e-06
0.010704049 -1.1955581e-12 8.309641e-16 -5.862374e-13 -1.2628729e-13 -0.037327163 3.9063634e-05 -0.0076607126
-0.046781264 -1.553821e-06 -3.6202237e-13 9.1e-42 0.026227597 4.2613835e-14 -2.1734254e-13 1.2876164e-10
-2.1394799e-06 -0.0012747186 0.000119747645 -0.0046119937 2.88e-41 -2.0934109e-10 -4.7781e-41 -0.007117521
0.00017449175 -3.4097118e-06 -1.1597055e-07 -2.3767957e-10 -9.0944705e-13 9.1056575e-15 -0.0068993038 -2.3881034e-06
1.9125903e-25 2.2864773e-14 0.00020517538 4.581255e-09 -1.9169907e-10 -0.02037958 2.6377e-41 -3.1492727e-06
-1.2561553e-12 4.9544865e-06 1.8960485e-10 1.1052718e-11 0.010731898 -2.53455e-05 1.3544e-41 -1.9095456e-11
-1.8690009e-05 0.011429322 1.455594e-05 -7.648609e-12 7.5254534e-14 -1.9769407e-13 -2.2267795e-07 -1.5577078e-18
0.0008706837 0.0030476167 -0.010784274 -1.0881297e-10 -2.5115457e-06 2.219356e-05 0.020206649 -3.145078e-13
-1.5519865e-07 6.7052245e-13 -0.000107702064 -2.1411206e-09 -2.8692737e-06 -0.0091766985 2.1892957e-13 0.020766722
-1.2379513e-10 -4.4057175e-12 9.069958e-06 -0.0349468 -0.006795804 -0.0057849763 1.1126268e-15 7.296812e-06
4.2235155e-31 -0.03338512 1.2423095e-08 -5.5573164e-09 -4.0941854e-15 7.0713976e-14 -1.8520836e-07 -1.7756543e-11
2.2873015e-09 2.8592365e-12 -3.5955502e-06 1.20595005e-05 1.9978052e-06 -0.032467347 3.786378e-13 -1.1429752e-08
6.602698e-08 1.4977309e-07 3.1086e-41 -5.1351835e-06 -0.012474371 -1.1036093e-12 -2.2830416e-06 0.002223791
-1.6896965e-05 2.2135604e-10 -1.2639306e-08 -0.039856136 -5.062064e-14 -4.9812793e-12 -2.070383e-06 2.3839268e-14
-0.026638115 -1.1646116e-12 -0.030731067 -1.9646914e-06 -0.0058824373 5.80135e-10 1.1677852e-08 -7.702018e-09
2.524567e-08 -0.013178419 0.009953723 2.125304e-06 -4.1512294e-08 -0.044192057 0.008247328 -2.2738384e-08
0.0048039886 3.4240772e-06 -9.591223e-05 -8.090625e-08 -6.469168e-13 -2.5146437e-06 9.1116453e-07 2.6100717e-13
1.9852746e-07 -0.042097718 -8.5338655e-07 -4.2917435e-14 2.3743523e-06 -0.021956155 -1.9885292e-05 -0.017175406
-0.009397119 -2.0609928e-06 5.048359e-15 4.6824e-41 3.2005594e-09 -0.009065961 2.6326123e-07 3.6708722e-13
9.142888e-06 0.0070489547 -4.366262e-11 -1.3277897e-12 -2.9453791e-05 -9.692515e-10 -2.4752492e-08 2.1682183e-12
-4.0899426e-10 2.9988248e-11 -1.6947812e-08 -4.3783206e-08 5.54406e-07 -1.71878e-09 -1.1301945e-06 8.767595e-13
6.6207336e-05 8.6381654e-08 1.4291921e-09 4.879e-41 3.2415357e-12 0.03522535 -4.4898907e-09 0.0071469196
-0.042728588 3.6883803e-06 -7.27431e-07 -5.5801568e-11 -2.5812306e-13 1.8624002e-16 -1.7916316e-09 1.07097104e-13
-0.012813632 -1.09782725e-07 4.506349e-14 0.029651951 0.026636153 -6.632459e-08 0.04232509 -0.00067302387
7.2445846e-07 5.344287e-07 1.1201239e-09 -2.3138517e-13 2.1980391e-11 -2.40937e-08 -1.1823729e-12 -7.73483e-08
2.0899806e-06 0.020292459 -0.015771182 -1.6052e-41 -1.8125633e-14 0.0019979088 4.8077745e-05 -1.3013334e-07
-0.0011901917 -2.1991886e-11 -1.2259218e-13 -0.00922545 -3.7564266e-12 -0.03405567 1.6873555e-13 -3.8794713e-20
-0.057453778 7.52292e-05 -2.3219359e-06 -2.04515e-05 5.5732686e-05 1.0690205e-07 -0.033243205 1.9203222e-11
2.497673e-13 1.3113323e-11 -3.7191498e-06 0.01840594 3.8778e-41 4.7371436e-06 -1.930477e-09 -0.021017924
-3.270472e-07 -1.367065e-06 -0.0005785058 -0.014079181 -6.227114e-13 2.5015017e-09 -0.029856656 -0.0036842509
-2.8570794e-08 -1.9339535e-11 -0.00023895758 6.523922e-08 -1.45569325e-08 -1.233052e-11 9.0668727e-13 -7.853522e-11
00000000: 50ab de1a a1f1 f33a 7b09 47bc c9cd 6cbc
00000010: 055c 442b 8b21 da36 24c1 392d faaa 8336
00000020: 0960 2f3c 8542 a8ab 5482 6f26 db02 25ab
00000030: d52f 0eaa 5ee4 18bd 42d8 2338 b706 fbbb
00000040: b69d 3fbd e28c d0b5 eccc cbaa 5e19 0000
00000050: 42db d63c 68ea 3f29 b9b4 74aa 2e93 0d2f
00000060: fc93 0fb6 7514 a7ba 0721 fb38 3520 97bb
00000070: 4850 0000 472c 66af 3285 0080 183a e9bb
00000080: c6f7 3639 67d2 64b6 7c0b f9b3 6daa 82af
00000090: 91fc 7fab 6f08 2428 8e13 e2bb 4e43 20b6
000000a0: 68c4 6c16 94f2 cd28 5924 5739 2569 9d31
000000b0: 7ec6 52af 14f3 a6bc 8749 0000 1858 53b6
000000c0: c4c9 b0ab b73e a636 0579 502f 0471 422d
000000d0: d8d4 2f3c 0c9d d4b7 c125 0000 25f7 a7ad
000000e0: 7dc8 9cb7 0d42 3b3c 4935 7437 468e 06ad
000000f0: 4975 a929 7095 5eaa 4019 6fb4 89e0 e5a1
00000100: 983e 643a 86ba 473b 86b0 30bc 4248 efae
00000110: 078c 28b6 4f2c ba37 6a88 a53c 5a0d b1aa
00000120: aea4 26b4 3cbc 3c2b 1bde e1b8 fe22 13b1
00000130: bf8d 40b6 dd59 16bc 277e 762a f91e aa3c
00000140: 3b1d 08af 2d03 9bac 2c2b 1837 6024 0fbd
00000150: 56af debb e68f bdbb af58 a026 23d7 f436
00000160: 980f 090d d6be 08bd 5a6d 5532 acf2 beb1
00000170: 3282 93a7 d53b 9f29 b0dd 46b4 2e30 9cad
00000180: a22e 1d31 6d33 492c 154b 71b6 2953 4a37
00000190: 0812 0636 7bfc 04bd 7527 d52a 955c 44b2
000001a0: b7ca 8d33 50d1 2034 a856 0000 e44e acb6
000001b0: 4e61 4cbc b751 9bab 5b36 19b6 06bd 113b
000001c0: f5bd 8db7 3062 732f 4124 59b2 3040 23bd
000001d0: a0f9 63a9 6043 afac e9f0 0ab6 9cb9 d628
000001e0: 2d38 dabc 8ee7 a3ab b8bf fbbc 24d9 03b6
000001f0: 76c1 c0bb 5f77 1f30 bc9f 4832 d551 04b2
00000200: d1db d832 4cea 57bc f114 233c 72a0 0e36
00000210: 404b 32b3 bb02 35bd cd1f 073c 3c52 c3b2
00000220: c76a 9d3b 33c9 6536 7d24 c9b8 aebe adb3
00000230: 4517 36ab 40c1 28b6 c096 7435 19ef 922a
00000240: d02a 5534 a86e 2cbd 4714 65b5 6f48 41a9
00000250: 1057 1f36 65dd b3bc 57cf a6b7 70b3 8cbc
00000260: 60f6 19bc 964f 0ab6 e5e2 b527 8782 0000
00000270: d6f0 5b31 6689 14bc 5956 8d34 d8a6 ce2a
00000280: 6864 1937 ebfa e63b bd07 40ae aade baab
00000290: 8913 f7b7 8136 85b0 4e9f d4b2 2693 182c
000002a0: d3d8 e0af c4e3 032e a294 91b2 250c 3cb3
000002b0: 7dd2 1435 323a ecb0 30b1 97b5 2ec9 762b
000002c0: cbd8 8a38 d180 b933 3a6d c430 0288 0000
000002d0: 511a 642c 7548 103d 7f45 9ab1 b530 ea3b
000002e0: 2c04 2fbd e485 7736 ad44 43b5 fb6a 75ae
000002f0: 744f 91aa 5ab8 5625 6f3d f6b0 4729 f129
00000300: 45f0 51bc b1c1 ebb3 abf2 4a29 a6e8 f23c
00000310: 1034 da3c 546e 8eb3 135d 2d3d de6d 30ba
00000320: 6878 4235 a975 0f35 dbf2 9930 1e42 82aa
00000330: 7157 c12d 9bf6 ceb2 7967 a6ab ad1a a6b3
00000340: 9841 0c36 5f3c a63c 9132 81bc bf2c 0080
00000350: dd42 a3a8 59ef 023b 16a7 4938 c8ba 0bb4
00000360: 3500 9cba 5371 c1ad ca06 0aaa 5826 17bc
00000370: e22a 84ac f57d 0bbd b6fa 3d2a ee33 379f
00000380: a754 6bbd 5fc4 9d38 8ed2 1bb6 438f abb7
00000390: 84c2 6938 0692 e533 072a 08bd d0e9 a82d
000003a0: 439b 8c2a 28b1 662d 8296 79b6 0ec8 963c
000003b0: 196c 0000 c1f3 9e36 4fa9 04b1 c82d acbc
000003c0: 0695 afb4 ff7b b7b5 dea6 17ba 5dac 66bc
000003d0: 1647 2fab e2e6 2b31 f295 f4bc 7973 71bb
000003e0: d76b f5b2 c31c aaad b090 7ab9 a419 8c33
000003f0: 1116 7ab2 baeb 58ad b435 7f2b 66b3 acae

fcs2.bias f4 [300]
0.013401665 -0.0004924165 -0.0084473975 -0.031626955 -0.00071058987 -5.8912676e-05 -0.061252844 -7.3667565e-05
-2.0503366e-07 0.48458713 0.15052757 -0.00018630546 -0.2256295 0.315674 -2.232594e-07 -0.00045616037
-0.0026055502 0.63725024 0.35795325 -0.0038865095 -0.020351341 -8.2064056e-05 -3.3501703e-07 -0.047405172
-0.00067661965 -0.00047292863 -0.023843082 -0.00324245 -0.006586175 -1.1315927e-06 -1.0171943e-05 -3.7273367e-07
-0.0011787309 -2.7535776e-05 -8.4909925e-07 -3.6750833e-07 -0.0002123219 -0.010235638 -0.0001819308 0.34082308
-0.013776599 -3.9131828e-05 -0.00014674668 -0.0173523 0.22288176 -7.139852e-07 -8.006936e-06 -0.28605202
-0.018763635 -5.492666e-07 -0.0018572172 -0.000673479 -0.0038819585 0.609906 -0.0008587678 0.46052808
-0.0004248808 -1.6509495e-07 -5.009021e-06 -0.0003542704 -1.3661123e-07 -0.00055697287 -0.0017279006 -0.0048596617
-0.0034695677 -1.3036458e-05 -0.026071567 -0.008702303 1.33633 0.50073534 0.392612 -0.00034379627
-0.0011761399 -0.10022953 0.37529877 -1.222321e-07 -0.00096736004 -0.00010264609 -8.721623e-05 -3.2316323e-06
-2.1960099e-05 -0.000654528 -0.03080478 -0.00014272712 -0.00025035188 -0.0022586538 -0.028597513 -0.000858608
-0.0018621933 -0.014083477 -1.2790175e-05 3.773844e-06 -0.0020925445 -0.0036662736 0.40521622 0.5064657
-6.614066e-07 -0.010664173 -1.942976e-05 -0.037423853 -0.004552925 -0.054239996 -3.7265481e-06 -0.0023818791
-0.019031614 0.38164932 -0.011761928 -1.1548905e-05 0.26295236 -0.005409109 -1.5693198e-05 0.5097818
-8.42057e-06 -5.1091272e-05 0.4393956 -0.008233429 0.4890087 -0.18823288 -1.0760115e-05 -0.0001399498
0.49131423 -0.0071836323 -5.0725323e-08 -1.1677324e-06 -0.0003462001 -4.5303528e-05 -0.0052988287 -0.00019890394
-1.5662188e-05 -0.0045290766 -0.0005530034 -0.0001320743 -4.757448e-05 -0.05129146 0.6920756 0.12591475
-0.017662868 -0.0020968071 -0.00011894642 -0.0114535885 -0.010700524 -1.5226598e-06 -9.5601245e-05 -0.00078258844
-0.0010116091 -2.488951e-06 -0.0018843794 -0.1861952 -1.837389e-05 -0.0021068344 -0.0023422667 -0.0057811243
0.43963364 -0.26140428 -0.053241845 0.7311014 -1.2397527e-05 -5.2122907e-08 -0.0015737825 -0.0001363137
-0.06892655 -0.00060959894 -1.325179e-05 -5.3883386e-06 -2.51118e-07 -0.0010719371 -0.016048301 -2.1917474e-06
-0.0023276592 -0.0002521179 -3.778957e-05 -0.003865713 -5.537982e-05 -0.015025293 -0.0008308269 -1.1563079e-05
-0.00017876706 0.27046323 0.009683949 -5.6026165e-05 0.60486263 -7.0163316e-07 -0.0010886134 0.28353566
-0.035469826 -0.0015257238 -0.00036698315 -1.4203417e-06 -0.0365158 -0.0010564995 -0.0053242245 -3.287795e-05
-0.0037857015 -6.7552337e-09 -3.66384e-05 -0.23787643 0.38477495 0.37389207 -0.0034752311 -0.00022958773
-0.0032449733 -0.0070722103 0.39828005 -1.007626e-05 -0.020663362 -0.002281776 -0.0005027681 -0.002823968
-0.010485093 -0.25244305 -0.013343063 -0.03542782 -0.33301196 -2.7455123e-06 -0.0061514396 -0.00018377352
0.0039584045 -0.01046808 0.47182497 0.6347583 -0.00048513722 -5.4095148e-05 -0.001160246 -0.0035801297
-1.4073065e-06 0.6321631 -0.00038854423 -0.0014408476 -1.5058858e-07 -0.0902664 0.5240655 0.10223514
-2.1016045e-05 -0.043792106 -4.7187987e-07 -0.089824274 -0.0025748657 -0.16381757 -1.4373909e-07 -4.3283348e-05
-0.00016367837 -0.0046826545 -0.061206505 -0.0055186716 0.35215324 -2.100983e-07 -0.0006615355 -0.015417399
0.5289037 -0.05444193 -3.774331e-05 -0.2380029 0.46676245 -0.017501405 -0.00049985916 0.4312104
00000000: a892 5b3c 8315 01ba f466 0abc 448b 01bd
00000010: e146 3aba 0119 77b8 43e4 7abd f97d 9ab8
00000020: 3927 5cb4 ce1b f83e e623 1a3e fe5a 43b9
00000030: 6b0b 67be 06a0 a13e 14b9 6fb4 cf28 efb9
00000040: e1c1 2abb d522 233f a645 b73e cfb4 7ebb
00000050: dbb7 a6bc ce19 acb8 64dc b3b4 ed2b 42bd
00000060: 2d5f 31ba 68f3 f7b9 9152 c3bc 497f 54bb
00000070: d7d0 d7bb 3be1 97b5 2aa8 2ab7 201c c8b4
00000080: a57f 9aba a1fc e6b7 a8ed 63b5 f64d c5b4
00000090: baa2 5eb9 61b3 27bc adc4 3eb9 5d80 ae3e
000000a0: 3fb7 61bc 7b21 24b8 03e0 19b9 6926 8ebc
000000b0: 1e3b 643e b0a8 3fb5 8755 06b7 6975 92be
000000c0: 32b6 99bc 5071 13b5 de6d f3ba 698c 30ba
000000d0: 7568 7ebb cd22 1c3f ee1e 61ba 56ca eb3e
000000e0: 89c2 deb9 f444 31b4 2a13 a8b6 5ebd b9b9
000000f0: 69af 12b4 d101 12ba b97a e2ba cc3d 9fbb
00000100: b061 63bb 29b7 5ab7 0a94 d5bc 1b94 0ebc
00000110: dd0c ab3f 3130 003f 7104 c93e 8e3f b4b9
00000120: b528 9aba 2445 cdbd 2927 c03e e73e 03b4
00000130: 6f96 7dba b343 d7b8 dbe7 b6b8 05df 58b6
00000140: f436 b8b7 a194 2bba 4e5a fcbc 05a9 15b9
00000150: a941 83b9 ec05 14bb 5545 eabc 3514 61ba
00000160: d714 f4ba 62be 66bc 6295 56b7 2542 7d36
00000170: 1223 09bb dd45 70bb 8078 cf3e bca7 013f
00000180: 848b 31b5 c9b8 2ebc 18fd a2b7 c149 19bd
00000190: b430 95bb c22a 5ebd 9c15 7ab6 4d19 1cbb
000001a0: 30e8 9bbc 8a67 c33e 1ab5 40bc 2bc2 41b7
000001b0: b1a1 863e e53e b1bb e3a4 83b7 0f81 023f
000001c0: 1346 0db7 d64a 56b8 76f8 e03e 81e5 06bc
000001d0: 595f fa3e 1fc0 40be 5886 34b7 7dbf 12b9
000001e0: 8a8d fb3e ad64 ebbb 15dd 59b3 fbba 9cb5
000001f0: 3182 b5b9 4b04 3eb8 cca1 adbb df90 50b9
00000200: 4b62 83b7 a668 94bb 6ef7 10ba 6d7d 0ab9
00000210: b58a 47b8 fe16 52bd de2b 313f ccef 003e
00000220: b8b1 90bc 966a 09bb df72 f9b8 d5a7 3bbc
00000230: 4051 2fbc 315e ccb5 877d c8b8 9f26 4dba
00000240: f897 84ba da07 27b6 48fd f6ba f4a9 3ebe
00000250: a121 9ab7 d112 0abb b780 19bb 966f bdbb
00000260: a917 e13e c8d6 85be 1f14 5abd 7629 3b3f
00000270: f9fe 4fb7 bedd 5fb3 6147 ceba 6eef 0eb9
00000280: 5d29 8dbd 7ecd 1fba 0154 5eb7 7acd b4b6
00000290: 65d1 86b4 3e80 8cba ba77 83bc ef15 13b6
000002a0: a48b 18bb b12e 84b9 3e80 1eb8 e757 7dbb
000002b0: a147 68b8 a62c 76bc d9cb 59ba 0cff 41b7
000002c0: 6b73 3bb9 287a 8a3e 6da9 1e3c a3fd 6ab8
000002d0: 47d8 1a3f dd57 3cb5 ceaf 8eba 962b 913e
000002e0: cf48 11bd ccfa c7ba a567 c0b9 92a2 beb5
000002f0: 9791 15bd 3e7a 8aba d576 aebb 6ee6 09b8
00000300: 8819 78bb aa1b e8b1 2fac 19b8 e195 73be
00000310: 3901 c53e c86e bf3e b4c0 63bb 7dbd 70b9
00000320: 9ea9 54bb 00be e7bb 5deb cb3e 350d 29b7
00000330: 3646 a9bc d989 15bb 32cc 03ba 5212 39bb
00000340: abc9 2bbc 3740 81be dd9c 5abc c31c 11bd
00000350: 8b80 aabe 8b3f 38b6 0492 c9bb 54b3 40b9
00000360: 81b5 813b 4f82 2bbc 0b93 f13e 857f 223f
00000370: 045a feb9 39e4 62b8 6513 98ba 9ca0 6abb
00000380: afe2 bcb5 71d5 213f 86b5 cbb9 d3da bcba
00000390: 79b1 21b4 97dd b8bd 2829 063f a860 d13d
000003a0: 9d4b b0b7 5a5f 33bd ad56 fdb4 caf5 b7bd
000003b0: 14bf 28bb cbbf 27be b356 1ab4 248b 35b8
000003c0: 14a1 2bb9 f470 99bb acb3 7abd f9d5 b4bb
000003d0: 6e4d b43e 6297 61b4 e56a 2dba 4299 7cbc
000003e0: 3c66 073f 80fe 5ebd 924e 1eb8 08b7 73be
000003f0: 7dfb ee3e 1b5f 8fbc fb08 03ba 9cc7 dc3e

fca1.weight f4 [300, 4]
0.07734632 0.08533677 -0.021303808 0.013343833 0.0002880059 -0.000108435685 0.000121700796 -0.00018010526
0.00029140807 0.003893882 0.00066950906 -0.0027295123 0.06382992 -0.08264429 -0.0017557815 -0.055560205
-0.0009919483 -0.00023947576 1.1448769e-05 -0.0024909985 2.4504902e-06 -1.1412439e-07 -2.4244025e-07 -1.0052876e-05
-0.01232025 -0.006276643 -0.014720203 -0.058986064 -2.61937e-08 -4.548111e-06 -6.687045e-07 -5.5289853e-05
-2.4988547e-09 -6.2085155e-09 -5.1710236e-09 -1.1145694e-07 0.32738242 0.4594197 -0.37491533 0.015546287
-1.3811542 -1.0940067 -0.09483871 -0.04037519 -1.0653032e-05 -7.0038427e-06 9.858516e-07 -7.9948586e-05
0.018334255 -0.01411888 -0.07209202 -0.051998723 0.4869664 0.1748306 -0.339843 -0.47417262
7.395486e-08 -5.775711e-12 -2.462166e-15 -1.0612227e-06 -0.00727191 0.012617881 0.0017861465 0.01365111
-0.00044727675 -0.0004688458 0.0003071089 -0.0012769692 -0.4222247 -0.44827223 0.28069288 0.043275747
-0.020043362 0.14670686 0.09094845 -0.1706929 -0.001105332 -0.0002915984 0.0011011136 -0.0031125238
0.017963788 -0.008806154 0.031207781 -0.016003551 -2.6823049e-05 -1.9028636e-05 -1.4728333e-06 -2.9906168e-05
-5.188543e-11 -4.594479e-08 -6.1270725e-11 -5.9536642e-09 0.006183666 -0.12666114 -0.11791289 -0.047448784
-8.787535e-05 -0.0009900716 0.00026638908 0.0010312453 9.194226e-05 0.00028970127 0.00028321592 -0.0003539969
-0.03488027 -0.00010086448 -0.0023136998 -0.0065036607 0.00025964278 0.00040624986 -0.0011295821 -0.0029183459
0.00025698266 0.0037286964 -0.0024254431 -0.004046553 -1.36869e-07 2.5650502e-08 -4.986943e-11 -6.734406e-11
7.465348e-08 -4.323356e-06 7.630907e-09 -3.4076237e-07 -2.5692176e-10 -2.9287332e-08 -1.691327e-10 -1.3425186e-07
-0.00022593648 -0.00073134404 0.00016060327 -0.0016380482 -3.5631276e-06 -7.5844255e-06 1.7784947e-07 1.196186e-05
-4.0119954e-07 -6.645053e-07 6.5074425e-07 -8.795719e-07 -2.9339966e-12 -4.3088436e-12 5.2530983e-12 -1.7837771e-09
0.083151065 0.043078046 0.013127306 0.014608468 -0.00854505 -0.010299579 -0.022991348 0.0072376113
4.414246e-06 -7.9867044e-05 -2.5849624e-07 -0.000100745696 -0.24119751 -0.5004139 0.3768281 0.26614603
0.035373498 -0.0016107284 0.04484898 -0.0029711225 -8.336864e-07 9.213505e-06 7.621339e-07 -5.436502e-05
-1.8582105e-05 -8.646393e-06 -1.3136357e-06 -0.00012005413 0.0038595707 0.0042267786 -0.0016656503 -0.004918726
0.050805736 0.029116478 -0.12858294 0.056196287 -3.6864944e-09 2.6963917e-11 7.3725106e-09 -1.129878e-06
4.513092e-06 -8.033453e-06 -4.1322805e-06 -9.128119e-06 0.051858447 0.089266926 0.068656184 -0.18941733
0.004286216 -0.014504698 -0.0014964561 -0.01772346 -6.4140734e-11 -1.163513e-08 -5.1397095e-11 -4.037932e-08
4.2704367e-05 -0.00015793506 0.0004305274 -0.002419103 -1.6002054e-05 -0.00011604391 2.9121586e-05 -0.00012488718
0.0018006767 -0.0047567496 -0.0031582755 -0.0044983393 0.0787469 -0.06767695 -0.24136235 0.031254113
0.00050376565 -0.00036660547 -0.00058152265 -0.00029834153 0.010176683 -0.06301792 -0.06790639 -0.20132305
-0.0003828444 0.000102758284 0.0002206856 -5.731743e-05 8.664228e-13 -5.29157e-10 1.3970652e-11 -3.9866052e-08
-1.1328424e-07 -1.0693332e-08 -1.1573009e-08 -5.2337637e-06 -0.00019521586 -0.00052399084 0.0003108294 -0.00069032377
-5.5576708e-09 -4.929226e-10 1.8576678e-09 -6.744489e-08 0.0008866803 0.00034770707 0.0002227248 -0.0009048466
-3.7298167e-05 -0.00015578505 -0.00040564002 -0.0011303199 -0.0030949055 -0.0027556012 -0.000930038 -0.010019125
00000000: bf67 9e3d 0bc5 ae3d 5385 aebc 18a0 5a3c
00000010: 7fff 9639 f767 e3b8 9e39 ff38 a3da 3cb9
00000020: 21c8 9839 8030 7f3b fe81 2f3a 9ee1 32bb
00000030: 43b9 823d 6941 a9bd 4022 e6ba 1993 63bd
00000040: 4304 82ba c91b 7bb9 1714 4037 0540 23bb
00000050: 1a73 2436 8c14 f5b3 bc28 82b4 c6a8 28b7
00000060: e0da 49bc 4cac cdbb 022d 71bc 5f9b 71bd
00000070: 8e00 e1b2 fa9b 98b6 0681 33b5 07e7 67b8
00000080: 51b8 2bb1 ae52 d5b1 ceac b1b1 1a5a efb3
00000090: ab9e a73e 0f39 eb3e e7f4 bfbe dbb5 7e3c
000000a0: a9c9 b0bf 6908 8cbf cc3a c2bd 7560 25bd
000000b0: 6dba 32b7 8d02 ebb6 9a51 8435 12aa a7b8
000000c0: b831 963c e052 67bc fba4 93bd 9dfc 54bd
000000d0: a953 f93e cb06 333e e7ff adbe c1c6 f2be
000000e0: 1dd1 9e33 fb36 cbac f26a 31a7 566f 8eb5
000000f0: 3449 eebb 3bbb 4e3c 221d ea3a e8a8 5f3c
00000100: 7880 eab9 6bcf f5b9 7503 a139 fa5f a7ba
00000110: d62d d8be f083 e5be fab6 8f3e e941 313d
00000120: fa31 a4bc 533a 163e 2e43 ba3d 1fca 2ebe
00000130: cae0 90ba ade1 98b9 3e53 903a 7cfb 4bbb
00000140: cb28 933c b047 10bc 76a7 ff3c e119 83bc
00000150: 0f02 e1b7 af9f 9fb7 2bae c5b5 02df fab7
00000160: cd31 64ae d554 45b3 5abc 86ae fc90 ccb1
00000170: 5aa0 ca3b 75b3 01be 507c f1bd a859 42bd
00000180: b849 b8b8 4ac5 81ba 23aa 8b39 da2a 873a
00000190: 20d1 c038 0ce3 9739 997c 9439 a998 b9b9
000001a0: 9dde 0ebd 3587 d3b8 71a1 17bb a91c d5bb
000001b0: aa20 8839 effd d439 7c0e 94ba b841 3fbb
000001c0: a1bb 8639 255d 743b 2ff4 1ebb f298 84bb
000001d0: 44f6 12b4 0d56 dc32 fd53 5bae 5617 94ae
000001e0: 2f51 a033 5811 91b6 1519 0332 06f2 b6b4
000001f0: 863e 8daf 8693 fbb2 9ff6 39af df26 10b4
00000200: 5de9 6cb9 abb7 3fba 9d67 2839 c7b3 d6ba
00000210: 111e 6fb6 b87d feb6 e4f6 3e34 ccaf 4837
00000220: 7264 d7b4 7560 32b5 ceae 2e35 b91b 6cb5
00000230: 2f76 4eac 9d9a 97ac b4d3 b82c 1429 f5b0
00000240: 1b4b aa3d 9b72 303d e913 573c 5b58 6f3c
00000250: 8a00 0cbc 91bf 28bc 5a58 bcbc 7c29 ed3b
00000260: 161e 9436 4b7e a7b8 74c7 8ab4 6f47 d3b8
00000270: 7bfc 76be 201b 00bf 9def c03e 4b44 883e
00000280: cde3 103d 141f d3ba 90b3 373d 2ab7 42bb
00000290: 7eca 5fb5 b493 1a37 7195 4c35 ff05 64b8
000002a0: c4e0 9bb7 fa0f 11b7 2e50 b0b5 92c5 fbb8
000002b0: daf0 7c3b ca80 8a3b f351 daba 442d a1bb
000002c0: ad19 503d ae85 ee3c 3fab 03be 142e 663d
000002d0: 7f55 7db1 582d ed2d 4a51 fd31 50a6 97b5
000002e0: 2a6f 9736 6bc7 06b7 05a8 8ab6 f924 19b7
000002f0: 8669 543d 94d1 b63d 9d9b 8c3d 9ef6 41be
00000300: 6373 8c3b 1da5 6dbc bc24 c4ba ca30 91bc
00000310: 060c 8dae d8e3 47b2 fc0b 62ae 886d 2db3
00000320: 771d 3338 5f9b 25b9 69b8 e139 d089 1ebb
00000330: 263c 86b7 9a5c f3b8 214a f437 26f4 02b9
00000340: af04 ec3a 82de 9bbb 12fb 4ebb ce66 93bb
00000350: 0e46 a13d 369a 8abd b127 77be 5004 003d
00000360: 240f 043a f434 c0b9 5371 18ba b96a 9cb9
00000370: 1abc 263c 8a0f 81bd 8112 8bbd a127 4ebe
00000380: 81b8 c8b9 ef7f d738 d767 6739 1f68 70b8
00000390: 58e0 732b 1d74 11b0 39c6 752d 3039 2bb3
000003a0: ab46 f3b3 c6b5 37b2 a2d2 46b2 b09d afb6
000003b0: dcb2 4cb9 6e5c 09ba d1f6 a239 d8f6 34ba
000003c0: caf5 beb1 587e 07b0 e050 ff30 38d6 90b3
000003d0: 1c70 683a 744c b639 3c8b 6939 3a33 6dba
000003e0: 9a70 1cb8 3b5a 23b9 15ac d4b9 3e27 94ba
000003f0: e6d3 4abb 5197 34bb cbcd 73ba 4227 24bc

fca1.bias f4 [300]
0.013401665 -0.0004924165 -0.0084473975 -0.031626955 -0.00071058987 -5.8912676e-05 -0.061252844 -7.3667565e-05
-2.0503366e-07 0.54784226 0.17401065 -0.00018630546 -0.22679776 0.35806304 -2.232594e-07 -0.00045616037
-0.0026055502 0.6606408 0.34977308 -0.0038865095 -0.020351341 -8.2064056e-05 -3.3501703e-07 -0.046912573
-0.00067661965 -0.00047292863 -0.023843082 -0.00324245 -0.006586175 -1.1315927e-06 -1.0171943e-05 -3.7273367e-07
-0.0011787309 -2.7535776e-05 -8.4909925e-07 -3.6750833e-07 -0.0002123219 -0.010235638 -0.0001819308 0.3625681
-0.013776599 -3.9131828e-05 -0.00014674668 -0.0173523 0.22678378 -7.139852e-07 -8.006936e-06 -0.2827383
-0.018763635 -5.492666e-07 -0.0018572172 -0.000673479 -0.0038819585 0.60979944 -0.0008587678 0.48871052
-0.0004248808 -1.6509495e-07 -5.009021e-06 -0.0003542704 -1.3661123e-07 -0.00055697287 -0.0017279006 -0.0048596617
-0.0034695677 -1.3036458e-05 -0.026071567 -0.008702303 1.380204 0.5833054 0.41158536 -0.00034379627
-0.0011761399 -0.08622538 0.4373374 -1.222321e-07 -0.00096736004 -0.00010264609 -8.721623e-05 -3.2316323e-06
-2.1960099e-05 -0.000654528 -0.03080478 -0.00014272712 -0.00025035188 -0.0022586538 -0.028597513 -0.000858608
-0.0018621933 -0.014083477 -1.2790175e-05 0.0040761186 -0.0020925445 -0.0036662736 0.3729871 0.54943603
-6.614066e-07 -0.010664173 -1.942976e-05 -0.037423853 -0.004552925 -0.05371184 -3.7265481e-06 -0.002380509
-0.019031614 0.36139756 -0.011761928 -1.1548905e-05 0.26332244 -0.005409109 -1.5693198e-05 0.5688314
-8.42057e-06 -5.1091272e-05 0.45629418 -0.008233429 0.5300011 -0.18813503 -1.0760115e-05 -0.0001399498
0.5618754 -0.0071836323 -5.0725323e-08 -1.1677324e-06 -0.0003462001 -4.5303528e-05 -0.0052988287 -0.00019890394
-1.5662188e-05 -0.0045290766 -0.0005530034 -0.0001320743 -4.757448e-05 -0.05129146 0.6715746 0.12578663
-0.017662868 -0.0020968071 -0.00011894642 -0.0114535885 -0.010700524 -1.5226598e-06 -9.5601245e-05 -0.00078258844
-0.0010116091 -2.488951e-06 -0.0018843794 -0.1862236 -1.837389e-05 -0.0021068344 -0.0023422667 -0.0057811243
0.44225606 -0.2614059 -0.053241845 0.69127756 -1.2397527e-05 -5.2122907e-08 -0.0015737825 -0.0001363137
-0.06429746 -0.00060959894 -1.325179e-05 -5.3883386e-06 -2.51118e-07 -0.0010719371 -0.016048301 -2.1917474e-06
-0.0023276592 -0.0002521179 -3.778957e-05 -0.003865713 -5.537982e-05 -0.015025293 -0.0008308269 -1.1563079e-05
-0.00017876706 0.31602 0.009683949 -5.6026165e-05 0.6869247 -7.0163316e-07 -0.0010886134 0.29907703
-0.035469826 -0.0015257238 -0.00036698315 -1.4203417e-06 -0.0365158 -0.0010564995 -0.0053242245 -3.287795e-05
-0.0037857015 -6.7552337e-09 -3.66384e-05 -0.23940198 0.41580334 0.44840705 -0.0034752311 -0.00022958773
-0.0032449733 -0.0070722103 0.4636959 -1.007626e-05 -0.020663362 -0.002281776 -0.0005027681 -0.002823968
-0.010485093 -0.2529065 -0.013343063 -0.03542782 -0.33581558 -2.7455123e-06 -0.0061514396 -0.00018377352
0.0039584045 -0.01046808 0.5315449 0.6635271 -0.00048513722 -5.4095148e-05 -0.001160246 -0.0035801297
-1.4073065e-06 0.6610537 -0.00038854423 -0.0014408476 -1.5058858e-07 -0.089397386 0.5345031 0.10223514
-2.1016045e-05 -0.042041592 -4.7187987e-07 -0.062987946 -0.0025748657 -0.16403814 -1.4373909e-07 -4.3283348e-05
-0.00016367837 -0.0046826545 -0.060780644 -0.0052195867 0.39834374 -2.100983e-07 -0.0006615355 -0.015417399
0.48929214 -0.055761356 -3.774331e-05 -0.23995456 0.475056 -0.017501405 -0.00049985916 0.5145112
00000000: a892 5b3c 8315 01ba f466 0abc 448b 01bd
00000010: e146 3aba 0119 77b8 43e4 7abd f97d 9ab8
00000020: 3927 5cb4 643f 0c3f d92f 323e fe5a 43b9
00000030: ac3d 68be 0a54 b73e 14b9 6fb4 cf28 efb9
00000040: e1c1 2abb c11f 293f 7515 b33e cfb4 7ebb
00000050: dbb7 a6bc ce19 acb8 64dc b3b4 6627 40bd
00000060: 2d5f 31ba 68f3 f7b9 9152 c3bc 497f 54bb
00000070: d7d0 d7bb 3be1 97b5 2aa8 2ab7 201c c8b4
00000080: a57f 9aba a1fc e6b7 a8ed 63b5 f64d c5b4
00000090: baa2 5eb9 61b3 27bc adc4 3eb9 87a2 b93e
000000a0: 3fb7 61bc 7b21 24b8 03e0 19b9 6926 8ebc
000000b0: 023a 683e b0a8 3fb5 8755 06b7 13c3 90be
000000c0: 32b6 99bc 5071 13b5 de6d f3ba 698c 30ba
000000d0: 7568 7ebb d11b 1c3f ee1e 61ba 4438 fa3e
000000e0: 89c2 deb9 f444 31b4 2a13 a8b6 5ebd b9b9
000000f0: 69af 12b4 d101 12ba b97a e2ba cc3d 9fbb
00000100: b061 63bb 29b7 5ab7 0a94 d5bc 1b94 0ebc
00000110: 86aa b03f 8153 153f 51bb d23e 8e3f b4b9
00000120: b528 9aba ef96 b0bd b0ea df3e e73e 03b4
00000130: 6f96 7dba b343 d7b8 dbe7 b6b8 05df 58b6
00000140: f436 b8b7 a194 2bba 4e5a fcbc 05a9 15b9
00000150: a941 83b9 ec05 14bb 5545 eabc 3514 61ba
00000160: d714 f4ba 62be 66bc 6295 56b7 f690 853b
00000170: 1223 09bb dd45 70bb 2af8 be3e d7a7 0c3f
00000180: 848b 31b5 c9b8 2ebc 18fd a2b7 c149 19bd
00000190: b430 95bb f200 5cbd 9c15 7ab6 5002 1cbb
000001a0: 30e8 9bbc 1a09 b93e 1ab5 40bc 2bc2 41b7
000001b0: 33d2 863e e53e b1bb e3a4 83b7 ef9e 113f
000001c0: 1346 0db7 d64a 56b8 649f e93e 81e5 06bc
000001d0: 27ae 073f 78a6 40be 5886 34b7 7dbf 12b9
000001e0: 11d7 0f3f ad64 ebbb 15dd 59b3 fbba 9cb5
000001f0: 3182 b5b9 4b04 3eb8 cca1 adbb df90 50b9
00000200: 4b62 83b7 a668 94bb 6ef7 10ba 6d7d 0ab9
00000210: b58a 47b8 fe16 52bd 50ec 2b3f 36ce 003e
00000220: b8b1 90bc 966a 09bb df72 f9b8 d5a7 3bbc
00000230: 4051 2fbc 315e ccb5 877d c8b8 9f26 4dba
00000240: f897 84ba da07 27b6 48fd f6ba 66b1 3ebe
00000250: a121 9ab7 d112 0abb b780 19bb 966f bdbb
00000260: 636f e23e fed6 85be 1f14 5abd 91f7 303f
00000270: f9fe 4fb7 bedd 5fb3 6147 ceba 6eef 0eb9
00000280: 63ae 83bd 7ecd 1fba 0154 5eb7 7acd b4b6
00000290: 65d1 86b4 3e80 8cba ba77 83bc ef15 13b6
000002a0: a48b 18bb b12e 84b9 3e80 1eb8 e757 7dbb
000002b0: a147 68b8 a62c 76bc d9cb 59ba 0cff 41b7
000002c0: 6b73 3bb9 60cd a13e 6da9 1e3c a3fd 6ab8
000002d0: 4cda 2f3f dd57 3cb5 ceaf 8eba a020 993e
000002e0: cf48 11bd ccfa c7ba a567 c0b9 92a2 beb5
000002f0: 9791 15bd 3e7a 8aba d576 aebb 6ee6 09b8
00000300: 8819 78bb aa1b e8b1 2fac 19b8 cb25 75be
00000310: 2de4 d43e 9c95 e53e b4c0 63bb 7dbd 70b9
00000320: 9ea9 54bb 00be e7bb 8d69 ed3e 350d 29b7
00000330: 3646 a9bc d989 15bb 32cc 03ba 5212 39bb
00000340: abc9 2bbc f67c 81be dd9c 5abc c31c 11bd
00000350: 05f0 abbe 8b3f 38b6 0492 c9bb 54b3 40b9
00000360: 81b5 813b 4f82 2bbc 5413 083f e9dc 293f
00000370: 045a feb9 39e4 62b8 6513 98ba 9ca0 6abb
00000380: afe2 bcb5 d13a 293f 86b5 cbb9 d3da bcba
00000390: 79b1 21b4 fa15 b7bd 32d5 083f a860 d13d
000003a0: 9d4b b0b7 ce33 2cbd ad56 fdb4 d3ff 80bd
000003b0: 14bf 28bb 9df9 27be b356 1ab4 248b 35b8
000003c0: 14a1 2bb9 f470 99bb 20f5 78bd 1109 abbb
000003d0: b6f3 cb3e 6297 61b4 e56a 2dba 4299 7cbc
000003e0: 8084 fa3e 0566 64bd 924e 1eb8 a6b6 75be
000003f0: 8a3a f33e 1b5f 8fbc fb08 03ba 02b7 033f

fc1.weight f4 [1, 300]
-0.0048044594 0.0011800833 -0.0010827589 -0.0044483137 -1.908647e-05 0.00045407197 0.010900378 -0.0065018623
0.00092536065 -1.3268423 -2.9809055 0.01261848 -1.1947125 -1.1411175 -0.0008282128 0.0003027715
0.027849426 -1.6502901 -0.979053 0.0033926163 0.03565235 -0.0034901444 -0.0016429934 -0.590785
-0.00014101002 -1.2573971e-05 0.00060543325 -9.457978e-05 -0.0038821124 0.0076764864 0.005596613 0.0003908105
-0.004808855 -0.0004963958 2.8470347e-06 -0.009468357 0.0100190565 -0.00011692218 5.0430543e-05 -0.91012627
0.023154898 3.406284e-05 0.00094201864 0.021917872 -1.8571476 -0.0110738175 -0.0008099423 -1.532675
-0.0020180747 -0.009878414 -0.0061234147 0.0018928922 -0.0020919775 -1.5834994 -0.014572162 -1.1966058
-0.0008566592 -0.0006535495 -0.0023134234 6.4462336e-05 -5.003438e-05 0.00024961802 0.0009472472 -0.010830705
0.004591144 0.004855223 0.0029420182 0.00043717242 2.164962 -1.7306001 -1.4056742 0.0018079783
0.008021518 -1.627256 -0.54266495 -0.0062453733 -0.004152679 0.0031640285 0.001585659 -0.00073607685
-0.007904802 -0.0034182637 0.036802746 -0.00010522915 -0.00094952947 0.008301488 -0.028536862 -0.0068153604
-0.0360727 0.01259864 5.222741e-05 -0.32016313 0.01803092 -0.02186141 -0.7650358 -1.0546838
-0.001501707 -0.0001687822 -0.003936523 -0.003970785 0.001731032 -1.0403814 -0.0016639336 -1.8814651
-0.012547964 -0.9003128 -0.018451009 -0.0003812229 0.8729255 0.0008484731 0.006277001 -1.0952221
-2.2182157e-05 0.00057492475 -1.20235 0.008778406 -1.8312382 -1.7012262 0.0006136997 -0.00025049777
-1.4210799 -0.00083741435 0.0010524301 0.0055258404 -0.0010444332 -0.006659583 0.002047872 0.00025156126
0.00042693442 -0.0061467616 0.010562926 -0.0015277052 -0.0023070693 0.016190974 0.8466604 -0.6318808
-0.01983459 0.000105228966 0.011678677 0.0047326167 0.015874684 0.00021725189 -0.0005838968 -0.003840482
0.00014935646 0.014155932 0.0012782365 -0.9888986 0.006132748 0.0054981676 -0.00034524058 0.0076695075
1.3671556 -0.9386427 0.009079188 -1.5178604 -0.00019765666 0.002371932 0.0003546059 -0.0010210362
-0.68143314 0.00685116 0.001392699 -0.0012504103 -0.00089045963 -0.016048308 -0.014066898 -0.0025679744
-0.00020715488 0.0010851235 0.0057962458 -0.0068464 1.4490342e-05 0.018766752 0.00066421117 0.010548418
0.00024258698 -0.4927579 -9.317931e-05 -0.00036935988 -1.3002087 0.006061682 -0.0013893481 -0.67112994
0.022248901 0.00022551777 0.00015618546 0.00033025575 -0.0018472864 -0.0027118942 0.0002328447 -0.004884962
-0.018228449 0.0005529452 -5.9931805e-05 -1.8112113 -0.8772881 -0.9439312 -0.001400689 0.00065143825
0.021283751 0.0015418315 -1.0486367 -0.0056585507 -0.020697597 0.0030488004 -0.00035525934 0.009603185
-0.011313625 -1.7212895 0.010669165 0.01414302 -1.9083221 0.0030632557 -0.0024507665 0.00092875044
0.013909632 0.0052074795 -0.9321916 -1.7149035 -0.0040916214 -0.0013894496 0.0001499237 0.0055531836
-0.0067517236 -1.8243818 0.0005182922 0.0002788875 0.0024925258 -1.540154 -1.442305 0.74045014
0.00022551809 -0.6159925 0.0071255546 -2.0965889 -0.0012060606 -0.47295704 -0.0010447259 -0.008649159
0.0043521654 -0.0017802245 -0.36423787 -2.344166 -0.6372647 -0.0012154232 0.00779877 0.0018100307
-1.2475553 -1.4713738 -0.007136653 -1.4727609 -1.0326198 -0.032053314 0.015115842 -1.2283276
00000000: ba6e 9dbb 06ad 9a3a 5ceb 8dba 29c3 91bb
00000010: e21b a0b7 8210 ee39 8097 323c 930d d5bb
00000020: e793 723a f8d5 a9bf 28c7 3ec0 bebd 4e3c
00000030: 57ec 98bf 2310 92bf 6c1c 59ba 4ebd 9e39
00000040: 7b24 e43c b53c d3bf 38a3 7abf a856 5e3b
00000050: 3308 123d e8ba 64bb b659 d7ba b03d 17bf
00000060: 17dc 13b9 cbf4 52b7 f0b5 1e3a 2259 c6b8
00000070: 0a6b 7ebb 098b fb3b cb63 b73b b3e5 cc39
00000080: 9993 9dbb 8f20 02ba af0f 3f36 2b21 1bbc
00000090: f826 243c 1e34 f5b8 6285 5338 09fe 68bf
000000a0: 57af bd3c b2de 0e38 cdf1 763a 1c8d b33c
000000b0: 03b7 edbf f56e 35bc 4f52 54ba b22e c4bf
000000c0: ad41 04bb 12d9 21bc eda6 c8bb ec1a f83a
000000d0: 8f19 09bb 1cb0 cabf 14c0 6ebc 612a 99bf
000000e0: 6d91 60ba f752 2bba ce9c 17bb f42f 8738
000000f0: 02dc 51b8 2adf 8239 af50 783a 4573 31bc
00000100: 4f71 963b 9018 9f3b e0ce 403b 4a34 e539
00000110: bd8e 0a40 4e84 ddbf 22ed b3bf aff9 ec3a
00000120: af6c 033c ed49 d0bf 17ec 0abf fda5 ccbb
00000130: 3213 88bb 975b 4f3b e3d5 cf3a 48f5 40ba
00000140: 2583 01bc f304 60bb 7abe 163d 78ae dcb8
00000150: d8e9 78ba f702 083c 23c6 e9bc 6353 dfbb
00000160: f8c0 13bd 876a 4e3c c10e 5b38 6cec a3be
00000170: 94b5 933c b316 b3bc 63d9 43bf e1ff 86bf
00000180: edd4 c4ba 20fb 30b9 f3fd 80bb 5c1d 82bb
00000190: cce3 e23a 382b 85bf 5918 daba d9d3 f0bf
000001a0: fa95 4dbc e67a 66bf 9226 97bc dfde c7b9
000001b0: 0c78 5f3f 116c 5e3a 4daf cd3b 3d30 8cbf
000001c0: d213 bab7 8cb6 163a 9be6 99bf 4ed3 0f3c
000001d0: 0366 eabf c8c1 d9bf b1e0 203a 3e55 83b9
000001e0: f2e5 b5bf ed85 5bba b2f1 893a 1c12 b53b
000001f0: 5de5 88ba a238 dabb 9735 063b fbe3 8339
00000200: 2bd6 df39 c66a c9bb 1f10 2d3c 483d c8ba
00000210: 3332 17bb efa2 843c bcbe 583f f1c2 21bf
00000220: 267c a2bc 5fae dc38 ec57 3f3c 1114 9b3b
00000230: a00b 823c 1cce 6339 a710 19ba 99b0 7bbb
00000240: 929c 1c39 48ee 673c 808a a73a 7528 7dbf
00000250: 38f5 c83b f929 b43b 6801 b5b9 7e50 fb3b
00000260: f4fe ae3f e34a 70bf e0c0 143c 4049 c2bf
00000270: 0e42 4fb9 6a72 1b3b 66ea b939 4ad4 85ba
00000280: 6772 2ebf b27f e03b 398b b63a cfe4 a3ba
00000290: bc6d 69ba be77 83bc d978 66bc 764b 28bb
000002a0: b737 59b9 b43a 8e3a 6fee bd3b c457 e0bb
000002b0: 8c1b 7337 bbbc 993c 751e 2e3a 46d3 2c3c
000002c0: f25e 7e39 c34a fcbe 4369 c3b8 a5a6 c1b9
000002d0: 3d6d a6bf 13a1 c63b c91a b6ba 2ccf 2bbf
000002e0: 5443 b63c f778 6c39 b7c5 2339 2d26 ad39
000002f0: a520 f2ba 09ba 31bb c627 7439 0812 a0bb
00000300: d453 95bc 86f3 103a 495f 7bb8 c6d5 e7bf
00000310: f495 60bf 7aa5 71bf 5397 b7ba 48c5 2a3a
00000320: 435b ae3c 4817 ca3a ba39 86bf 5d6b b9bb
00000330: 028e a9bc 62ce 473b 1a42 bab9 ad56 1d3c
00000340: c85c 39bc 3753 dcbf b9cd 2e3c 20b8 673c
00000350: e643 f4bf e7c0 483b 0a9d 20bb 6377 733a
00000360: 3ae5 633c 81a3 aa3b 1ca4 6ebf f581 dbbf
00000370: 0213 86bb 311e b6ba d634 1d39 7bf7 b53b
00000380: 903d ddbb 5885 e9bf 00de 073a a637 9239
00000390: a559 233b c423 c5bf 739d b8bf 248e 3d3f
000003a0: 0d79 6c39 afb1 1dbf 7c7d e93b 832e 06c0
000003b0: ae14 9eba 6d27 f2be 2fef 88ba 34b5 0dbc
000003c0: 9c9c 8e3b 6c56 e9ba 637d babe d106 16c0
000003d0: c823 23bf d64e 9fba d38c ff3b 8d3e ed3a
000003e0: e4af 9fbf fa55 bcbf 96da e9bb 6e83 bcbf
000003f0: e32c 84bf 564a 03bd 70a8 773c d739 9dbf
