Bipedal-Walker/weights-simple/checkpoint_critic_t.pth (torch_old, 799885 bytes, 11 tensors)

fcs1.weight f4 [600, 24]
00000000: da75 68ba a29e b037 dafe d438 7a2b 06b8
00000010: da7d 193b 2d68 8fb9 f955 ab39 a838 25b9
00000020: 13cf d5b7 307a f1ba 5bd0 94ba 474b 8238
00000030: 634f abba f3c8 2bb8 2d49 0638 54cc 0c38
00000040: 0c6e 1638 0677 2338 20d3 3a38 0484 6238
00000050: e687 8a38 8e9b ce38 3ad8 cb38 b937 36b7
00000060: f9e5 b73c 40e0 cabc 9c3e 0d3e ab40 783c
00000070: f493 933d d952 5e3c ba07 9e3d b696 543e
00000080: ffa3 85be 270e 97be 54b7 1abe 40d9 24be
00000090: 5d3f de3d af24 c93e 4591 853d bb1c 863d
000000a0: dd0a 8b3d 8dc0 963d dee8 a63d f1d7 ce3d
000000b0: b2b2 0d3e fd5a 653e a3e2 943d 2ef3 d03b
000000c0: a45d 603b d6d5 11be 8368 3e3f 4446 7b3e
000000d0: 16f0 9d3e 134e 56bd e663 d23e 8698 30bd
000000e0: db7c a73d cf6e d4be a147 943e c6f9 6f3e
000000f0: 75ff 423e 9d41 393f 9430 b4bc a389 303c
00000100: 06d2 183d 5ff1 353d c356 953d 8998 b33d
00000110: 752c c83d 9da5 283e 1ea9 213d 7e4e 4a3e
00000120: 3e54 373f 2261 a73e b4cf 033f 4026 1d3f
00000130: 203b e83e 7275 c9bd 4c04 da3e d95e ec3d
00000140: 592d 3abe 5565 eabd 6c53 55be 09e8 86bb
00000150: a570 bd3d f2b9 2f3e 131b 1d3d 40f0 433d
00000160: 5de9 823d 6728 953d c5ba fa3d 9a6c 183e
00000170: 7ea4 1b3e 71ad 593e 44b1 86be ed42 33be
00000180: 96d9 30b2 5001 81ae 3a01 d0b0 1c0e 1fb1
00000190: e536 57b2 ff80 c132 043c b431 c4b0 29b3
000001a0: e73c feb1 a078 fc31 e650 6eb1 5842 5db2
000001b0: af20 5cb2 2dca 7132 9bd2 942f e960 a52f
000001c0: 1630 ba2f 146d d42f a43f e82f 3237 ff2f
000001d0: 372c 2130 69c2 5f30 ee01 992f 523f da2e
000001e0: 5653 7338 660c 2a36 2110 a5b6 23e0 d736
000001f0: 7d33 be37 f7c8 5cb7 d767 59b8 b9ff 9037
00000200: aa9d cfb7 b301 ac37 7508 dab6 9e14 7d36
00000210: 7ec2 76b6 8108 5836 8048 bf34 8390 bd34
00000220: 6db7 b034 6a74 a234 a48c 7134 22ce 5534
00000230: 44a0 dc34 e85d 0835 9ded 8335 b6ca 2734
00000240: 5ce8 b9b7 56c7 dc34 db87 4a34 cf65 efb4
00000250: 7773 8a38 4dbb 3db4 59a1 3038 e9fe 0937
00000260: 5732 46b5 d948 7237 d967 86b7 9ffe 8e36
00000270: 69f0 3737 f8ac 82b7 7be0 b2b4 3138 bab4
00000280: e425 c1b4 ca02 c7b4 a232 ceb4 4fad cdb4
00000290: d903 bcb4 331e 95b4 7508 1934 6980 8bb0
000002a0: bfb0 95b0 a963 3ab0 943c c2b0 729f 8a2f
000002b0: e1ef 86b1 7fef 6f31 169f 7e31 1baf e62f
000002c0: 1d13 84b0 b5f4 8632 7821 b330 79e8 3231
000002d0: 28e0 8231 ea18 ca31 b6fb 08b0 25bf 50b0
000002e0: 87ec 4131 8f29 0fb0 7f36 1fb0 67c1 4cb3
000002f0: 197d 5cb0 32e1 80b0 8601 a4b0 50dc 07b1
00000300: 96c1 65be ca70 843c 2905 9bbe cce1 d23d
00000310: 97c9 8f3c 44b0 f53b 3f41 1a3d d85e 0abf
00000320: b8c1 d53e 8221 453e 8d7a 523e bc4a 87bd
00000330: 4ea9 e33d 1b1f b6bd cd00 9f3d 97a0 a43d
00000340: e4a2 b53d cb2e d43d a0bd e53d bc90 e23d
00000350: fcca c23d 8acf 863d 116c 113e b308 923c
00000360: fe9f b8b9 a24e dab3 7978 ddb8 57b4 bcb8
00000370: 0261 04ba 2855 4439 ab67 3a3a 5279 00ba
00000380: c86f b4b7 fd74 93b8 b6f9 dbb9 a7ee c939
00000390: d8bb a739 05eb 32b9 5071 5137 f3fb 4d37
000003a0: ea35 6737 24bf 8d37 f373 b237 aa47 eb37
000003b0: 5b9e 1538 de90 6d38 2bf0 ea37 99a5 f936
000003c0: dd77 d535 2ba3 b5b3 dc66 bbb6 620c 8134
000003d0: 1c98 dc36 1217 0738 8e3f 3737 2d09 c4b7
000003e0: a787 6036 cd8a 4cb5 3216 afb6 867c 9a36
000003f0: 15f4 8d35 71a8 30b6 6dc6 2f35 818b 3535
-0.0008867659 2.1054704e-05 0.000101564176 -3.198858e-05 0.002342096 -0.00027352702 0.00032679716 -0.00015756732
-2.5488005e-05 -0.0018423256 -0.0011353599 6.2129046e-05 -0.0013069924 -4.0956726e-05 3.201624e-05 3.3568896e-05
3.5865276e-05 3.8973078e-05 4.454248e-05 5.4005548e-05 6.605666e-05 9.85182e-05 9.72007e-05 -1.0861019e-05
0.022448527 -0.024765134 0.13793415 0.015152137 0.07205954 0.013569557 0.077163175 0.20760617
-0.26101682 -0.29502985 -0.15108997 -0.160985 0.10851929 0.392858 0.065218486 0.06548449
0.067891814 0.07360945 0.08149885 0.10099781 0.13837698 0.2239799 0.0726979 0.0063766455
0.0034235502 -0.14241728 0.7437822 0.24538523 0.30847234 -0.05232055 0.4109184 -0.043114208
0.08178111 -0.4149079 0.289609 0.23435125 0.19042762 0.7236574 -0.02199582 0.010775003
0.03730967 0.044419643 0.07291939 0.08769328 0.097741045 0.16469426 0.039467923 0.19756505
0.7161292 0.32691294 0.51488805 0.6138649 0.4535761 -0.09836854 0.42581403 0.11541528
-0.18181361 -0.11445109 -0.20832604 -0.004117016 0.09250001 0.17160776 0.038355898 0.047836542
0.06392167 0.07283097 0.12242655 0.14885178 0.15199468 0.21257569 -0.26307118 -0.17505999
-1.0294022e-08 -5.866474e-11 -1.513434e-09 -2.3145565e-09 -1.2527129e-08 2.2526818e-08 5.2455125e-09 -3.9509146e-08
-7.3992967e-09 7.3478787e-09 -3.4679544e-09 -1.2878978e-08 -1.2813117e-08 1.4074016e-08 2.7070687e-10 3.0082184e-10
3.386737e-10 3.864008e-10 4.2245774e-10 4.6423448e-10 5.863429e-10 8.14032e-10 2.783191e-10 9.92474e-11
5.8013327e-05 2.533919e-06 -4.919261e-06 6.4335923e-06 2.2673741e-05 -1.3159813e-05 -5.183354e-05 1.7285218e-05
-2.4749741e-05 2.0504789e-05 -6.497891e-06 3.7711939e-06 -3.6770066e-06 3.2191458e-06 3.5629273e-07 3.530914e-07
3.2916014e-07 3.0259554e-07 2.2496039e-07 1.9912162e-07 4.1094802e-07 5.08006e-07 9.829415e-07 1.5626833e-07
-2.216192e-05 4.112323e-07 1.886214e-07 -4.4591295e-07 6.60186e-05 -1.7670136e-07 4.2111937e-05 8.225187e-06
-7.3834e-07 1.4441285e-05 -1.6022403e-05 4.2615716e-06 1.0963625e-05 -1.5577752e-05 -3.3318415e-07 -3.4686084e-07
-3.597662e-07 -3.7068668e-07 -3.840733e-07 -3.8310324e-07 -3.5020528e-07 -2.7775386e-07 1.4252312e-07 -1.0150077e-09
-1.0891411e-09 -6.780803e-10 -1.4132575e-09 2.5215346e-10 -3.9271844e-09 3.4915215e-09 3.7052295e-09 4.1961176e-10
-9.609696e-10 1.5710933e-08 1.3033477e-09 2.6034555e-09 3.8089816e-09 5.881806e-09 -4.9834215e-10 -7.594159e-10
2.8219647e-09 -5.2082155e-10 -5.7921307e-10 -4.767335e-08 -8.021331e-10 -9.37723e-10 -1.1933003e-09 -1.9770319e-09
-0.22437128 0.016167063 -0.30277374 0.102969736 0.01755218 0.007497819 0.03765988 -0.5405097
0.41749358 0.19251063 0.20554562 -0.06606051 0.11116277 -0.08892652 0.077638246 0.080384426
0.088689595 0.103604876 0.11217809 0.11062762 0.095113724 0.06582554 0.1420138 0.017826414
-0.00035214418 -1.0165719e-07 -0.00010560541 -8.9981295e-05 -0.00050498557 0.0001872374 0.00071107846 -0.00049008906
-2.1509724e-05 -7.031297e-05 -0.00041956984 0.00038515517 0.00031992677 -0.00017062954 1.2483753e-05 1.2277614e-05
1.3781226e-05 1.6897517e-05 2.1273247e-05 2.8047554e-05 3.567185e-05 5.664012e-05 2.800681e-05 7.4400564e-06
1.5904621e-06 -8.4581494e-08 -5.5850087e-06 2.4037132e-07 6.574219e-06 3.2207994e-05 1.09224475e-05 -2.3369294e-05
3.345756e-06 -7.6197904e-07 -5.2179903e-06 4.604054e-06 1.0576356e-06 -2.632409e-06 6.548133e-07 6.763076e-07

fcs1.bias f4 [600]
00000000: 1ab1 0530 cd1d 07b5 0af4 0bb7 0c14 9635
00000010: 7030 7e2e 0888 81ac 28b9 e82a ff50 8a2c
00000020: ac28 4734 28a5 232f 7456 35aa d12f 8731
00000030: c4d1 53b0 3af6 03b5 6af5 c5b0 7bfd 61b6
00000040: 28c5 75b6 d0e5 3629 aa67 97b2 3ac3 8ab1
00000050: e09f 88b6 8528 6330 55fe deb1 60cd c42a
00000060: c5de e32e 76d5 9233 e0ce 99ab 0623 0335
00000070: 350a 1f31 8846 76ad caa7 4e2d 1811 5b36
00000080: 1ee9 e935 5765 832e ff0b bd2e 0224 88b2
00000090: 2287 9bac afc0 b62d df7c 9e34 48da 8231
000000a0: a63e 652a 6e27 3432 e3d9 28b4 ff7c d9aa
000000b0: 8fc9 8fb1 34eb 8b36 91b2 5cb0 2a08 11ab
000000c0: f2fe bb2b 29de 9eac 51fa f6a8 d0c8 4a2f
000000d0: 6b8a 57b6 07fa 57a9 0e14 3032 9b75 032b
000000e0: 48cc 85ab 0abc e0b6 7c38 c432 34aa 9a32
000000f0: da05 7a2c 7892 cf2d eb59 652e a297 8f30
00000100: 92df ebb3 6cef 77b4 b5fe 0d35 d8bb 9fb1
00000110: c4a7 6d32 bf34 8bb3 88e8 6336 b085 54ab
00000120: c9da f7af a94e a029 edc2 e2ad 513c ee32
00000130: d332 592c fa82 c4b6 c9f2 12b4 7985 6636
00000140: 32fd 80b0 2b3a 8c2a fcae c8ac fb1c 3036
00000150: 32f5 a134 3deb 4637 d916 b12d 768c 5231
00000160: 60ab 1e31 8214 6037 db9f 8732 b025 9faf
00000170: 03df f928 b4b5 ccaf 708e 08b3 70a8 0ab0
00000180: f5e3 0a2d 8406 e82f 4308 c7a9 0825 2132
00000190: a3eb 39a9 b291 e736 d43b 7cb2 6cd2 84a9
000001a0: a4dd ee2d 19f3 8c2e dec7 c0af ca37 1e32
000001b0: 0ee6 7934 cc4e a2b2 46c8 27a9 f04a 5cb3
000001c0: a3ec 3933 c3bd 98b2 f8c4 4db2 bb14 1937
000001d0: 22c3 6cb1 33c0 b329 7282 582b dbec 38ae
000001e0: 99f2 e036 fe52 4f2f 511f 8736 b242 9db3
000001f0: ba53 31b7 c055 512b d84a 0729 6530 372e
00000200: 0311 f42a bcce 45b6 4fc2 4a34 d08c 69ae
00000210: 201a aeb1 e5e3 9636 4eb4 6e37 c40b 51b0
00000220: ee82 f0b4 ee2b df2a 3a83 792e d99e 1aad
00000230: 1f79 f62f 1cd3 b129 c0f0 1e31 ad2b 84ac
00000240: 02ee 3432 2960 a0b6 83b7 21b2 c079 042c
00000250: cf89 5c2e bf74 9036 0696 3132 ae6f 8335
00000260: feaa a333 f9de ceaf ec58 4faa e8f1 3daf
00000270: 277a 20b2 6014 0b36 f203 35b2 80e3 9532
00000280: 8af0 9daf 9867 d235 ba2d b6b0 fffc 40b2
00000290: 4b43 b533 5269 1c30 e5cd 02b0 51ff 88af
000002a0: 6287 6c2b cfbc 2fac e842 4dad ad9f 57b2
000002b0: b00b 46b0 80e2 432e de4b e5ab 3881 22b1
000002c0: 2ff5 b5ab 738b 84a9 0d09 5fb3 34db b5ae
000002d0: 4fa7 60ad 2bad 17b8 be96 372d 80c8 ceb2
000002e0: 30f4 0836 07e3 b930 d2ed d92a 8301 962c
000002f0: b6fa 09b1 71ee 0f32 f59e 6630 7fc4 89ac
00000300: 075e 3036 20c2 18b1 029c 5c2a 58d9 2536
00000310: 8aa9 4836 5007 de2e 4207 3938 93ef 84b4
00000320: a283 69ae 10ef 13b1 33f6 8b31 76ff f5af
00000330: 8f38 a8af 4b97 8431 f659 75ab 8547 4eaa
00000340: 4a06 4a32 75c3 f5b5 2365 1f36 788d 2ab1
00000350: c84d bc2b c65b 8333 5bc6 3a2d 5cc5 0bac
00000360: 43af ed34 a2fe 94af c161 822f 7bfa a5b5
00000370: a9f1 282d 819b e6b6 de48 472a 1537 002d
00000380: 078e 66b7 6219 5a2d 140b 94af baa8 1baa
00000390: b67f 96b2 c0af 472f 28a6 b935 c0ac 0231
000003a0: d48c a7b1 381c 08b0 cd3a beb2 055c 35b7
000003b0: 767f 93ae 3523 3d2b f6f1 b92a 70b9 22b7
000003c0: 68ae a82d a971 69ae a470 2534 7c41 66b5
000003d0: fa9a e4ae e80b 2f33 9f0e 5537 6a81 c2b6
000003e0: 40af 15af 83af 0f2c bdfa aeb4 7950 1131
000003f0: 7f59 b432 f0f0 cdae ab71 38af 1c3a 5a32
4.8636795e-10 -5.0334785e-07 -8.341865e-06 1.1181705e-06 5.7795935e-11 -3.681503e-12 4.1339957e-13 3.9311883e-12
1.8548116e-07 1.4883439e-10 -1.6106024e-13 3.934453e-09 -7.705945e-10 -4.915961e-07 -1.4403387e-09 -3.3675158e-06
-3.6622605e-06 4.061145e-14 -1.7625855e-08 -4.0385233e-09 -4.0717277e-06 8.26397e-10 -6.4899646e-09 3.4959102e-13
1.0362337e-10 6.837483e-08 -1.0928723e-12 4.885227e-07 2.3143347e-09 -1.3999142e-11 1.1747001e-11 3.2643493e-06
1.7427699e-06 5.975192e-11 8.596856e-11 -1.5848858e-08 -4.4203677e-12 2.0776573e-11 2.952065e-07 3.8083137e-09
2.0361021e-13 1.0486344e-08 -1.5725486e-07 -3.8633677e-13 -4.1847623e-09 4.169904e-06 -8.028929e-10 -5.152568e-13
1.3357911e-12 -4.515295e-12 -2.7420044e-14 1.8443136e-10 -3.2118066e-06 -4.7956454e-14 1.0249108e-08 4.670376e-13
-9.506918e-13 -6.697611e-06 2.284309e-08 1.8005359e-08 3.5530385e-12 2.359822e-11 5.2148435e-11 1.0447716e-09
-1.09837075e-07 -2.3090769e-07 5.289724e-07 -4.6488644e-09 1.3833361e-08 -6.482286e-08 3.3960987e-06 -7.550306e-13
-4.5084494e-10 7.119073e-14 -2.577979e-11 2.7734275e-08 3.0865768e-12 -5.856503e-06 -1.3685634e-07 3.4350362e-06
-9.385188e-10 2.4909358e-13 -5.703769e-12 2.6242913e-06 3.016699e-07 1.185649e-05 2.0132717e-11 3.0638865e-09
2.3089441e-09 1.3356215e-05 1.5788762e-08 -2.894871e-10 2.774127e-14 -3.7236492e-10 -3.1794514e-08 -5.044347e-10
7.895008e-12 4.2205184e-10 -8.8388085e-14 9.379853e-09 -4.1282634e-14 6.9012976e-06 -1.4681934e-08 -5.89848e-14
2.7155896e-11 6.409646e-11 -3.506661e-10 9.209495e-09 2.3273626e-07 -1.8895115e-08 -3.725516e-14 -5.1290897e-08
4.328889e-08 -1.7781423e-08 -1.1977356e-08 9.124337e-06 -3.445344e-09 7.982538e-14 7.6919645e-13 -4.2047126e-11
6.7039623e-06 1.8856025e-10 4.0269592e-06 -7.323014e-08 -1.0569516e-05 7.437072e-13 3.0040938e-14 4.1652366e-11
4.335491e-13 -2.9475623e-06 1.8883405e-07 -5.3103133e-11 -5.0670366e-09 4.496879e-06 1.4227886e-05 -7.6050477e-10
-4.4798747e-07 3.964324e-13 5.6732598e-11 -8.789158e-12 4.48332e-10 7.8970007e-14 2.3128877e-09 -3.7565146e-12
1.0531496e-08 -4.779566e-06 -9.413159e-09 1.8825913e-12 5.0144607e-11 4.3051255e-06 1.0336867e-08 9.792764e-07
7.621382e-08 -3.7629613e-10 -1.8416144e-13 -1.7275392e-10 -9.341e-09 2.0724474e-06 -1.0536484e-08 1.7449338e-08
-2.8729047e-10 1.5676369e-06 -1.3255239e-09 -1.12333955e-08 8.44071e-08 5.690214e-10 -4.758632e-10 -2.491967e-10
8.4031924e-13 -2.4973806e-12 -1.1667757e-11 -1.2550953e-08 -7.204859e-10 4.453904e-11 -1.6292486e-12 -2.3647555e-09
-1.2928876e-12 -5.886168e-14 -5.1929465e-08 -8.2698653e-11 -1.2770076e-11 -3.616248e-05 1.0435817e-11 -2.4072733e-08
2.0407715e-06 1.3525047e-09 3.8711964e-13 4.2634242e-12 -2.0078637e-09 8.377911e-09 8.3899404e-10 -3.9155896e-12
2.6280775e-06 -2.2229258e-09 1.9594051e-13 2.4713427e-06 2.9901007e-06 1.009669e-10 4.4114196e-05 -2.476123e-07
-5.309498e-11 -2.1527207e-09 4.073422e-09 -4.4746756e-10 -3.059921e-10 3.8589056e-09 -8.716633e-13 -1.8321289e-13
1.17593775e-08 -1.8310808e-06 2.3751716e-06 -2.4818672e-09 1.3379792e-12 6.116856e-08 1.061692e-11 -1.9862645e-12
4.427221e-07 -2.710197e-10 2.371632e-10 -1.2366357e-06 9.603354e-12 -6.872637e-06 1.7700031e-13 7.288188e-12
-1.3742137e-05 1.2397501e-11 -2.6928915e-10 -1.3825304e-13 -1.7520374e-08 1.8161384e-10 1.3831932e-06 1.9015687e-09
-4.87635e-09 -4.9516613e-10 -2.214565e-08 -1.0809866e-05 -6.707428e-11 6.719515e-13 3.3030496e-13 -9.699128e-06
1.917684e-11 -5.3079017e-11 1.5407801e-07 -8.577697e-07 -1.0395769e-10 4.075619e-08 1.2699194e-05 -5.7967163e-06
-1.3613732e-10 2.041895e-12 -3.2592462e-07 2.114602e-09 2.0995456e-08 -9.36512e-11 -1.6775085e-10 1.2702483e-08

fcs2.weight f4 [300, 600]
00000000: 5189 a7b1 ccd5 d73a 70aa 25bb e3dc 8bbb
00000010: a088 e4a8 a2cd 8631 bd64 04ad 9adb 7131
00000020: 7772 893b 68e2 b528 3fc9 09aa 9d65 9b2a
00000030: e602 2f2a 1b1e 40bc e122 c232 f53d 8dba
00000040: b62e 49bc 55bb 12b1 2c83 8629 bb46 3232
00000050: fa48 2e3c bd3e 8aa7 f996 eaaa bc5c da2a
00000060: 2885 f42f 38ba a3bb de47 5033 66b8 a83a
00000070: eec0 0d35 334a aead 6a6c 9a31 12a4 3abb
00000080: 1614 8bba 0800 b7b0 cb91 07b2 ca2c 33ab
00000090: 9993 42aa 6450 eda9 50c3 a7bb dd5b b6b0
000000a0: 19f0 ea30 4cae bca8 e2d4 fe39 842d 522c
000000b0: 6fcd 74af c1e2 debb 2160 33b5 c11a d7b0
000000c0: 27ec bea9 be6c 3531 d997 6d2a ee28 b62a
000000d0: c139 b03b 0067 71b0 1e33 9835 2d9c f62d
000000e0: a4a1 14b6 fcab 2e3b c6ca 9531 78ae 9ea9
000000f0: e2e6 452a e136 d829 1ea5 492f d70c 22b1
00000100: 621e 2dba f9c4 1f3b a2ca cebb 5df1 8aaa
00000110: 2bd9 b2b0 7bf3 2a3a 8c31 ed3b 114e 6a28
00000120: 8e0c 92af 7281 1229 8492 68b3 05e4 0eaf
00000130: 94cf 69b0 f01b eaba 077b 9b29 1e9e 013c
00000140: ed92 88b3 8c34 06aa 9c3e 7d31 74ed 58bc
00000150: 02fe 85bb e4c6 3e3a c518 a3af 128b 85b4
00000160: a4ba 15b1 7af9 3fbc 9d22 ca2c dbde 60ac
00000170: d547 122d 2bf9 962a 60b2 cd34 2e32 5d33
00000180: 92ab 14b0 4373 20ad eef0 ef30 b3df 11b6
00000190: 9dd3 d630 2501 24bc 027b adaa 84c9 14ad
000001a0: 4a30 07af 506e 50ad 04dd 60b3 d671 19b1
000001b0: 39ea b0bb 0ae9 0dab c896 ecb0 386d c73a
000001c0: 7a1a 0db2 4bcd 2bb5 5d3b daac 8903 6abc
000001d0: d229 c9a9 416a b1a9 0c91 16b0 ba54 54a9
000001e0: f19c 20bc 9b27 3b2a 9658 32bc 5898 93b6
000001f0: 82af e2ba 7a90 632a b637 db2c 2e5e f6af
00000200: 4e05 2b2d ea0b febb c9fe e139 d2c5 3f30
00000210: 9bf1 d4ad 5f1c 47bc a15d 5a3b 6811 61ad
00000220: 0be8 f2b9 d072 3131 4e2d 66b3 bb6a 1fae
00000230: f04a 1d2a 8caf 59b0 5e6e 2130 a225 f428
00000240: 94f4 a530 748f 3fbc 9ada 93af 3547 8c28
00000250: 7cb2 3d31 343d d7bb de11 58b2 06f5 b3bb
00000260: fc6f 2cbb 728c 69b0 0320 b4a9 8065 c7b2
00000270: aa13 122c ab75 2cbb c064 352e 33ec fc2b
00000280: 7c76 e331 db4c 193b be17 c735 dae9 3e2a
00000290: d047 5fb2 0b8c a3ab 1797 2732 017f 0e2b
000002a0: 60f6 92aa b026 54aa 230b 9baf 6279 dfb7
000002b0: 127f d5af b023 50ab aca9 1fb0 9c2c 0a2a
000002c0: b491 e132 0ccc 2f2f 34c2 dbaa fe83 49b2
000002d0: 22b7 44aa dcb4 4b3c 2fbd aeac 251d 7f3b
000002e0: bc15 2bbc 0ea9 f430 58d0 96af b5dc f8aa
000002f0: 1d8b 0729 bd0e 902e 8e6f f1ad 6f08 ffa9
00000300: 6765 b8bb 6f6c b636 09c7 832a f495 713c
00000310: ad2b 053c 441d 85ae 0a24 653c a134 83ba
00000320: 7f71 982f 9847 3a2f 6756 f937 a2cf 012a
00000330: b60e 87a8 e119 9cb4 241d 57af de9f 5aae
00000340: ec9b 2e30 cd67 cc3b d570 99bb 79ce 56b6
00000350: e6cc a1b0 8e4c f43a 9a57 9b32 ad13 9cae
00000360: adfd 9bba 63ad 8caa 6bc5 9f2b 9b20 56bb
00000370: 47ea 402f 6748 3cbc 33a7 552a e3af a3af
00000380: de00 85bc 4ddd 3133 6a6b c8b0 f41c 47b2
00000390: 7438 0a33 e06c 512e 8075 1fbc 3d1a 48a9
000003a0: 9863 dda9 b615 cd29 72dc e6b0 d7c8 913b
000003b0: 8836 dc31 efe3 c331 b4b7 a7ab 03f7 00bc
000003c0: 2bcc 4136 50ce 39b0 8327 41bb 9944 4abb
000003d0: bfa6 31a9 5576 8ead d9fe fcbb 290a 8bba
000003e0: 6070 c12c bd6a 4c2a f814 eab9 a016 c22d
000003f0: b8bb 83ab 0f97 12a9 0261 1132 24ee 57a9
-4.8759508e-09 0.0016466915 -0.002527859 -0.004268275 -2.5372337e-14 3.923291e-09 -7.5257e-12 3.5194945e-09
0.0041945535 2.0193225e-14 -1.2237866e-13 2.760404e-13 1.5544128e-13 -0.011725928 2.2600434e-08 -0.0010775911
-0.012279203 -2.1352282e-09 5.97355e-14 1.0377046e-08 0.010637516 -3.8370715e-15 -4.1671508e-13 3.8788926e-13
4.4477955e-10 -0.0049965642 4.8494137e-08 0.0012872338 5.2807343e-07 -1.981446e-11 4.494315e-09 -0.0028479141
-0.0010610844 -1.3315011e-09 -7.891184e-09 -6.365573e-13 -1.728187e-13 -1.053886e-13 -0.0051197186 -1.3268352e-09
1.7093981e-09 -2.0947782e-14 0.00048605265 2.9868061e-12 -2.2264655e-10 -0.0068019335 -6.682258e-07 -1.5650913e-09
-8.478661e-14 2.640078e-09 2.1102511e-13 3.2358095e-13 0.0053779786 -8.782166e-10 1.133976e-06 2.8036318e-11
-2.2147806e-06 0.0026652804 4.3595234e-09 -7.046875e-14 1.7577218e-13 9.601847e-14 1.8339505e-10 -2.3581401e-09
-0.00066039537 0.002437888 -0.006310777 -2.4681204e-13 -1.3012927e-09 0.0006521267 0.0072385725 1.3006537e-14
-2.6566166e-10 3.2530788e-14 -5.4149965e-08 -1.2995834e-10 -8.505989e-10 -0.0017861109 6.9047246e-14 0.007911233
-6.359719e-08 -1.1919822e-13 3.6851935e-09 -0.013240207 -0.004089118 0.0007277562 -2.9667127e-10 -2.4874367e-07
-2.1788447e-09 -0.011717195 5.745028e-12 -3.1956024e-12 8.315089e-12 2.6818248e-13 3.831401e-07 5.150121e-08
-5.40859e-10 -9.12054e-12 1.7458015e-09 -2.1736894e-06 1.5630693e-09 -0.0100100385 -3.0816327e-13 -8.4575714e-12
-1.2295334e-10 -1.1847925e-11 -5.2355077e-08 -2.2329139e-09 -0.0053990153 -5.041667e-13 -1.7214115e-09 0.0015215045
-8.2133e-09 -6.4001205e-07 -6.2025233e-12 -0.014283069 -8.933448e-14 -7.878811e-14 -5.4775806e-10 -4.7146945e-14
-0.009803043 1.6622677e-13 -0.010885378 -4.3986765e-06 -0.0017294737 2.0211776e-13 6.2305395e-12 -4.4814058e-10
9.7214025e-12 -0.007752885 0.00043105174 6.9766515e-10 -2.4208904e-11 -0.01215276 0.0033319967 -1.2793634e-11
-0.00046330722 2.5822153e-09 -5.3592252e-08 -3.624721e-11 1.39704e-13 -7.919361e-10 5.87283e-10 2.7105762e-14
1.2074843e-09 -0.011691917 -2.689447e-10 1.5574003e-14 2.7604576e-09 -0.0065685753 -1.2576917e-08 -0.0054918556
-0.0026311865 -8.496449e-10 -7.999159e-14 -2.3212806e-08 2.0758764e-12 -0.0026315253 4.124412e-11 1.7971235e-12
6.6200396e-09 0.0023391757 1.4833565e-06 1.6956524e-13 -1.2996637e-08 -1.1620716e-12 9.755033e-09 5.062479e-13
-2.6105767e-13 -1.8842805e-13 -2.820225e-10 -2.6640195e-05 -3.8834763e-10 -7.394597e-13 -5.808498e-10 1.2272339e-13
2.6259706e-08 1.5988649e-10 -3.903697e-13 -1.1729751e-08 -1.7471834e-13 0.012433257 -4.966381e-12 0.0038927284
-0.010442194 1.7801385e-09 -2.7432878e-10 -4.4206796e-13 3.0096683e-14 6.55098e-11 -2.7448068e-11 -1.1325738e-13
-0.0056273225 5.436646e-06 2.3408383e-13 0.014745224 0.008128089 -6.0533384e-11 0.013985643 -0.0010010191
2.7729283e-10 1.6942037e-10 2.9723347e-05 1.1529539e-13 -1.499439e-14 -2.9076094e-07 -1.9564489e-10 -4.9709452e-11
6.352241e-10 0.00623796 -0.00468264 -3.2008668e-06 -1.1772527e-09 0.0018638538 1.8084211e-08 -7.097554e-11
-0.0011901163 -2.4989307e-13 1.1352424e-12 -0.0032673243 1.754553e-10 -0.011491871 1.8976209e-13 -2.9774502e-10
-0.016235765 4.1412296e-08 -1.4582444e-09 -1.1589908e-08 3.2181973e-08 4.76178e-11 -0.009732604 -4.443168e-14
-9.831648e-14 9.107595e-14 -1.6797357e-09 0.004448991 6.409042e-09 5.70116e-09 -1.1917052e-12 -0.007871392
2.8878083e-06 -6.7595796e-10 -0.0029473014 -0.0030863641 -3.9446524e-14 -1.6196081e-11 -0.00772081 -0.0010607886
5.497866e-12 1.8155872e-13 -0.0004464758 2.2065294e-11 -9.360212e-13 -3.2549535e-14 8.462168e-09 -4.7946144e-14

fcs2.bias f4 [300]
00000000: 5b55 883b 0255 dfba 0f35 47bc 22e0 0dbc
00000010: b88c a6ba a329 2ebb c2fe 31bc fadc 0dbb
00000020: 7532 5db9 336d f63e 7d4e 1d3e 5f23 83ba
00000030: 96cb 64be 6eda a13e d14c 81ba 5601 8c3b
00000040: f1d7 eabb 0455 1f3f 3882 b93e 89a1 f1ba
00000050: 51e0 09bb 13e0 e1b9 e2d5 0bba 6321 30bd
00000060: f041 73ba 4826 123a 67c3 73bc b4b3 82bb
00000070: edea 1cbc 1379 72bb 4d6c 4cbb bcf8 bcba
00000080: ccce 48bb 7d33 d1b9 30fe 96b7 3cd3 5dbb
00000090: 0409 973a 88f6 a7bb 5c4e deba fd5f af3e
000000a0: 8387 34ba 4cbd 28ba 3421 6bba bb89 0fbc
000000b0: eb71 5d3e 2a37 f8ba 1409 e4b9 d07a 8fbe
000000c0: 1ace acbc 81b8 d3ba 56be 96bb 2375 a9bb
000000d0: e9b7 10bb 8e4b 1b3f 4905 03bc 56de ec3e
000000e0: a0a2 20bb 35d0 32ba c5ad 4eba 33f2 2abb
000000f0: 0dde dfb9 c7c4 cbbb 4791 41bc 7b69 5ebb
00000100: ee7d aabb 04e1 34bb 3253 77bb a313 8dbc
00000110: b662 aa3f 7895 ff3e 5f50 ca3e 078c b3bb
00000120: b6a7 91ba 5272 c6bd 92b2 c13e 5e7e adba
00000130: 998f febb d50c f5ba 9cc7 25bb ad78 cbb9
00000140: bda7 3abb efd0 bdbb c8a5 ebbc a4e6 29ba
00000150: bbe8 1dbb 6147 31bb bbcb 96bc b037 bbbb
00000160: 4485 c3bb 0957 cfbb 7432 88b9 eb38 083b
00000170: 130e 14bc b4fe 33bc 350c d33e 0a3c 013f
00000180: 3cfb fcb9 413c 92bc 0c28 e6ba 8c33 f9bb
00000190: b290 65bb 4698 47bd 557a 57ba c964 78bb
000001a0: 8635 91bc 4017 c83e a63e 92bb a89f e6b9
000001b0: d58f 853e 4a58 08bc 6895 f2ba b912 043f
000001c0: f6f5 aab9 d36f 96b9 5d2d df3e 00c7 61bb
000001d0: 770d fc3e 6df0 36be 7ee8 faba 04c7 d8ba
000001e0: 9273 fb3e 79d2 42bc 7b7a 12ba 046b 5bba
000001f0: f8c5 9dbb 4752 8dba bfc9 c7bb 44dd d1ba
00000200: 9320 31b9 a090 52bb 22ed 99bb 9f33 12bb
00000210: 9916 47ba 9794 6bbc 34cb 303f ec4b 043e
00000220: cfab 2cbc 52c9 5dba 9b9c dfba 6bdf acbb
00000230: 33ad 9ab9 0299 feb9 ab50 67bb 5b34 9dba
00000240: 6be3 36bb 72d7 33ba 0310 45bc bf2e 37be
00000250: 6d07 f0ba 9b52 61ba e91d 00bc 6af3 b1bb
00000260: 71f0 df3e 1939 85be 0839 b0bb 3621 3b3f
00000270: b1d0 65b9 e733 33ba 970c abbb ff20 62ba
00000280: c73e 8abd 1e62 9bbb bcdc 00bb b71c 37ba
00000290: 48e1 48ba ad4b c1bb 8d28 bebc c117 77b9
000002a0: 1887 e6bb 4422 0dbb 087e 52ba 323f 00bb
000002b0: 431b b9ba b4d8 9fbc f401 3cbb 9892 31bb
000002c0: 5755 e8ba dd6c 8d3e df53 bd3b 682a cdba
000002d0: 4fa6 1b3f 013d 1dbb 420d 87bb 7965 8d3e
000002e0: e142 55bb 3daf ebbb 9768 aeba ef9e d0b9
000002f0: 12db d2bb e926 52ba 29de 18bc d03d 8dbb
00000300: 369e f0b9 824c a0b9 5ead feba a811 70be
00000310: fc55 c73e 87f2 c13e 1256 62bb 924e 19bb
00000320: 9bd2 8e3b b278 14bc 096e ca3e b3e1 daba
00000330: d0a7 48bc a426 63ba 4a92 8dbb d434 06bc
00000340: 0aea 2dbc c6e9 7dbe 9dc0 1bbc 9eaa f7bb
00000350: 1282 a9be 9ece 50ba 8165 a1bb d29f 86ba
00000360: d07b 7eb9 a117 95ba 1e44 f23e 6d1d 233f
00000370: 13f4 8cbb df83 54bb a13b d2bb 115e 0fbc
00000380: 30af a2ba 7088 213f 747d 16bb 58c6 73bb
00000390: 11a2 3bbb f296 c4bd 7334 043f 08d3 ac3d
000003a0: 26d7 82ba 7480 40bd 21a0 46ba 7646 aabd
000003b0: 60df e2bb a9dd 26be 3548 f7b9 f675 06ba
000003c0: 3acd c3ba e410 52bc c963 88bd 8e23 73bb
000003d0: 0a24 b83e 8896 b3ba d5ad 4cbb 5219 56bc
000003e0: 349e 073f ec9c 51bd 5303 3fbb cdd5 70be
000003f0: 4654 ed3e c923 55bc 7dc7 b5bb bb33 db3e
0.004160566 -0.0017038884 -0.012158646 -0.008659394 -0.0012706732 -0.002657511 -0.010863962 -0.0021646605
-0.00021094999 0.48130187 0.15361972 -0.0010005048 -0.22343287 0.3161196 -0.0009864812 0.00427262
-0.0071668555 0.622391 0.36232162 -0.0018434982 -0.0021038244 -0.00043082293 -0.00053343 -0.04300059
-0.000927954 0.00055751624 -0.0148781305 -0.0039887074 -0.009577495 -0.0036998435 -0.0031192482 -0.001441739
-0.0030640839 -0.00039901948 -1.7999759e-05 -0.003384783 0.0011523073 -0.0051258244 -0.0016960609 0.3425292
-0.0006886648 -0.0006436899 -0.0008969486 -0.008760865 0.21625488 -0.0018937339 -0.00043494313 -0.28023386
-0.02109437 -0.0016153009 -0.0046003265 -0.0051714345 -0.0022082275 0.6066216 -0.007996866 0.4626338
-0.0024510995 -0.00068211864 -0.000788417 -0.0026084303 -0.00042699315 -0.006218526 -0.011814422 -0.0033937383
-0.0052030003 -0.002759994 -0.0037738797 -0.017221278 1.3311374 0.49918723 0.39514443 -0.005479339
-0.0011112604 -0.096897736 0.3783155 -0.0013236513 -0.007768583 -0.0018695841 -0.0025295978 -0.00038809088
-0.0028481327 -0.005792729 -0.028765574 -0.00064812065 -0.0024095017 -0.0027050602 -0.018407693 -0.0057134256
-0.0059668142 -0.006327514 -0.00025977532 0.002078588 -0.009036559 -0.010986019 0.4122025 0.5048224
-0.0004825237 -0.017850997 -0.0017559542 -0.007605022 -0.0035028872 -0.048729204 -0.0008219828 -0.003790187
-0.017725717 0.39080238 -0.0044630347 -0.00043987972 0.26086298 -0.008321831 -0.0018507661 0.5159107
-0.00032608182 -0.00028693545 0.43589297 -0.0034450889 0.49229023 -0.17865153 -0.0019142774 -0.0016538803
0.4911161 -0.011891001 -0.0005587709 -0.00083701336 -0.0048148595 -0.0010781967 -0.006097048 -0.0016011377
-0.0001689217 -0.003212966 -0.004697458 -0.00223086 -0.0007594615 -0.014378688 0.69060063 0.12919587
-0.010539009 -0.000846048 -0.0017060222 -0.005275657 -0.00029502212 -0.00048560655 -0.0035295885 -0.0011993753
-0.0027906548 -0.0006860412 -0.012027743 -0.17888926 -0.001831276 -0.0008595378 -0.007819631 -0.0054306285
0.4373813 -0.26020125 -0.0053778924 0.7309755 -0.00021916885 -0.0006836042 -0.0052200067 -0.00086261326
-0.06750255 -0.004741921 -0.0019662818 -0.0006985175 -0.0007662964 -0.005898914 -0.023212695 -0.00023564605
-0.0070351474 -0.0021535316 -0.00080296444 -0.0019568917 -0.0014122505 -0.019512512 -0.0028687688 -0.0027095433
-0.0017725629 0.2762212 0.0057778205 -0.0015652897 0.6080064 -0.002399266 -0.0041214535 0.2761648
-0.0032541084 -0.007192521 -0.0013306317 -0.00039791266 -0.0064348066 -0.00080166623 -0.009330311 -0.004310347
-0.00045894244 -0.0003057458 -0.001943033 -0.23444235 0.38932788 0.37880346 -0.0034536165 -0.0023392779
0.004358602 -0.009061979 0.39537075 -0.0016699344 -0.012247041 -0.00086651207 -0.0043204175 -0.008191306
-0.010614881 -0.24796209 -0.009506372 -0.007558181 -0.33107048 -0.00079653587 -0.0049254303 -0.0010271019
-0.00024269451 -0.001137484 0.47317594 0.63716775 -0.004301557 -0.0032427234 -0.0064157997 -0.0087504545
-0.0012411829 0.6309881 -0.002296296 -0.003719708 -0.0028630535 -0.09599103 0.5164253 0.084386885
-0.0009982332 -0.046997502 -0.00075769617 -0.083142206 -0.006923601 -0.16295494 -0.0004716531 -0.0005129272
-0.0014938482 -0.01282141 -0.066596575 -0.003710005 0.35964996 -0.0013701478 -0.0031231542 -0.01306756
0.52975774 -0.051175043 -0.0029146268 -0.23519059 0.46353358 -0.01300902 -0.0055474625 0.42812905

fca1.weight f4 [300, 4]
00000000: 6663 b63c 8948 dd3c a3b1 d8bb b7fa 8b3b
00000010: d10d dc3b dec9 edb9 f33b 213b dd9f 4139
00000020: d5d4 663a 9734 ce3b 0896 a53b da6d 87bb
00000030: b13c 863c 1317 b5bc c904 d63a 33e9 53bc
00000040: cc33 fcba 287f 05b9 f4fa 8dbb b6a8 07bc
00000050: 9ac5 923a 87e1 eeba c306 3cbb cc0e 16bb
00000060: 70fa f7ba f524 b0ba f984 14bb d68e 30bc
00000070: d3dd f2ba 4f6b 06ba 9f76 77b9 1ebd 11bb
00000080: bf9a ebb6 4f92 8038 eb24 6d39 a63a 1eb9
00000090: 965a a33e acef e93e 14aa c3be 7975 073c
000000a0: fecb aebf 4702 8ebf ef98 bfbd a224 7bbd
000000b0: dcc5 8db7 f97b bdb9 b9f4 0b3a 415c ddba
000000c0: 4ae5 eb3c 93be 0abc 8e97 bebd 71a6 47bd
000000d0: dc6a f83e 31d4 363e 6781 b0be fa66 f8be
000000e0: 431b c039 d8cc 06ba 6620 ff38 2a22 7dba
000000f0: f4e2 13bc ffd6 a03c 9642 c23b a42d a93c
00000100: 87a9 5dbb efa9 cdbb a1c9 313b 7a4e f7bb
00000110: 7432 dcbe 5733 eebe 8016 933e 9ce2 7a3c
00000120: a5dd ccbc 61bc 113e f050 b53d ef97 25be
00000130: f61a be3a 5d64 ab3a 92c9 e93a c41e 1a3a
00000140: 0555 2c3a b612 3eba e397 323b a150 e5ba
00000150: 2a67 adb8 98e1 44b9 8d87 5639 ca57 89b9
00000160: 957f b7b9 c560 f4b9 aa6a 2d39 cbe7 93b9
00000170: 5116 673c d4cf ecbd c311 01be 315a 35bd
00000180: 8f74 703b a166 15bb 61e6 56b9 4ad6 b23b
00000190: e71e fb3a 9b3d 843b a510 593b f05c 003b
000001a0: e249 ddbc 347d 3b3a 48ed 6cba df57 4abb
000001b0: c398 15bc b8cd b53b 2ac7 3e3a 4a89 febb
000001c0: 76af e5bb 2f30 833b 0479 a4bb b5ba 09bc
000001d0: 02e7 efba 4a61 d53a 0eca 593a ea5a e0ba
000001e0: 09e6 b838 ed5b 22bb 0853 3e3a 548d 00bb
000001f0: 89e6 8fba e1c6 04bb 134d f3b8 20fe 91ba
00000200: 6960 0abb ffb6 0dbb ca0a af3a 3df1 61bb
00000210: 4333 3abb 469d bfba 2479 c93a 2120 c03a
00000220: c96e 9039 04d7 b4b6 0af0 08b9 9cb6 bab6
00000230: 9505 31ba 9654 22ba ce2e 373a 852e dcba
00000240: dac4 903c c723 153c e735 b93a ad67 963b
00000250: 616a edba 8ed7 1abb de80 5fbc 91a6 923a
00000260: 71f6 79ba b6c1 04bb 28ed 17ba c9f6 d2ba
00000270: 000a 80be 33c0 00bf 08de be3e f676 883e
00000280: 6587 0b3b 1793 c638 16d2 673b cc93 32b9
00000290: 6872 dbb7 6bd3 6f3a fc77 52ba 06f4 f4ba
000002a0: 8333 d5b9 6c3e 5fba bfed 1cba e338 39ba
000002b0: 863a 293b 90f0 4b3b 3282 beba 026f 0ebb
000002c0: f758 283d cc07 683c e126 f9bd efa8 403d
000002d0: a87d f4b9 d0dd ca39 7407 203a 68fb d5ba
000002e0: 0210 a0b8 eb19 9339 7981 9b39 9c0a 5b39
000002f0: aa1e 433d c204 d13d 4c7b 863d f0c7 36be
00000300: 2490 063c 2e65 b2bc 1e6a 0ebb 0438 9abc
00000310: 7405 1fb9 ddd9 83b9 e333 1bba e807 bbba
00000320: 5c40 993a 9f3d 32b9 17cb 443b c64a 12bc
00000330: c2f4 96bb d841 ecba 2b40 913b 6c45 38bb
00000340: b1f3 e33a 098e 2fbb 406f 40bb eaf6 adba
00000350: 883e 783d ec82 86bd fb8a 77be 58bd b43c
00000360: efc5 433b c038 383b afd0 5b3b f2ae c9bb
00000370: 4409 e43c fcdd 91bd a60d b2bd 353c 52be
00000380: b82e 6dba 3b1f 14bb 6f6d c439 0cb0 ca3a
00000390: db83 51b9 dda6 e4b9 1523 fbb8 86b0 c8b9
000003a0: 07fa ee38 c770 72b8 eb44 0bb9 c957 3cba
000003b0: 9617 0239 8615 9db9 2332 c038 dab1 70bb
000003c0: 93b9 6cba b684 b6b9 adec 05ba 7597 533a
000003d0: 3200 98ba 4be5 b5ba 5502 0a3b 3e4b d3bb
000003e0: 9ac4 f5bb c883 93ba d8ba af3b c73a f3bb
000003f0: c774 2e3b c669 933a 4d9c a1ba 06c2 43bc
0.022264194 0.027012127 -0.006612973 0.004271831 0.006715514 -0.00045354565 0.0024602383 0.00018465468
0.0008805518 0.0062928903 0.0050532855 -0.0041329684 0.016386362 -0.02210573 0.001632833 -0.012934017
-0.0019241511 -0.00012731238 -0.0043328945 -0.00827997 0.0011197806 -0.0018225171 -0.0028690554 -0.0022897003
-0.0018919241 -0.0013438748 -0.0022662266 -0.010776242 -0.0018529244 -0.00051276846 -0.00023599945 -0.0022237967
-7.0215606e-06 6.130768e-05 0.00022615834 -0.00015089902 0.3190505 0.45690668 -0.38215697 0.008267754
-1.3656003 -1.1094445 -0.09355342 -0.061314233 -1.6900645e-05 -0.00036141256 0.0005338896 -0.0016888456
0.028795857 -0.008468288 -0.093062505 -0.048742715 0.48519027 0.17854382 -0.34473726 -0.48516065
0.00036641405 -0.00051422184 0.00012165382 -0.0009656275 -0.009026278 0.019633768 0.005928348 0.020651646
-0.003382297 -0.006276361 0.0027128237 -0.007547197 -0.43007243 -0.46523544 0.28728104 0.015312817
-0.025008032 0.14232017 0.08853328 -0.1617124 0.0014503885 0.0013076175 0.0017836562 0.0005879218
0.0006573948 -0.0007250713 0.0027251176 -0.0017495343 -8.268499e-05 -0.00018776057 0.00020459127 -0.00026196084
-0.00034999536 -0.00046611406 0.00016538301 -0.00028210724 0.014104442 -0.115630776 -0.12604432 -0.044275466
0.0036690568 -0.0022796767 -0.00020494453 0.005457674 0.001915899 0.0040356643 0.0033121493 0.0019586645
-0.02701277 0.00071521406 -0.0009038043 -0.003087513 -0.0091306595 0.005548205 0.00072776026 -0.007767831
-0.007009442 0.0040035467 -0.005019309 -0.008406331 -0.0018303099 0.0016279605 0.00083080016 -0.0017116938
8.816651e-05 -0.002477403 0.00072602974 -0.0019615488 -0.0010978739 -0.0020260143 -0.00011601499 -0.0011138357
-0.0021114594 -0.0021623967 0.0013354656 -0.0034476065 -0.0028411902 -0.0014619015 0.0015371186 0.0014658013
0.00027548362 -5.389449e-06 -0.00013059392 -5.5644905e-06 -0.0006752846 -0.0006192414 0.00069878704 -0.0016798532
0.017671991 0.009102768 0.0014130444 0.004589996 -0.0018113368 -0.0023627016 -0.013641564 0.0011188557
-0.0009535319 -0.0020257062 -0.0005795532 -0.0016095276 -0.2500763 -0.5029327 0.3727877 0.2665326
0.0021290418 9.468773e-05 0.0035373024 -0.00017030461 -2.6160109e-05 0.000914863 -0.00080287433 -0.0018688447
-0.00040664905 -0.00085160765 -0.00059863547 -0.0007065667 0.0025822236 0.0031118728 -0.0014534651 -0.0021733646
0.04110047 0.014162015 -0.12165619 0.047036108 -0.00046632928 0.00038693706 0.0006104626 -0.0016325535
-7.632376e-05 0.00028057335 0.00029660368 0.0002088942 0.047636665 0.102059856 0.06566486 -0.17849708
0.008213077 -0.021776762 -0.0021730731 -0.018825538 -0.00015165453 -0.00025148588 -0.00059205125 -0.0014269324
0.0011692154 -0.00016998358 0.0030028278 -0.00892896 -0.004606814 -0.0018024994 0.0044326982 -0.002811755
0.0017391351 -0.002678754 -0.0029363185 -0.0013272439 0.06060651 -0.0656794 -0.2417411 0.022062942
0.0029872616 0.0028109998 0.0033541133 -0.0061548883 0.02783645 -0.07122418 -0.086940095 -0.2053078
-0.0009047794 -0.0022601623 0.00037465568 0.0015463843 -0.00019980913 -0.00043611872 -0.00011975147 -0.00038278493
0.000113952956 -5.780233e-05 -0.00013281747 -0.0007184712 0.00012406553 -0.0002996141 9.164612e-05 -0.0036727102
-0.0009030338 -0.00034812622 -0.0005108815 0.000807158 -0.0011596738 -0.0013877539 0.002105852 -0.0064481786
-0.0075002434 -0.0011254484 0.0053628497 -0.0074227783 0.0026619898 0.0011246733 -0.0012329906 -0.011948114

fca1.bias f4 [300]
00000000: 5b55 883b 0255 dfba 0f35 47bc 22e0 0dbc
00000010: b88c a6ba a329 2ebb c2fe 31bc fadc 0dbb
00000020: 7532 5db9 7774 0b3f f279 353e 5f23 83ba
00000030: 3c01 66be 8da4 b73e d14c 81ba 5601 8c3b
00000040: f1d7 eabb 8a56 253f 114b b53e 89a1 f1ba
00000050: 51e0 09bb 13e0 e1b9 e2d5 0bba d013 2ebd
00000060: f041 73ba 4826 123a 67c3 73bc b4b3 82bb
00000070: edea 1cbc 1379 72bb 4d6c 4cbb bcf8 bcba
00000080: ccce 48bb 7d33 d1b9 30fe 96b7 3cd3 5dbb
00000090: 0409 973a 88f6 a7bb 5c4e deba 3e90 ba3e
000000a0: 8387 34ba 4cbd 28ba 3421 6bba bb89 0fbc
000000b0: c574 613e 2a37 f8ba 1409 e4b9 82c4 8dbe
000000c0: 1ace acbc 81b8 d3ba 56be 96bb 2375 a9bb
000000d0: e9b7 10bb 7d44 1b3f 4905 03bc ea64 fb3e
000000e0: a0a2 20bb 35d0 32ba c5ad 4eba 33f2 2abb
000000f0: 0dde dfb9 c7c4 cbbb 4791 41bc 7b69 5ebb
00000100: ee7d aabb 04e1 34bb 3253 77bb a313 8dbc
00000110: 9b02 b03f 98fb 143f 9814 d43e 078c b3bb
00000120: b6a7 91ba 554c a9bd 2eb4 e13e 5e7e adba
00000130: 998f febb d50c f5ba 9cc7 25bb ad78 cbb9
00000140: bda7 3abb efd0 bdbb c8a5 ebbc a4e6 29ba
00000150: bbe8 1dbb 6147 31bb bbcb 96bc b037 bbbb
00000160: 4485 c3bb 0957 cfbb 7432 88b9 57a0 cc3b
00000170: 130e 14bc b4fe 33bc f974 c23e c945 0c3f
00000180: 3cfb fcb9 413c 92bc 0c28 e6ba 8c33 f9bb
00000190: b290 65bb e466 45bd 557a 57ba a94d 78bb
000001a0: 8635 91bc 26ad bd3e a63e 92bb a89f e6b9
000001b0: a4c0 853e 4a58 08bc 6895 f2ba 5a43 133f
000001c0: f6f5 aab9 d36f 96b9 56dd e73e 00c7 61bb
000001d0: f38c 083f 53d6 36be 7ee8 faba 04c7 d8ba
000001e0: bbd8 0f3f 79d2 42bc 7b7a 12ba 046b 5bba
000001f0: f8c5 9dbb 4752 8dba bfc9 c7bb 44dd d1ba
00000200: 9320 31b9 a090 52bb 22ed 99bb 9f33 12bb
00000210: 9916 47ba 9794 6bbc 8d86 2b3f de29 043e
00000220: cfab 2cbc 52c9 5dba 9b9c dfba 6bdf acbb
00000230: 33ad 9ab9 0299 feb9 ab50 67bb 5b34 9dba
00000240: 6be3 36bb 72d7 33ba 0310 45bc 4836 37be
00000250: 6d07 f0ba 9b52 61ba e91d 00bc 6af3 b1bb
00000260: b649 e13e 6039 85be 0839 b0bb dce8 303f
00000270: b1d0 65b9 e733 33ba 970c abbb ff20 62ba
00000280: 58ae 80bd 1e62 9bbb bcdc 00bb b71c 37ba
00000290: 48e1 48ba ad4b c1bb 8d28 bebc c117 77b9
000002a0: 1887 e6bb 4422 0dbb 087e 52ba b53e 00bb
000002b0: 431b b9ba b4d8 9fbc f401 3cbb 9892 31bb
000002c0: 5755 e8ba f4fd a43e df53 bd3b 682a cdba
000002d0: ddb8 303f 013d 1dbb 790c 87bb 1669 953e
000002e0: e142 55bb 3daf ebbb 9768 aeba ef9e d0b9
000002f0: 12db d2bb e926 52ba 29de 18bc d03d 8dbb
00000300: 369e f0b9 824c a0b9 5ead feba b6a4 71be
00000310: 345f d73e 4f41 e83e 1256 62bb 924e 19bb
00000320: 9bd2 8e3b b278 14bc b50d ec3e b3e1 daba
00000330: d0a7 48bc a426 63ba 4a92 8dbb d434 06bc
00000340: 0aea 2dbc 3364 7ebe 9dc0 1bbc 9eaa f7bb
00000350: 37f4 aabe 9ece 50ba 8165 a1bb d29f 86ba
00000360: d07b 7eb9 a117 95ba fe7b 083f 8681 2a3f
00000370: 13f4 8cbb df83 54bb a13b d2bb 115e 0fbc
00000380: 30af a2ba 8df4 283f 747d 16bb 58c6 73bb
00000390: 11a2 3bbb d6cb c2bd aae2 063f 08d3 ac3d
000003a0: 26d7 82ba f626 39bd 21a0 46ba 0442 65bd
000003b0: 60df e2bb e518 27be 3548 f7b9 f675 06ba
000003c0: 3acd c3ba e410 52bc 8c7c 87bd 4a73 5fbb
000003d0: 4cef cf3e 8896 b3ba d5ad 4cbb 5219 56bc
000003e0: 27e3 fa3e 6d0f 57bd 5303 3fbb 5bd7 72be
000003f0: 8897 f13e c923 55bc 7dc7 b5bb 7e01 033f
0.004160566 -0.0017038884 -0.012158646 -0.008659394 -0.0012706732 -0.002657511 -0.010863962 -0.0021646605
-0.00021094999 0.54474586 0.177223 -0.0010005048 -0.22461408 0.3586773 -0.0009864812 0.00427262
-0.0071668555 0.64585173 0.35408834 -0.0018434982 -0.0021038244 -0.00043082293 -0.00053343 -0.042499363
-0.000927954 0.00055751624 -0.0148781305 -0.0039887074 -0.009577495 -0.0036998435 -0.0031192482 -0.001441739
-0.0030640839 -0.00039901948 -1.7999759e-05 -0.003384783 0.0011523073 -0.0051258244 -0.0016960609 0.36438173
-0.0006886648 -0.0006436899 -0.0008969486 -0.008760865 0.220172 -0.0018937339 -0.00043494313 -0.27688986
-0.02109437 -0.0016153009 -0.0046003265 -0.0051714345 -0.0022082275 0.6065138 -0.007996866 0.4910043
-0.0024510995 -0.00068211864 -0.000788417 -0.0026084303 -0.00042699315 -0.006218526 -0.011814422 -0.0033937383
-0.0052030003 -0.002759994 -0.0037738797 -0.017221278 1.3750795 0.581964 0.41421962 -0.005479339
-0.0011112604 -0.08266512 0.4408278 -0.0013236513 -0.007768583 -0.0018695841 -0.0025295978 -0.00038809088
-0.0028481327 -0.005792729 -0.028765574 -0.00064812065 -0.0024095017 -0.0027050602 -0.018407693 -0.0057134256
-0.0059668142 -0.006327514 -0.00025977532 0.0062447 -0.009036559 -0.010986019 0.37979868 0.54793984
-0.0004825237 -0.017850997 -0.0017559542 -0.007605022 -0.0035028872 -0.048193827 -0.0008219828 -0.0037888086
-0.017725717 0.37046164 -0.0044630347 -0.00043987972 0.26123536 -0.008321831 -0.0018507661 0.57524645
-0.00032608182 -0.00028693545 0.45286053 -0.0034450889 0.5334007 -0.17855196 -0.0019142774 -0.0016538803
0.5619008 -0.011891001 -0.0005587709 -0.00083701336 -0.0048148595 -0.0010781967 -0.006097048 -0.0016011377
-0.0001689217 -0.003212966 -0.004697458 -0.00223086 -0.0007594615 -0.014378688 0.67002183 0.12906596
-0.010539009 -0.000846048 -0.0017060222 -0.005275657 -0.00029502212 -0.00048560655 -0.0035295885 -0.0011993753
-0.0027906548 -0.0006860412 -0.012027743 -0.178918 -0.001831276 -0.0008595378 -0.007819631 -0.0054306285
0.4400155 -0.26020336 -0.0053778924 0.69105315 -0.00021916885 -0.0006836042 -0.0052200067 -0.00086261326
-0.062832534 -0.004741921 -0.0019662818 -0.0006985175 -0.0007662964 -0.005898914 -0.023212695 -0.00023564605
-0.0070351474 -0.0021535316 -0.00080296444 -0.0019568626 -0.0014122505 -0.019512512 -0.0028687688 -0.0027095433
-0.0017725629 0.32225 0.0057778205 -0.0015652897 0.6903208 -0.002399266 -0.00412136 0.29181737
-0.0032541084 -0.007192521 -0.0013306317 -0.00039791266 -0.0064348066 -0.00080166623 -0.009330311 -0.004310347
-0.00045894244 -0.0003057458 -0.001943033 -0.23597988 0.42064822 0.45362327 -0.0034536165 -0.0023392779
0.004358602 -0.009061979 0.46104208 -0.0016699344 -0.012247041 -0.00086651207 -0.0043204175 -0.008191306
-0.010614881 -0.2484291 -0.009506372 -0.007558181 -0.33389446 -0.00079653587 -0.0049254303 -0.0010271019
-0.00024269451 -0.001137484 0.533142 0.6660389 -0.004301557 -0.0032427234 -0.0064157997 -0.0087504545
-0.0012411829 0.65998155 -0.002296296 -0.003719708 -0.0028630535 -0.09511535 0.5268961 0.084386885
-0.0009982332 -0.04520317 -0.00075769617 -0.05597116 -0.006923601 -0.1631809 -0.0004716531 -0.0005129272
-0.0014938482 -0.01282141 -0.06615552 -0.0034095817 0.40612257 -0.0013701478 -0.0031231542 -0.01306756
0.49001428 -0.052504946 -0.0029146268 -0.23714964 0.47185922 -0.01300902 -0.0055474625 0.5117415

fc1.weight f4 [1, 300]
00000000: 8ccb 043c e88d ac3a 47c1 9cba 4249 16bb
00000010: a731 293b 0f2b 0b3b 01df b93b ee82 81b9
00000020: 9849 1b3a 275e a9bf f0c6 3fc0 0275 533b
00000030: b302 99bf dc44 91bf 05ac 53bb 5f69 773a
00000040: f106 953c 781e d2bf 4aac 7abf 1c26 7335
00000050: 533f a0ba f3b4 6eba faee 16bb 2268 18bf
00000060: 7297 d736 f21c 52b8 66a9 56bb 940d 8fb8
00000070: 7c74 0bbb 2615 203c f780 c83b 465a d639
00000080: 856a e53b 12e7 0c39 7bbc 9037 8bf5 2dbc
00000090: b6de 493b 2e84 fcbb 0372 873a 0eb2 66bf
000000a0: 36e1 01bb bbf3 6eb9 515c 6439 5300 a43b
000000b0: 1504 edbf e5df 42bc c14f 79ba eae5 c3bf
000000c0: 3371 8d3a 6aa3 22bc ccc6 a4bb c484 553b
000000d0: 821f 4dbb f265 cabf 6a07 35bc 20b7 98bf
000000e0: 5a3c 9a39 e85e 8aba c71b 7dbb 5889 b6b8
000000f0: 2512 5eb7 c569 1e39 43fe 3b3a 98cc 09bb
00000100: 7be1 273c 7904 c43b c77d fdbb 4b59 a838
00000110: 1c07 0a40 b96e ddbf 25c7 b2bf ef66 883b
00000120: da24 463c a5e8 cfbf abd5 0abf edd6 cabb
00000130: dd5f 15bb 1381 823b 29ac 073a 9798 a3ba
00000140: 4e4c 7d3b 165e 14bb 29af a73c 6439 d2b8
00000150: ec08 4338 de54 9cbb 73e5 1dbc 39f5 2bbc
00000160: 8e90 81bc e07d 413b 246b 4838 a0bb a2be
00000170: 1cb7 5d3c 7800 3fbc 637f 43bf b6ee 86bf
00000180: 26e7 10bb b75f fdba ab1c 92bb 1345 b0b9
00000190: ba70 6c3b 2a7c 85bf 6af9 4fbb 818e f0bf
000001a0: 8f62 89bb c2dc 65bf d1ad d4ba 1f30 64ba
000001b0: 5905 5f3f ca6f d83a 6622 b23b 4374 8bbf
000001c0: f5f4 21b8 cc75 933a 54d7 98bf 85ff 71ba
000001d0: dc76 e9bf 50ef d9bf 283f 713a 1f1f bfb8
000001e0: 9fe9 b5bf 08ec 8aba 6376 ca3a c9d5 f73b
000001f0: 6cf9 14bb 2b0d 2bbc 0e54 9e3b cad1 9239
00000200: 23fd 1a38 8536 103b 4eef 3e3c ff6c ccb7
00000210: d05b 8eba 9e25 613b e57e 573f dc1e 23bf
00000220: e617 c3bc d0df 1f3a 200e 403c 7f63 f0bb
00000230: fae6 9fbb a020 e538 95bf 98b9 6b96 67ba
00000240: dbba b8ba 446a 8d3c 4454 b43a c198 7dbf
00000250: f963 ec3b d043 f73b 43e6 52b9 203e fdb7
00000260: 80ac ae3f 02c4 6cbf aa60 b23b fd1c c2bf
00000270: 76bf 27b8 23a8 bf3b 92ad 4539 af85 51bb
00000280: a492 2dbf 8f7c ac3b 3213 223b 6760 9dba
00000290: c17b 83ba 7f31 9dbc 6f4f 95bc 0d9b 3fbb
000002a0: f929 983a c37a ef3a 48b3 1a3b e3a3 2fbb
000002b0: 2b8b 5fba 580b bb3c 6a2a 493b 0cf1 2b3c
000002c0: 8c97 33b9 72d3 fabe 7778 77bb 76c2 aab9
000002d0: 8933 a6bf ae91 c83b 5593 0fba 4505 29bf
000002e0: cf29 9cbb a9f5 ecb9 d21c 3bbb 97a5 8f38
000002f0: b523 1a3c 57c3 863a 292d 8fbb 6822 a4bb
00000300: b2db adba 9a6d cd39 f18c 9d3a 9494 e7bf
00000310: 96bd 60bf f01b 71bf b283 3bbc 8105 d139
00000320: 4393 6c3c 9779 333b b8a3 85bf 5ffd ecbb
00000330: a2af 1cbc 6552 353a 9a7d 6b3a 71c7 c63b
00000340: 82f8 debb 7a10 dcbf b2eb d33b ac85 c03b
00000350: cddc f3bf c0e9 ec3b 9db9 46ba 6dd3 e93a
00000360: 7aa6 c2bb 540f 7b3a c736 6ebf 745f dcbf
00000370: 3f56 60bb ffee d3ba 59a4 ad3a db12 a73a
00000380: fab2 7cbb 2f67 e9bf f86a 8b3a f6e8 e23a
00000390: df8d 303b 3745 c3bf 048f b7bf 5725 2d3f
000003a0: 1ae1 7f39 5fe0 1bbf cfd6 1e3c 2607 06c0
000003b0: 8e3f 78bb 7097 edbe ffd8 38bb 9fbe 38bc
000003c0: 864b 063b a15e 333b 01dc b6be b514 15c0
000003d0: 9a5e 23bf 7ed2 a4ba 2d06 d73b 2c2b 363c
000003e0: 2130 9fbf dd0c babf be76 07bc 1523 bcbf
000003f0: 6457 84bf 97ae 57bc b0d4 1d3c 65cb 9dbf
0.00810517 0.001316485 -0.0011959457 -0.0022931849 0.0025816949 0.0021235382 0.005672336 -0.00024702348
0.0005923747 -1.3231858 -2.9965172 0.0032265787 -1.1953949 -1.1349139 -0.0032298577 0.0009438004
0.018191786 -1.6415548 -0.9791914 9.058001e-07 -0.0012225903 -0.0009105943 -0.0023030625 -0.59533894
6.42513e-06 -5.009486e-05 -0.0032754778 -6.8213005e-05 -0.0021279147 0.009770667 0.0061188894 0.0004088452
0.0070012235 0.00013437521 1.7253906e-05 -0.010617624 0.0030802912 -0.0077061867 0.0010333661 -0.9011544
-0.0019818074 -0.00022788245 0.00021778165 0.0050049215 -1.8516871 -0.011894201 -0.00095104804 -1.5304539
0.0010791182 -0.009926656 -0.0050285812 0.0032580355 -0.0031299298 -1.5812361 -0.011049131 -1.1930885
0.00029418134 -0.0010556849 -0.0038621293 -8.7040185e-05 -1.3236456e-05 0.00015107456 0.0007171372 -0.0021026488
0.01024663 0.0059819785 -0.007735941 8.0274964e-05 2.156684 -1.7299415 -1.3967024 0.0041626613
0.012093747 -1.6242872 -0.5423228 -0.006190172 -0.0022792735 0.003982672 0.0005175495 -0.0012481388
0.0038650217 -0.0022639087 0.020469265 -0.0001002427 4.6499932e-05 -0.004770859 -0.0096372245 -0.010495477
-0.015816 0.002952449 4.77835e-05 -0.31783772 0.013532426 -0.011657827 -0.7636625 -1.0541599
-0.0022110431 -0.0019330893 -0.004458984 -0.000336208 0.0036077932 -1.0428517 -0.0031734356 -1.8793489
-0.0041926573 -0.89789975 -0.0016226118 -0.00087046804 0.87117535 0.0016512808 0.0054362295 -1.0894855
-3.8613525e-05 0.0011250316 -1.1940713 -0.0009231496 -1.8239398 -1.7026157 0.00092028314 -9.1133865e-05
-1.421192 -0.0010598907 0.0015446659 0.007563327 -0.0022731675 -0.010440151 0.0048317974 0.00028003595
3.6952213e-05 0.0022005152 0.011653734 -2.436945e-05 -0.0010861102 0.0034354697 0.84178 -0.6371896
-0.023815107 0.00060987193 0.011722118 -0.0073360796 -0.0048798295 0.00010925648 -0.0002913444 -0.00088343647
-0.0014093773 0.017262585 0.0013758023 -0.9906121 0.007214066 0.0075459257 -0.0002011294 -3.018888e-05
1.3646393 -0.92486584 0.005443652 -1.5165097 -3.9994215e-05 0.005848901 0.00018852044 -0.003197055
-0.6780188 0.005263872 0.002473068 -0.001200688 -0.0010031388 -0.01918864 -0.018226353 -0.0029236705
0.0011609189 0.0018270839 0.0023605395 -0.0026800565 -0.00085275125 0.022832558 0.0030695447 0.010494482
-0.00017127226 -0.48989445 -0.0037761012 -0.0003256981 -1.2984477 0.006120882 -0.0005476971 -0.66023666
-0.004765726 -0.0004519646 -0.0028551114 6.849615e-05 0.009407927 0.0010281604 -0.004369397 -0.0050089844
-0.0013264327 0.00039182307 0.0012020153 -1.8092217 -0.87789285 -0.94183254 -0.011444973 0.00039867687
0.014439407 0.0027385706 -1.0440588 -0.0072323526 -0.0095633585 0.000691688 0.00089832547 0.0060662557
-0.006804527 -1.7192528 0.006467306 0.00587531 -1.9051758 0.0072300136 -0.0007580759 0.0017839499
-0.0059402557 0.0009577174 -0.93052334 -1.721663 -0.0034231094 -0.0016169249 0.0013247832 0.0012746708
-0.0038558827 -1.8234614 0.0010636738 0.0017311859 0.002694003 -1.5255498 -1.434052 0.676351
0.00024402552 -0.6088924 0.009694769 -2.0941863 -0.0037879678 -0.464046 -0.0028205512 -0.011275916
0.0020491793 0.0027369636 -0.35714725 -2.3293889 -0.63816226 -0.0012574939 0.0065620155 0.011118691
-1.2436563 -1.4535176 -0.008268056 -1.4698206 -1.033917 -0.013164184 0.009633228 -1.2327696
