bipedal-walker/weights-simple/checkpoint_actor_t.pth (torch_old, 802640 bytes, 14 tensors)

fc1.weight f4 [600, 24]
00000000: 4b58 31bd 5171 53bd 5704 8abe eabd ecbd
00000010: 0763 373c c075 b53d 9195 5f3d 0d29 fe3d
00000020: 1f4b 623e f821 bb3d 418c 2dbd 70b6 f53d
00000030: c281 54be c87c 303d 24f7 99bd 04c2 973c
00000040: cfc0 c03d 9542 0f3e 21b3 f3bd cea8 87bd
00000050: 0e6d ce3d e0c7 3a3e 2f13 a33d 245e 193e
00000060: 1ec6 13be cd9d bebd 4325 ea3e 800a 43bd
00000070: 31c7 49be 330c dfbc 8dbe 57bd d96d f13d
00000080: d4ed 12be 2a8b 8a3c d631 2ebe 87a2 30be
00000090: 30a8 61bd 42fe 413e bffd 0b3e 727c 183e
000000a0: 7d1c 833d c5bc 43bd 5f8a c63d 043b 01be
000000b0: f28d adbd d293 3abd 2284 5f3e 701f 793e
000000c0: b232 24be 16ab e7bd 5f86 9a3e ddbc e83e
000000d0: dea1 aa3c 7943 fb3c b59d 0b3e f111 55bd
000000e0: 7929 e23c d280 b2bd 884f 57be a42f 57bd
000000f0: 0cce aa3d 9ea9 8d3c 9b5a 4cbe e399 8ebc
00000100: 644a f33c dd29 e8bd f660 adbd 876e 27bd
00000110: df85 2b3d 2d58 183e 9489 97be 3afd b6bd
00000120: bd7d 6f3d 3713 b43e 6055 323e abaa 8e3e
00000130: f889 13ba a9fc e4bd 1313 d43b f427 47be
00000140: 4664 8abe 077e e93d e200 563e d526 4abe
00000150: 0ade 373d dc87 81bd 1b53 f8bc 24a4 b9bd
00000160: d870 a83d e33f e4bd 6e7d ba3d 50ba 033e
00000170: e1df 323e 46a1 d93d 7375 87be 8d45 f3bd
00000180: 8b2c 7f3e 93a7 c43e 405f c7be bce7 413e
00000190: 4d35 943d a197 78bc 92d7 e9bc 4adc bf39
000001a0: 08cb c23d f4c0 723e d6c1 83bc a7a1 4dbc
000001b0: 8e3b 50bc dbd9 6d3d 7df6 803d a223 853e
000001c0: 6009 b83b cf5c 9d3e 9198 803e da5e 8ebd
000001d0: a388 3d3d 4d3e b33d ab2e 5a3e 4549 973d
000001e0: 919c c03d ab97 993d 00bc 063c 1c1e bc3e
000001f0: 6724 00bd af1e 43bd 0014 afbd dac3 9fbd
00000200: f810 e4bc 34b4 b1be 6c4b 1bbd a40d 83bd
00000210: df63 cdbb fa1b cc3c 20fa 963e 015d cd3d
00000220: ab61 ce3d eceb 433d dedd 963d a150 0f3e
00000230: 012d 3c3e 36b0 163e 7d55 093f 8587 9e3e
00000240: a297 1dbe 98ae 803b e6d8 65bd 11b9 3cbe
00000250: 7411 4dbd 1f95 73be dd8d 77be 0d2e 00be
00000260: 4568 073e 5ca5 113e a4c0 8b3d 32b8 efbd
00000270: f642 843c 92af 82bd 5f5d 87be d224 95be
00000280: 2acc 73be 3ecc 6ebe 0750 c0be 2196 bbbe
00000290: 2209 61be 8b0c 36be b919 d0bd 0b91 143f
000002a0: 4dba 8bbe fe5b 1fbb a84c 7f3e d214 a83d
000002b0: ba34 ad3d c246 343a 7741 9fbe 33ae 003d
000002c0: 760f 443d 0b85 ad3d 18f2 eebb e224 d5bd
000002d0: 9e00 1339 2447 fc3d 9377 a43d 0a53 6e3c
000002e0: 455a a13d 611c 8c3d fefa 46bd 05a5 2fbd
000002f0: a83f 39be 12d6 f13c f401 7b3e ba75 8c3e
00000300: 7940 94be 9cbb 2bbf e5a1 38be eef2 d6bd
00000310: 6c3f e8bd 93de 3cbd 5913 9ebd 8108 34ba
00000320: 4fb2 17bc 1a92 0e3d aa07 23bd 180c 05be
00000330: cd4e febb 8d23 ad3c 79e3 aabd c4fa 243e
00000340: 4bce 6d3d 4773 543b 3881 f3bc 048a 9abd
00000350: cce4 4dbc 7a6a babd 047b 1dbd 26f8 ae3e
00000360: 2a2a f5bd 6c5e 76be 1d6c 8c3e 9d12 07bf
00000370: 1841 89bd 7ecc 153e 1538 33bd b1d4 b63d
00000380: c618 dbbd 1119 043e 5729 e5bd a2f9 273d
00000390: 4f51 57bd 30d8 833c f559 ad3c b243 413e
000003a0: 5e2c 433d ebe4 543e 1cb3 1f3e 743d bbbd
000003b0: f433 133e e1c4 d5bd fb6d 2cbe 57e3 0c3f
000003c0: 5b4a d63d d3e3 7a3e 5de7 8abe 44bc 9f3d
000003d0: dc4a 153d 0961 57be f357 083e 8ff6 97bd
000003e0: 1111 393e f588 09be cb89 b43d 82ed 583d
000003f0: e3ca 553d 35c2 9a3d b6c2 1ebe 999f d6bd
-0.043297093 -0.05162174 -0.26956436 -0.11559661 0.011193044 0.0886035 0.054585997 0.124101736
0.22098969 0.091373384 -0.042370085 0.11997688 -0.20752624 0.04308775 -0.075178415 0.018525131
0.09411775 0.13990243 -0.118994005 -0.06623994 0.10079394 0.18240309 0.07962643 0.14977318
-0.14431044 -0.09307442 0.45731553 -0.047617435 -0.19704892 -0.027227497 -0.052671958 0.1178853
-0.14348537 0.016912062 -0.17011198 -0.172495 -0.055092037 0.18944648 0.13671015 0.14891222
0.06401918 -0.047787447 0.09694361 -0.12620169 -0.084743395 -0.04555113 0.21827748 0.24328399
-0.16034964 -0.11311929 0.30180642 0.4545659 0.020829137 0.030671822 0.13634379 -0.052019063
0.027607666 -0.08715977 -0.21026433 -0.052535668 0.083400816 0.017292794 -0.19956438 -0.017407363
0.029698558 -0.1133611 -0.084657595 -0.04087689 0.041875716 0.14877386 -0.2959715 -0.08935018
0.058469523 0.3517091 0.1741538 0.27864584 -0.0005628164 -0.111810036 0.0064720004 -0.19448835
-0.27029628 0.11400991 0.20898774 -0.19741376 0.044889487 -0.06324741 -0.030313065 -0.090645105
0.08224648 -0.11144998 0.09105955 0.12864041 0.17468216 0.106264636 -0.26456794 -0.118785
0.24919336 0.384091 -0.38939857 0.18936056 0.07236729 -0.01517287 -0.028545175 0.00036594487
0.095113814 0.23706418 -0.01608364 -0.012550748 -0.012709511 0.05806909 0.06297014 0.26003748
0.005616352 0.3073487 0.251164 -0.06951685 0.046272885 0.08752117 0.21306865 0.07387022
0.09404863 0.074996315 0.008223534 0.36741722 -0.031284716 -0.047636684 -0.085487366 -0.078010276
-0.027840123 -0.34707797 -0.037913725 -0.06399086 -0.006268009 0.024915684 0.29487705 0.10027505
0.100772224 0.047832415 0.073665366 0.13995601 0.18376543 0.14715657 0.5364607 0.30962768
-0.15389875 0.003927063 -0.056115054 -0.18429972 -0.050065473 -0.23787354 -0.2417521 -0.12517567
0.1322337 0.14223236 0.06823853 -0.11705054 0.01614521 -0.06381144 -0.26438424 -0.29129654
-0.23808351 -0.233201 -0.37561056 -0.36637977 -0.2197614 -0.17778222 -0.10161156 0.5803382
-0.27290574 -0.0024316306 0.24931586 0.08207096 0.084573224 0.0006876999 -0.31104633 0.03141613
0.047866307 0.084726416 -0.0072920434 -0.104074255 0.00014019242 0.123182565 0.080306195 0.014546165
0.07878546 0.0684135 -0.04857921 -0.042881984 -0.18090689 0.029521022 0.24512464 0.27433568
-0.2895544 -0.67083144 -0.18030508 -0.10495554 -0.11340222 -0.0461107 -0.07718534 -0.0006867722
-0.009258821 0.034807302 -0.03980223 -0.12992895 -0.0077608586 0.021135116 -0.08344168 0.16111284
0.058058064 0.0032417343 -0.029724702 -0.07545856 -0.012566756 -0.0910234 -0.038447395 0.34173697
-0.11970933 -0.24059457 0.27426234 -0.52762777 -0.06701869 0.14628789 -0.043754656 0.089272864
-0.106980845 0.12900187 -0.111895256 0.041009553 -0.052567776 0.016094297 0.021161059 0.1887348
0.047649734 0.2079045 0.15595669 -0.09142581 0.14375287 -0.10437942 -0.16838829 0.55034393
0.10463401 0.2450097 -0.2712964 0.07799581 0.036448345 -0.2103311 0.133148 -0.07420074
0.18072917 -0.13431151 0.088153444 0.05296088 0.05219544 0.07556573 -0.15503964 -0.104796596

fc1.bias f4 [600]
00000000: 8c67 febb 849b d6bd ed4c febd 1262 3abe
00000010: 1c1b 233d 6b9b 05bd 662a eebd f8f1 3e3e
00000020: f76c 063e 74fe 1c3d c622 5a3d c6fb d8bc
00000030: b007 0e3e f66e 4ebe 4581 f9bd 9f60 0a3e
00000040: 13cc 2c3e dacb 95bc 0873 87bd 08dc e33d
00000050: eed4 153e 87ab 90bd d295 b63d b5b3 a23d
00000060: a0df 84bc 8fe5 e5bd d353 863d b60e fdbc
00000070: ea6a 613d 3a7e 20be 9b96 a73d d69a 483e
00000080: d23a c8bd 4b2f 143e 1d44 be3d c209 e9bc
00000090: 8836 00be 726b d13d 814e 18be 02f0 023e
000000a0: 0fda 25be 9d77 39be 834b a13c 20ad d03d
000000b0: ac99 39be acb0 5a3d bf5c 14bb 0f24 f3bd
000000c0: 0e29 44bd a324 233e d7f5 11be d1e8 b3bd
000000d0: fc36 2e3d d301 28be 7e24 bb3c 8d6b 653d
000000e0: 2eff 853d 7fe6 ad3d 9a40 343e 8d2f 5e3c
000000f0: 692c 453e a353 edbd 6807 c53c e437 0cbe
00000100: 733e 50be 2540 b13c 0453 a63b bc83 07be
00000110: d9c2 c1bd ee37 1fbe f049 1c3d f333 f53d
00000120: 579d c5bd 9358 393e b003 29be e14c 30be
00000130: c66d 4e3e 72dc 753d ba04 dfbd 33d5 cebd
00000140: 2e37 48bc 8076 25be 04b3 d03d fb57 97bd
00000150: 0ce0 3f3e df9a 033e 9411 213e 6217 41be
00000160: 1122 0a3e 4ea3 02be 9764 c6bd 45c4 ac3d
00000170: 6c2c 36be 2520 8abd 2115 9f3d 01ba c8bd
00000180: b251 383e b15f f13d cf35 0abe 7b7d 133d
00000190: df5e 57be 4eec d83d 763e 86bd 1b1c 463d
000001a0: cbe2 b3bd c7ea 1c3e de3e 003c 6eea 14be
000001b0: 8c2e 48be f139 a8bd 4892 07bd 155b 90bd
000001c0: 9b32 1abd 1ee2 ddbd c6af 9dbb 928d bf3d
000001d0: 07c4 dbbd 8786 33bd 0990 d4bc dc2c 123e
000001e0: ec99 8abc 5a14 89bd 8df6 f83d efa2 013d
000001f0: be01 ae3d 6e9e babd 18d2 a5bd 2366 cc3d
00000200: b8ba 113e c306 863d 6d76 233d 7ea5 2bbc
00000210: efc6 2bbe a5a7 fd3c f3d4 143d 3987 e83d
00000220: a09a c63c 81b5 413e f03d 00bd 65d3 ff3d
00000230: af00 38be 465b 02bd 108f fabd 1175 803b
00000240: 27c6 38be d673 cfbd 784b 273e e88d b13d
00000250: a0f7 1f3e 1c23 ad3d 1bdc 063e 827a d3bd
00000260: ee21 8c3d fd5a 4bbe 6de9 16be 028f 48be
00000270: b6b7 fd3d 023c 4a3d 20d7 00be ef5a 653c
00000280: 9574 373e bde1 ecbd f009 0ebe d9ea 21be
00000290: d335 f8bc 09ef 343e 7a05 083d d5f1 bcbb
000002a0: e206 0ebd 327e 76bd ced8 b2bd 009e 443e
000002b0: 1e0c bdbd c6f2 97bd 2e79 84bd f8db 363e
000002c0: a78c 07be b83a 503e 9604 45bc fa09 a4bd
000002d0: 9718 f93d e887 353e 2df5 8fbd 30c6 ec3d
000002e0: 7e86 ebbd dba7 92bd f064 0e3e ad9e 0e3e
000002f0: 342f 41be 395b 09be 5d3c 27be ae55 bfbc
00000300: 713c ffbc fdeb cc3d 643c 503d 2d48 21be
00000310: c2f3 1cbc d167 fbbd ebbd a53c ce8f ab3d
00000320: 517d 3fbe 6a6e 543e 7bc9 943d aed9 50be
00000330: a426 c0bd 35aa 473e 5f68 353c 6fb0 2cbe
00000340: 44d6 cabd f046 36be 83a7 783d 813a f1bd
00000350: f148 453e 6370 6a3d 0c41 0bbe b70d 1d3e
00000360: b4a4 0bbd 5eec 16be adb6 25be e83c c5bd
00000370: 56d6 cf3d b639 253d 6dee 86bd 7778 92bd
00000380: cd62 35bd 58a7 0bbe 74f6 493e 363a 3bbe
00000390: 99f0 cebc a54d 0f3d 1238 6b38 c692 e3bb
000003a0: 3bf7 1bbe 0e82 b9bd 007c ecbd e0ab 393e
000003b0: d540 96bd d612 16be 3b1a 15be 4072 19be
000003c0: a610 1bbd 50e6 b2bd 6a6b 1abe c12a 9abd
000003d0: 6de4 2f3e 85c8 46be 1f93 a3bc 37ad 4a3e
000003e0: e2c9 083e 19dc 463d 581f b63d 85d4 9abd
000003f0: 9bdf 40be 31f4 06be c763 f0bd a998 193e
-0.0077638086 -0.10478881 -0.12417016 -0.18201473 0.039820775 -0.03261892 -0.116291806 0.18646991
0.13127504 0.038328603 0.05325582 -0.026487242 0.1387012 -0.20159516 -0.12182859 0.1351342
0.16874723 -0.01828568 -0.06613737 0.11125952 0.14632007 -0.07063966 0.08915295 0.07944433
-0.016219914 -0.112254255 0.06558957 -0.030890804 0.0550336 -0.15673152 0.081830226 0.19590315
-0.09776844 0.14471166 0.09290335 -0.028447036 -0.12520802 0.10225572 -0.14873697 0.12786868
-0.16196464 -0.18112035 0.019689327 0.10189271 -0.18125027 0.053391144 -0.0022638289 -0.11872112
-0.047890715 0.15931945 -0.14253937 -0.087846406 0.042532906 -0.16406946 0.02284455 0.05601077
0.06542812 0.08491229 0.17602769 0.013561142 0.19255222 -0.11588218 0.024051383 -0.13693196
-0.20336322 0.021637032 0.005075814 -0.13233846 -0.09460992 -0.15548679 0.03815645 0.11972799
-0.09649151 0.18100195 -0.16505313 -0.17216827 0.20159063 0.060024686 -0.108895734 -0.10099258
-0.012220187 -0.16158485 0.101903945 -0.07389828 0.18737811 0.12852047 0.15729362 -0.18856576
0.13489558 -0.12757608 -0.09687155 0.08435873 -0.17790383 -0.06744412 0.07767702 -0.098011024
0.17999914 0.1178583 -0.13497089 0.03600834 -0.21032284 0.105919465 -0.06554882 0.048366647
-0.08783492 0.15323935 0.007827489 -0.14542553 -0.19549006 -0.082141764 -0.03309849 -0.070486225
-0.037645917 -0.10834144 -0.0048122136 0.09353174 -0.107307486 -0.043829467 -0.025947588 0.14274925
-0.016919099 -0.06693335 0.12156401 0.031649526 0.08496426 -0.09112249 -0.08096713 0.099804185
0.14231384 0.065442584 0.03990786 -0.010476468 -0.16775106 0.030963728 0.036335897 0.11353917
0.024243653 0.18916894 -0.03130907 0.12491492 -0.17969011 -0.031825326 -0.12234318 0.0039202054
-0.18044339 -0.10129516 0.16337383 0.086696446 0.15621805 0.08453962 0.13169901 -0.10326101
0.06842409 -0.19858928 -0.14737482 -0.19585803 0.12388556 0.049373634 -0.12582064 0.013998731
0.17915566 -0.11566494 -0.13870978 -0.15812244 -0.030299103 0.1766931 0.033208348 -0.0057661333
-0.034674533 -0.060178943 -0.087327585 0.19200897 -0.09230827 -0.07419352 -0.06468426 0.17857349
-0.13237248 0.203349 -0.012025019 -0.080097154 0.12162893 0.17727625 -0.070291854 0.11561239
-0.11500262 -0.07160922 0.13905692 0.13927718 -0.18865663 -0.13413705 -0.1633162 -0.023356285
-0.03115675 0.10005949 0.050838843 -0.15750189 -0.009579601 -0.12275661 0.020232162 0.08377038
-0.18700148 0.20745245 0.07264992 -0.20395538 -0.0938237 0.19498523 0.011072247 -0.16864179
-0.09904149 -0.17800498 0.060706627 -0.11778737 0.19266106 0.057236087 -0.13599032 0.15337263
-0.03409262 -0.14738604 -0.16182967 -0.096307576 0.10148303 0.04033824 -0.06588445 -0.07151883
-0.044283677 -0.13638055 0.1972292 -0.18283924 -0.02526121 0.034986157 5.6080586e-05 -0.006944987
-0.1523103 -0.09058009 -0.115470886 0.18131971 -0.073365845 -0.14655623 -0.14560787 -0.14984989
-0.037857674 -0.08735335 -0.15080038 -0.07527686 0.17176981 -0.1941243 -0.019967614 0.19792639
0.13358262 0.048549745 0.08892697 -0.07560066 -0.18835299 -0.13179089 -0.11737781 0.14999641

fc2.weight f4 [300, 600]
00000000: 81fd c1bd 3ac9 f63d 1844 94bc 1eab 393d
00000010: 72af 8dbd 6e7e 89bd a2b2 8abc e0a9 f6bd
00000020: d2b8 10bd 1aae 5b3c 8185 e9bb 13c0 89bb
00000030: e69f b83c 5b83 e3bc f27e 98bd 5b8d 0ebe
00000040: 3b8e 293d 8e4e ed3d d101 e5bd eb3a 473d
00000050: 6dd9 b8bc 5f8c 38be 3481 b33c d08e 50bd
00000060: b229 04bd 234b dfbc 2344 6dbc ff93 43bd
00000070: aecc 20bd b072 b1bd 232c b4bc 152e e03d
00000080: a749 a1bd ed6e 2cbe d7a0 c33c facd d0bc
00000090: 8150 c83c 0caf d73d 143c 403d ab28 083d
000000a0: ad18 ea3d 1d38 c73d 9984 8bbd ea6a aa3d
000000b0: 9978 583d 736d c4bd 5044 0c3d 6b4d 823d
000000c0: e711 f23d 4f0a b9bd b290 25be 8128 fb3d
000000d0: 628b a9bc b6d4 d63d 31be be3c a180 763a
000000e0: c29c 27b9 1a53 a83c 6de4 adbc 1ed3 8ebc
000000f0: 2222 69bd 18d3 b4bd ea48 e7bc 6a12 a1bd
00000100: b632 8bbc 0631 e63c 7419 98bd 22da 9cbd
00000110: c6a2 00bd 6645 633b 6cc3 173d fc13 a23d
00000120: 6e75 50bb ea17 0e3c e7e8 abbc 585d 9b3d
00000130: 3adc 2b3d ae28 1f3c c5b1 acbd 9c43 5ebd
00000140: 4d5e 64bc 22ab 32bd e4fd 15bd c94a 673d
00000150: b570 b2bd 7b3a 5b3c e74a 0a3e 2d5d f33c
00000160: 230e 0f3b 3fef a1bd f384 3cba 4a43 98bb
00000170: 157c 183c 749d c9bc 5833 05bd 12c9 53bd
00000180: cbde e4bd a50d 053e 5779 89bd a333 cabd
00000190: 5ab1 513b 81c9 16bc 0e1d 35ba df9e 84bd
000001a0: d1e4 bcbd 0820 57bd 22b2 29be d203 adbd
000001b0: d85c 0ebc 5871 12bb 4288 9fbc 1a58 f63c
000001c0: 8d05 81bb 46fe 7e3d 6801 7ebd 2bdb 3bbb
000001d0: fde7 a0bd b2cf a93d f1f4 7b3d aa77 fc3c
000001e0: b471 e0bb 005c f3bc bcdf 163d b27b 1cbe
000001f0: 84ae 443b 4f8e 0f3c 9792 8ebc 8338 15bd
00000200: ec70 c9bc a41f 13bc 0155 aa3c 59e2 6ebd
00000210: bd85 78bd fa38 80bc 3f5e 043d 618f 35bd
00000220: d509 f4bd bfba 65bd 586b 083b 0fa6 31bd
00000230: 1e21 26bc 8a0a 1bbd 3bde fb3c ae66 933d
00000240: 48bd 033e 19d6 913d 755a 1fbe e9f1 94bd
00000250: 5e35 253d 1f22 a2bd b948 7bbd 7e32 363d
00000260: dcf4 a9bc f79b 80bd 9d5e b13c 68c6 9abd
00000270: 5caa 8cbd b2fd 0abe 172d 433c 7870 813d
00000280: bde4 473a a15c 12bd 5724 9dbd 0d18 c6bc
00000290: 816e b7bd d2b3 87bc 915a c93c 4b80 35bd
000002a0: 8e00 a0bd 88e6 973c 8197 86bc 67f4 153d
000002b0: 4035 b23d 42de f03d 65ac 87bd 7140 39bb
000002c0: e73d 58bd 7eba b3bc 94c0 333d 6317 73bd
000002d0: 3ea5 ae3b 230f f63d 3227 a43d 3845 963d
000002e0: ada6 31bd 0819 87bc 7287 5bbd 33cd 8cbd
000002f0: 4c48 173e 4d01 553d 10f7 1a3d af90 123c
00000300: 5341 c6bc 4c9c 6fbd dc97 7dbd 827e 3dbd
00000310: 9d29 c0bd 8523 903d a101 28be 52cd 1ebd
00000320: 9a73 b4bd 28db ab3c b441 c8bd 4dda f23c
00000330: 356e 133e d96e 03be 8840 bc3d d74f 3bbd
00000340: 4645 0cbe f0ea e03d ae93 c4bd ff89 1d3d
00000350: d28a 1fbd 7fa5 d5bc fc26 f1bd ec15 cbbd
00000360: 321e 90bc f881 053d 245e 9f3d c85c cb3b
00000370: 3c2f 8dbb a9c7 413c 9ad0 873d 071f 6dbc
00000380: f398 e13c d629 3bb9 7120 73bc 4a15 803d
00000390: 28e6 d2bd 99ab 86bc b537 92bd e162 ee3c
000003a0: 2929 183c 54a0 5abd c247 9cbc 4a3c 463d
000003b0: 9b3a 64bd a44d 203c 05cf a23d 78ea 553d
000003c0: 2820 643d fcc7 413c c279 9d3c dfaa 06be
000003d0: f471 36be 099b 9bbc b4db adbd 8db1 64bb
000003e0: d789 98bd 868e cd3c e1c7 5c3c 22d6 50bd
000003f0: d604 e1bd 412b 993b cb3b af3b c021 033e
-0.0947218 0.120501 -0.018098876 0.045329206 -0.06918229 -0.06713568 -0.016930882 -0.1204412
-0.03533251 0.013408208 -0.0071265106 -0.0042038052 0.022537183 -0.027772596 -0.07446088 -0.1392111
0.041395407 0.11587249 -0.11181987 0.048640173 -0.022564614 -0.18022297 0.021912195 -0.050917447
-0.032266326 -0.027257508 -0.014481577 -0.047748562 -0.039257698 -0.08664453 -0.021993702 0.109462894
-0.07875376 -0.1683919 0.023880405 -0.025488842 0.02445245 0.105314344 0.046932295 0.03324191
0.11430488 0.097275 -0.068124 0.083211735 0.052849386 -0.09591188 0.034244835 0.063624226
0.11819821 -0.09035169 -0.16168478 0.12263585 -0.020696346 0.1048979 0.02328405 0.00094033225
-0.00015984758 0.020547438 -0.021227086 -0.017434653 -0.056917317 -0.088293254 -0.02823301 -0.0786484
-0.016991954 0.028099548 -0.0742673 -0.07658793 -0.031405233 0.0034678816 0.037051603 0.07913968
-0.0031808275 0.008672694 -0.02098508 0.07586163 0.04195807 0.009714289 -0.08432344 -0.054263696
-0.013938499 -0.043620236 -0.036619082 0.056467805 -0.087129034 0.013380642 0.13505135 0.029707516
0.0021828495 -0.07906961 -0.0007191442 -0.0046466934 0.009306927 -0.024611212 -0.03251967 -0.051705427
-0.11175307 0.12993486 -0.06712597 -0.0987313 0.003199658 -0.009203316 -0.00069089315 -0.06475615
-0.09223331 -0.05252078 -0.16571859 -0.08447994 -0.008689128 -0.002234539 -0.019474152 0.030071307
-0.0039374293 0.062254213 -0.06201306 -0.002866457 -0.07856748 0.08291568 0.06151289 0.030818779
-0.006849492 -0.029706955 0.036834463 -0.15281561 0.0030011246 0.008761956 -0.017403884 -0.036430847
-0.024589978 -0.008979712 0.020792486 -0.05832133 -0.060674418 -0.015652169 0.032316443 -0.04432619
-0.11915938 -0.056086298 0.0020815935 -0.043371256 -0.010139732 -0.037851848 0.030745616 0.07197319
0.12865174 0.07120914 -0.1556185 -0.07272703 0.040334098 -0.07916664 -0.06134865 0.044481747
-0.02074664 -0.06279748 0.02165156 -0.07557374 -0.06868431 -0.1357334 0.011912606 0.0632028
0.0007625332 -0.03573287 -0.07672947 -0.02418139 -0.08956624 -0.016565237 0.024579318 -0.044311803
-0.07812606 0.018542543 -0.016429665 0.036610033 0.08701563 0.11761142 -0.066246785 -0.002826717
-0.05279341 -0.021939512 0.04388483 -0.059348475 0.005329757 0.12014606 0.080152884 0.07337421
-0.043371845 -0.016491428 -0.053595968 -0.06875076 0.14773673 0.052003194 0.037833273 0.008945628
-0.02420107 -0.058498666 -0.061912403 -0.046263225 -0.09382937 0.07038025 -0.16406871 -0.038770027
-0.08811112 0.020978525 -0.09778157 0.02964511 0.1439751 -0.12835254 0.09191996 -0.045730438
-0.136983 0.10982311 -0.0959848 0.03846168 -0.03895075 -0.026079891 -0.11775014 -0.09916291
-0.017592523 0.03259465 0.07781628 0.0062061287 -0.0043086093 0.011827388 0.066315845 -0.0144727295
0.027538752 -0.00017849295 -0.014839278 0.062540606 -0.10297805 -0.016439246 -0.071395315 0.029099884
0.009287157 -0.053375557 -0.019077186 0.04839734 -0.055719953 0.009784136 0.07949642 0.05222556
0.05569473 0.011827465 0.019223098 -0.1315112 -0.17816907 -0.018994825 -0.08489171 -0.0034895868
-0.07448166 0.025092375 0.013475389 -0.050985463 -0.109872505 0.0046743457 0.005347704 0.12805843

fc2.bias f4 [300]
00000000: e321 643c aef9 8cbc 7ae0 173d b3d0 b0bc
00000010: f5ae 1bbd b698 a33b f952 263d 5deb 853b
00000020: 367a 69bb d6e4 c9bc b27f ab3c e07e aebb
00000030: 7b76 d33c c1f1 203b 9e6d cfbb a2d8 9f3b
00000040: ce17 023d 23bd 21bd 62a6 0f3d 188c 07bd
00000050: 4ae2 13bd 301c 463c e19f 46bb c5b6 113d
00000060: 0343 e1bc 4440 a23b 1423 17bc a503 12bd
00000070: e4a9 dfbc ae01 b8bc d1d6 0c3d 3fe0 7d3c
00000080: a147 65bc 9643 00bd 9dbb fb3c 24d9 8ebc
00000090: 9fbe 2abd fa8e 0cbd 4834 fc3c 04b8 16bc
000000a0: aa51 d7bc 8c52 19bd 1599 d3bc eebf 59bb
000000b0: 1a72 643c efc0 963c 93f1 01bb 9efa 9c3c
000000c0: 83b4 c1bc a560 4b3c bd89 14bb f57e 313c
000000d0: 5d8a c9bb 4fe5 a13c 0ca6 8dbc df2c 0abb
000000e0: d4c0 e4bc 90bf 803b a196 f43b 5ae4 133d
000000f0: c968 82bc 7224 623c 2a80 d23c cde8 df3c
00000100: f4ae abbc c28e 3d3c d724 c3bb be04 083d
00000110: d119 c33c 9578 43bc 2ebc 033d e996 d13c
00000120: dff1 19bd 0753 fdbc 35d7 0abc b4d3 163d
00000130: c8ee 99bc 26c0 e2bc 31b4 05bd 21b9 c4bc
00000140: d311 8b3c b883 c4ba e8c1 dabb c018 90bc
00000150: ca40 6fbc f895 61bc 5728 7cbb e5ea eebc
00000160: 6eb5 1dbd d29c b5bc 3b21 0b3d 5425 25bd
00000170: 9ec4 e13b b544 5abd b407 b43c d4f1 82bc
00000180: 45ba 20bb 5306 003d fb13 143d a45b 1d3c
00000190: a909 efbb a3b2 11bc bd96 fb3c bca3 1dbd
000001a0: dfef e1bc cdd0 ee3c 426c 343c 7bff e93c
000001b0: ab24 1abd fc83 a83c 6672 17bc 3fd2 863c
000001c0: dd40 06bd 0aa3 05bd 8eb2 97bc bc1f fa3b
000001d0: 423c d3bb 9e62 16bd bbe5 4d3c 55cd 97bc
000001e0: d60e 18bd 3efe 833c 9908 e2bc fd92 6a3a
000001f0: 4876 14bd e9c7 d8bc ad62 93bc ebb8 02bd
00000200: 588b 5039 f3da c7b9 cb09 223c 8f89 21bd
00000210: 14cf 013c 0319 d1bc af65 c8bc 7c0e c53c
00000220: 4af3 b6bc 4f12 90bc c551 18b9 dd12 06bd
00000230: 208a 493c 5ecd 09bd 7997 213d 325a 2ebd
00000240: c313 b2bc 2343 003d d576 afb9 462a 44bc
00000250: 3c2b ef3b db4b 4b3b 7c50 f9bc 9cb7 4139
00000260: acab e63c 5733 3cbc a238 283c 2592 b4bc
00000270: ecd3 b63c ae40 a5bc ae5c 06bc 8cee 2bba
00000280: f100 f23b a674 bebc 1640 09bd e4a7 9b3c
00000290: 9fac b93c 134e b23c d937 013c cd53 fd3c
000002a0: 8405 7d3c 52e1 00bd d6c5 9c3c 29ae af3c
000002b0: c7fb 003c 49a4 90bc 8824 3c3b 643f cf3c
000002c0: 9853 033d f600 73bc ddf4 943c 73fd d83c
000002d0: 1495 583c f683 103d d216 183c 605b ec3c
000002e0: ee31 c73b 2481 f63b 854c 223c 90d2 0abd
000002f0: 5a23 a33c a994 103b 05ae afbb 6316 07bd
00000300: b863 0ebd 2c83 49bc c265 64bc e59d 97bc
00000310: 670d d9bb 17bd 203d 8799 e0bc d790 23b9
00000320: baae ad3c ce9b 053b cd84 c9bc ae3c e1bc
00000330: ba7b fe3c b01d 183d 9a88 013d e980 0cbd
00000340: d5b7 5abc 34e4 16bd dee8 19bd d317 82bc
00000350: 4575 7f3b ee72 96bc 5395 caba 8d69 3d3b
00000360: 4561 fa3c ab48 103d 0f07 393c d27d 07bd
00000370: fad1 683c f659 0a3a 2f5e 053d 34a1 63bc
00000380: 6d19 883b 8bbb 15bd 75e3 c1bb d7c1 a3bc
00000390: df1b 96bc 9cbf d33c cc82 0b3d 4667 15bb
000003a0: 578b 053d 150c a83c 1e8b 5fbc 8b5b 8cbb
000003b0: ac17 dbbc 8153 58bc 2042 413a 956c 9b3c
000003c0: f6cb 103c 64cf d2bc 9c5c 7a3c e928 c43c
000003d0: 8eb4 f63c 1607 fd3c 5bd1 153d 38e8 3dbd
000003e0: 831d 2a3d 3224 1abc bf52 043c 516b 18bd
000003f0: aa5e 8b3c 4edc 8cbb bddc 01bd e70c 22bd
0.013924095 -0.0172089 0.037079312 -0.02158389 -0.03800865 0.00499257 0.040606473 0.0040868954
-0.0035625822 -0.02464525 0.020934913 -0.0053251833 0.025813332 0.002455816 -0.006330206 0.0048781196
0.031760983 -0.039487015 0.035070784 -0.03309259 -0.036104478 0.012091681 -0.0030307698 0.035574693
-0.027497774 0.0049515087 -0.009224672 -0.035648007 -0.02730269 -0.022461738 0.034384552 0.015495359
-0.013994128 -0.031314455 0.03072911 -0.017437525 -0.041685697 -0.03431604 0.030786648 -0.009199146
-0.026284058 -0.03743224 -0.025829831 -0.0033225971 0.01394322 0.018402545 -0.0019827827 0.019162472
-0.023645645 0.012413179 -0.0022665106 0.010833492 -0.0061505274 0.019762663 -0.017291091 -0.0021083874
-0.027923979 0.003929086 0.0074642454 0.036106445 -0.015919106 0.013802635 0.025695879 0.027332688
-0.020957448 0.011569681 -0.0059553194 0.033207648 0.023816021 -0.011930604 0.032161884 0.025584655
-0.037584182 -0.03092338 -0.008474161 0.03682299 -0.018790618 -0.027679514 -0.032642547 -0.024014058
0.016976273 -0.0014992869 -0.0066759475 -0.017589927 -0.014602849 -0.0137686655 -0.0038476193 -0.02916474
-0.038503103 -0.022169504 0.033967238 -0.040318802 0.0068898937 -0.05328818 0.02197633 -0.015984453
-0.0024525088 0.03125603 0.036151867 0.009604368 -0.0072948528 -0.008892688 0.030711526 -0.038486227
-0.0275802 0.029152298 0.011012139 0.028564205 -0.037632626 0.020570748 -0.009243583 0.016457675
-0.032776702 -0.03262619 -0.018517759 0.0076331776 -0.0064463923 -0.036715142 0.012566979 -0.018530527
-0.037123524 0.016112443 -0.02759199 0.00089482946 -0.036245614 -0.026462512 -0.017991388 -0.031914633
0.00019888335 -0.00038119368 0.00989003 -0.039437827 0.007922906 -0.025524622 -0.024462549 0.024054758
-0.022332806 -0.017586855 -0.00014526311 -0.032732833 0.012300998 -0.03364312 0.039451096 -0.042566486
-0.021737939 0.031314027 -0.00033467138 -0.011972969 0.007298855 0.0031020555 -0.030433886 0.00018474314
0.028158031 -0.01148685 0.010267409 -0.022042343 0.02231785 -0.020172443 -0.0082008075 -0.00065586786
0.007385366 -0.023248982 -0.033508383 0.019000955 0.02266532 0.021765744 0.00788685 0.030923748
0.01544321 -0.031464882 0.019137304 0.02144535 0.007872528 -0.017656462 0.0028708298 0.025298782
0.032062143 -0.014831772 0.018183166 0.026488042 0.013219137 0.035282098 0.009282785 0.028852165
0.00607895 0.007522719 0.009905939 -0.033892214 0.019914318 0.0022061265 -0.005361321 -0.032980334
-0.034763068 -0.01229934 -0.013940277 -0.018507907 -0.006623912 0.03924283 -0.027416958 -0.00015598848
0.02120148 0.0020387056 -0.024599457 -0.027494755 0.031064857 0.037137687 0.031624414 -0.034302626
-0.013349493 -0.036838725 -0.037575595 -0.0158805 0.003897981 -0.01836535 -0.0015455879 0.0028902024
0.03056396 0.03522555 0.011293187 -0.033078976 0.014210219 0.00052776875 0.032560524 -0.013893414
0.0041534216 -0.036555808 -0.0059170076 -0.019989891 -0.018323837 0.025848202 0.034060284 -0.0022797151
0.032603588 0.020513574 -0.013644008 -0.0042833737 -0.026744686 -0.013203503 0.0007372219 0.018972674
0.008837691 -0.025733657 0.015280869 0.023945289 0.030115392 0.030887168 0.03657661 -0.04636404
0.04153205 -0.009408044 0.008076369 -0.03721172 0.017012913 -0.0042987233 -0.031704653 -0.039563086

fc3.weight f4 [4, 300]
00000000: daea 013e 049f 4ebe 72dd c93c 3628 83be
00000010: 7e1a bebd 1944 e63e b1b2 be3e 2594 913e
00000020: 055b d13c c565 ae3d b41c 313d e0c3 793e
00000030: 92c8 0cbd 44c3 34be e34a a4bd bff8 c2bc
00000040: 00a7 bfbd c797 f03e 4652 b83e e858 8b3d
00000050: a57a 5abe 5e20 ffbd 3f35 e0bd 7f3b eabb
00000060: d150 6f3e 5fe9 b63e 5d12 40bd 143a 023e
00000070: e868 b63d 02f5 80bc 2e84 ec3e 3a85 e63d
00000080: 41d8 8abd 05c4 bd3e 26db 9e3d 5d2c babc
00000090: 1452 35bf 7d0f 68bd 9d82 5a3c cb84 f03c
000000a0: 165d 193f 7bee 79be fc66 afbe 1a37 e53d
000000b0: bdfd 093e d707 46bd 84e9 a23b 5138 753e
000000c0: a453 673e 3b16 cbbd eba7 8fbc 1c12 943e
000000d0: 3cf9 15bd a47f de3c e1c4 c8be 2434 0ebe
000000e0: 894a 4c3d be2c 0abe 7b04 98bd 436b 53be
000000f0: fbbd babd 5707 d8be 3314 82bd 9d1e 06bf
00000100: c05d 22be 84b3 eb3c 3e1f c6bd 5b8b 8f3e
00000110: 7d1a 9cbe ec09 e7bc 4617 3a3e abc1 ae3d
00000120: 89a2 773d faa5 61bd 569c a43d cad6 6f3d
00000130: a7d7 1a37 359c 713d 6374 b93d 83c3 f1bd
00000140: 0b5d 4a3f 6d5f a03d 4a44 28bd e23f a6bd
00000150: ba86 a93e b47b 523e 6581 eebd 0260 d73e
00000160: ee93 1fbf 19b8 b83d f233 f43b 2081 d43d
00000170: 7c9b d73d 9120 cd3f 0ac7 8bbd 901d babd
00000180: a641 e4bd a639 c13e a19a dabd 1714 303e
00000190: fca8 2ebd 2d91 a63d 9f7c a3be a434 163e
000001a0: 263c 893e 915f 17bd f404 ecbd fe7b ee3d
000001b0: a99e c4be f3f4 d9bd a232 84be 228f 70bf
000001c0: 8d82 8e3e f177 82be 8ed7 f93d 5770 abbd
000001d0: 14db 953e eb94 1abf a20d ba3e 95f2 b63c
000001e0: 0944 b0be 0aa2 a13d e145 743d 05c5 6ebd
000001f0: ca72 a4be 0ad2 a13e 83be 833e 8ca0 0c3e
00000200: 956c 2f3d 5a81 ae3c 06b9 e53d 61ab e53d
00000210: b400 733c b145 a8be 93ad 6bbf 7982 0bbe
00000220: 0de7 883e 7112 503c dda8 103d e329 cc3d
00000230: 5172 62be 2b53 9ebd a29c 543e be9a 743e
00000240: 5efb 143d 3042 643f 5081 433e 7694 1b3e
00000250: 9c03 93be a0e2 003e 25d7 b73e e6af 5bbe
00000260: a8a2 f33d 7903 d4be f150 3ebe 8f46 183e
00000270: f830 c03c 6b5a 203e e68a 33bc e5f5 7b3e
00000280: 8784 2dbd 590a 6cbe 77ed 5fbd 1013 46bf
00000290: 6e0e 92be cc39 293e d8da db3d 33c8 d93d
000002a0: df58 bdbe f551 b13d 4f9d 2e3e e1db 5b3d
000002b0: a284 9fbe b715 b6be e503 8dbd cf65 cbbe
000002c0: 6c4a f4bc c1c7 b03e c17e f6bd 4e65 81be
000002d0: 627c a8bd 57ab e43d 62bb 2bbc 12a1 1bbf
000002e0: ffba a0bd a2a1 00bf 177e 02bd 61a6 97be
000002f0: 1653 5e3e ce57 ea3d fd2d 29be 9290 643c
00000300: a3b1 16bf 4d8a 973e 1745 8a3f 3054 ff3d
00000310: e718 093e 29bc 30be 8283 38be 628a 3cbe
00000320: eca0 ee3a e028 f5bd a03a d7bc ed06 223f
00000330: 5639 b03e 58ce cb3d 2095 37bd 12ee 0d3f
00000340: 3f22 e03e 72df acbc 49ba 80be bdfd 90ba
00000350: cae0 7abe 25c9 b13d cefd 3abf 743c 0c3e
00000360: f34c 79bd b96f 4dbd 2ed0 6f3e f356 8d3d
00000370: 0a49 0c3e 51d3 2fbe 01d5 d73e ba71 523e
00000380: 91f1 e63e 1078 2c3d d602 9e3e ae4f 9dbe
00000390: c5d8 463d 9af3 0a3e 4ee1 c9be 05a0 f9be
000003a0: a55d 823e 8dc3 40be f3f6 ee3e 20fd c73d
000003b0: 25e2 6dbe 1cd4 03be 2203 46bd 1ba1 01be
000003c0: 9796 143f 983c 64be 27d7 403d 3806 063f
000003d0: 31bf a5bc 29b7 65bd 7184 623e 7da5 99be
000003e0: 1cb8 8d3e 8125 a83d e174 66be 6ce0 013f
000003f0: c5e0 b4bc 7e41 523e 96ed 273e d666 56be
0.12687245 -0.20177847 0.024641726 -0.25616616 -0.09282397 0.4497383 0.37245706 0.28433338
0.025556097 0.08515505 0.043240264 0.24391127 -0.034370966 -0.17652613 -0.08022096 -0.023800252
-0.093580246 0.46990797 0.3600027 0.06804067 -0.21335848 -0.124573454 -0.10947656 -0.007148206
0.23370673 0.35724923 -0.046892513 0.12717468 0.08906728 -0.015741829 0.46194595 0.1125588
-0.067795284 0.37063614 0.07756643 -0.022726232 -0.70828366 -0.056655396 0.013336805 0.029360196
0.5990766 -0.2440738 -0.34258258 0.111921504 0.134757 -0.04834732 0.004971685 0.23947264
0.225905 -0.099163495 -0.017536124 0.28920066 -0.03661464 0.027160473 -0.39212707 -0.13887078
0.04987577 -0.1349363 -0.074227296 -0.20646386 -0.09118267 -0.421931 -0.06351509 -0.5239046
-0.15856075 0.028772123 -0.09673928 0.28036007 -0.3048896 -0.028202973 0.1817294 0.08533033
0.06045774 -0.05508993 0.08037631 0.05855445 9.229326e-06 0.05898686 0.09055402 -0.11804869
0.7904822 0.07830701 -0.04108075 -0.081176534 0.331106 0.20555001 -0.11645774 0.42065436
-0.623351 0.09019489 0.0074524814 0.10376191 0.10527703 1.6025563 -0.06825073 -0.0908767
-0.11145334 0.37739295 -0.106740244 0.17195164 -0.042641625 0.08133159 -0.31931016 0.14668518
0.26803702 -0.036956374 -0.11524382 0.116447434 -0.38402298 -0.106424235 -0.2581988 -0.93968403
0.27833977 -0.25482133 0.12199317 -0.083710365 0.29268706 -0.6038348 0.36338526 0.022332469
-0.34426907 0.078922346 0.059636954 -0.05829336 -0.32118827 0.3160556 0.25731286 0.13733119
0.04282816 0.021301914 0.11216931 0.112143286 0.014831711 -0.3286567 -0.9206173 -0.1362399
0.26738778 0.012699709 0.03531729 0.09968927 -0.22113921 -0.07730707 0.20762876 0.23887154
0.036372535 0.89163494 0.19092298 0.15193352 -0.2871369 0.1258645 0.3590633 -0.21453819
0.118962586 -0.414089 -0.18585564 0.14870666 0.02346085 0.15659492 -0.010958409 0.2460552
-0.042362716 -0.23050822 -0.054669823 -0.7737284 -0.28526634 0.16525954 0.107351005 0.10633888
-0.36981866 0.0865821 0.17052196 0.05367649 -0.31155878 -0.35563442 -0.068855084 -0.3972611
-0.029820643 0.345274 -0.12035895 -0.25272602 -0.08226849 0.11165493 -0.010481687 -0.6079265
-0.07848167 -0.5024663 -0.03185853 -0.29619125 0.21711382 0.11442529 -0.1652145 0.013950484
-0.588648 0.29597703 1.0802335 0.12467229 0.13388406 -0.17259277 -0.18018916 -0.18412164
0.0018205917 -0.11970687 -0.026273072 0.6329182 0.34418744 0.09951466 -0.04481995 0.5544139
0.43776128 -0.02110264 -0.25142124 -0.0011061948 -0.24499813 0.086809434 -0.73043525 0.13694936
-0.0608644 -0.050155375 0.23419258 0.0690135 0.13699737 -0.17170455 0.42154697 0.20551196
0.45106176 0.042106688 0.3086154 -0.30724853 0.04854657 0.13569489 -0.39429706 -0.48754898
0.2546207 -0.18824597 0.46672782 0.09765077 -0.23230799 -0.12873882 -0.04834283 -0.12659113
0.5804228 -0.2228874 0.047080185 0.5235324 -0.020232769 -0.05608288 0.22120835 -0.3000907
0.27679527 0.08210278 -0.22505523 0.50733066 -0.022079835 0.20532796 0.16399226 -0.20937666

fc3.bias f4 [4]
00000000: 5736 17bd d438 1d3c cfe3 403c e5b2 5b3d
-0.036917057 0.009596068 0.011773064 0.053637404

bn1.weight f4 [600]
00000000: 812b 363e 2847 f53e 8362 d03d 6522 153e
00000010: 7eb1 f43e b03a 143f 5a08 303f 2966 9d3e
00000020: 058f d33e 0f48 3c3f 0f79 863e 92f2 6d3e
00000030: 91db 2e3f b3f6 1b3f 864c f33e cb50 703f
00000040: 5666 5f3f d830 353e d35f 263f 38b6 083f
00000050: 1ec5 043f 9ae5 963e 969b aa3e 2197 353f
00000060: 280a 063f 388a 1c3f 0aaf 773f 6da9 da3e
00000070: bb9b 413e 53de 5a3f 5944 ca3e 5301 223f
00000080: 800b 2c3e 2a0c b73e 936b dd3e 759f 0f3f
00000090: aa7e b53d 99b2 7e3e 20e7 063f db97 e53e
000000a0: 6ff3 2c3f fe80 293f a100 113f 0412 ee3e
000000b0: d76e e33e f0ba 313e f623 803e 9d29 373e
000000c0: fb77 fc3e 079f df3e 3a01 ef3d bf90 0f3f
000000d0: be27 203f 5be1 ec3d ad7d 993d 8e90 dd3e
000000e0: ce92 d33a ff16 333f 56f6 8b3f b7af 4b3e
000000f0: 78b8 1a3f b74f ae3e 844d 6d3e c4c4 193f
00000100: e30c 243f 91c8 263f 6d39 8c3f 377e 753f
00000110: 4789 8b3e 83d9 113f 18a8 563f d1b0 283f
00000120: 5212 8e3d fd93 583f 9e53 323f 74d6 833f
00000130: 568c ce3e 8f69 743f 2f5b 363e 40fe eb3e
00000140: 9b5a 4a3e b775 143f 08a1 043f 7ebe 5d3f
00000150: 6d73 063f 0998 023f be9a 623e 7180 4f3f
00000160: 42da a63e 38d1 263e bb46 a13e 2120 1e3f
00000170: ab1b f03e a29e e43d ec80 393f acc0 2a3f
00000180: c3ff ce3e c0a0 ce3e 90c2 2b3f ca84 563e
00000190: 313c 383f 5167 fc3e 024e 1c3f 39ac 823e
000001a0: 17f7 0d3f 035e 2d3e 3a3b e33e 48ba 533f
000001b0: 7683 ad3d 91bb 053f 66c3 043f 7c1c 073f
000001c0: e2b7 1d3f 1212 2e3f aab3 4b3e 3ab1 6d3d
000001d0: 4ad8 4e3f a1fe e93e 8ac1 f63e d28c 013e
000001e0: 8760 ba3e 8c75 a13d 8481 683e 6376 0f3f
000001f0: bd21 de3e 3b7b 293f b37b d83e 514d 133e
00000200: a43b 873f 6f99 953d a369 a73e 1823 c63e
00000210: 2ea5 cc3e f9b9 273f ac92 393f 7cec be3e
00000220: 9d0e a43e 82fb 643f 0864 2b3f 137e 943e
00000230: 3fd2 ac3e 8e6f a73e 84ab b23e 4f0e 073f
00000240: 4c3b 023f 7217 023e 8318 9e3e c09d 343e
00000250: 2711 2d3f 1db3 f83d 8490 dd3e 89bf 173e
00000260: e0b1 843e 4870 293f 311b 913e e306 383e
00000270: 8d04 193f d6f8 443f 446d 603e 08f8 4f3e
00000280: c115 803d dee0 573e a2f8 0b3f d3c1 b53e
00000290: 04ca 903e d1b2 ca3e 7ae5 403f f079 4e3f
000002a0: 40bc 713e ca53 503e 9ac2 3e3f cfa1 8b3e
000002b0: dd49 013f 27ea 3f3f 0aff 033f f09a a6ba
000002c0: 4865 5d3f 8014 a43e 0e45 1d3f 7663 253f
000002d0: 4bb2 163f e247 0b3f b0cc 3e3e 4b04 373e
000002e0: 4b60 133f 80db 7c3f a1d1 253e 87cd 643f
000002f0: 16ec 553f e627 1b3e 7c30 543f 34fb a33e
00000300: 4adb 383f 4891 713f 3e84 4f3f 9d79 3c3f
00000310: 4b08 fb3e df2c 343f b9ac 1e3f f3bf dc3e
00000320: 5e2a 1f3f 4e69 363e a7a2 7d3f b9eb 413f
00000330: a8b9 053e 42a1 f23e 4338 b83e ef33 da3e
00000340: 874f b23e 02b6 d83e f3dc f43e 1e3e 603e
00000350: c2ea 3b3e 5bfd 813e e509 2e3f fbf5 093f
00000360: b724 153f 2560 183f c091 763e f295 323e
00000370: 4e3c f73e 4ca4 443f dea2 103f 5ae2 7e3e
00000380: 698c d63e 5699 473f c139 f13e 438b 093f
00000390: 0af4 7e3e 2eb3 2d3f 55aa 4c3f 1442 283f
000003a0: c556 1f3f b3c5 923e ffd1 fe3d b1c9 0a3f
000003b0: 4d15 d23e b5f8 edb9 0c22 f03e 99a0 043f
000003c0: d1fe 143f 3ac2 be3e 329d 103f e792 443f
000003d0: b183 cb3e ed55 4e3e 5ef2 cf3e 24f9 d33e
000003e0: 18df 1f3f 8c99 043e b858 163f e03e 2f3f
000003f0: 83a1 8f3e 86c1 413f 0d1d 273f 3458 9a3e
0.17790033 0.4790585 0.101750396 0.14563902 0.47791666 0.5790205 0.68762743 0.30742005
0.41320053 0.7354745 0.26264235 0.23237064 0.6830378 0.6092331 0.4751932 0.9387328
0.8726553 0.17694414 0.64989966 0.53403044 0.51863277 0.29472047 0.33321828 0.7093373
0.5235925 0.61148405 0.96751463 0.42707387 0.18907063 0.8549549 0.3950527 0.6328327
0.16801262 0.35751468 0.43246135 0.5610269 0.0886205 0.24872817 0.5269642 0.4484242
0.6755895 0.6621245 0.56641585 0.4649812 0.44420502 0.17356467 0.25027436 0.17886968
0.49310288 0.43676016 0.11670156 0.5608024 0.6256064 0.11566421 0.07494674 0.4327435
0.0016141774 0.69956964 1.0934551 0.19891249 0.60437727 0.34045193 0.23174101 0.60065866
0.64082164 0.6514979 1.0955025 0.95895714 0.27253172 0.5697252 0.8385024 0.658948
0.06937088 0.8460081 0.6965884 1.0299821 0.40341443 0.9547357 0.17808221 0.46092415
0.19761126 0.5799212 0.51808214 0.86618793 0.52519876 0.5101324 0.22129342 0.8105536
0.32588392 0.16290748 0.31499276 0.61767775 0.4689611 0.11163069 0.72462344 0.66700244
0.40429506 0.40357018 0.67093754 0.20949093 0.71966845 0.49297574 0.6105653 0.2552202
0.55455154 0.16930394 0.44381124 0.8270612 0.0847234 0.5223933 0.51860654 0.5277784
0.6160871 0.67996323 0.19892755 0.058030345 0.8079878 0.4570208 0.48194534 0.12651375
0.3640177 0.078837484 0.22705656 0.5604002 0.43385115 0.6620366 0.42281875 0.14384963
1.0565076 0.07304656 0.32697782 0.3869865 0.39969772 0.65518147 0.7248943 0.37289798
0.320424 0.8944627 0.6694951 0.29002437 0.33754155 0.32702297 0.3489648 0.5275621
0.5087173 0.12704256 0.30878076 0.17638302 0.676043 0.12143538 0.4327432 0.14819159
0.25916958 0.6618695 0.28341058 0.17971377 0.5977257 0.76942194 0.21916682 0.2030946
0.06254149 0.21081874 0.5467626 0.3549944 0.28279126 0.3958955 0.75350153 0.8065481
0.23606968 0.20344463 0.7451569 0.27271888 0.5050333 0.74966663 0.51561034 -0.001271097
0.8648267 0.3204689 0.61433494 0.6460489 0.58865803 0.5440656 0.1863277 0.17872731
0.57568806 0.9877243 0.16193248 0.8937611 0.83563364 0.15151939 0.8288648 0.3202759
0.7220961 0.94362307 0.8106116 0.7362307 0.49029765 0.7038097 0.61982304 0.43115196
0.6217402 0.17813608 0.9907631 0.7575031 0.13059103 0.47388655 0.35980424 0.42617747
0.348263 0.4232636 0.4782482 0.21898696 0.18351272 0.25388607 0.6798385 0.5389096
0.5825915 0.59521705 0.24079037 0.17440012 0.48288196 0.768132 0.56498516 0.24891034
0.41904 0.7796835 0.47114375 0.5372812 0.24897781 0.6785153 0.79947406 0.6572583
0.62241775 0.28666458 0.12442397 0.54214007 0.41031876 -0.00045389464 0.46900976 0.5180755
0.5820132 0.37257558 0.5648986 0.76786655 0.3974891 0.20149966 0.406146 0.41401017
0.6244979 0.12949198 0.58729124 0.68455315 0.2805291 0.7568592 0.652787 0.3014542

bn1.bias f4 [600]
00000000: adc9 aabd cc18 99be 4217 d5bd 53dc 08be
00000010: bfc3 afbe 6e7d 2b3e d516 43be fa5b 74be
00000020: a960 8bbe 7afd 5dbe c78d 23be 2d59 81bd
00000030: eda8 bfbd cbe3 aebe cad9 163d 2e83 56be
00000040: d932 1c3e b5d4 c9bd 4ede 73bd d5c5 e8be
00000050: 3f05 abbe 1cd3 9fbd fba0 48be 4bc9 b7be
00000060: 1ec6 a2bd 8848 1fbd 36e3 3bbe 7f87 2cbe
00000070: 0c67 623e 6397 6dbe c026 16be a89b 0bbd
00000080: b762 06be 00be aebe d035 52be 1668 41be
00000090: 8e1b 9abd b4a9 5abe 0f93 e4bd 6572 1abe
000000a0: 21e9 17be 41c9 95be 93af bbbe a15f afbe
000000b0: 944b 41be f5e9 c9bd 6b51 d7bd 2869 e7bd
000000c0: 37c9 e7bc df03 69be 8e6d babd 877b e2be
000000d0: 13d2 b63d 71c6 b0bd 962a b5bc 8e8a b5be
000000e0: b9cd 26bc 0eb6 aebe 570e 083e 5f0f 16be
000000f0: b727 1dbe 09ea f0bd 6dbc 023e 8073 51be
00000100: b8ae e7be 74b9 82be 0dc6 a33e 0867 91be
00000110: 058a e7bd 23ca aebe 5906 42be b8ed 7dbc
00000120: 86a0 00be a861 78be 7e17 22be daf9 45be
00000130: 722a 88be ac55 7a3d 6fe1 09be a4ee 30be
00000140: 7e76 32be fbb4 33be 1e17 9bbe ca35 8abe
00000150: 8e20 96be a87d 20be 115e 10be 00a7 3abe
00000160: 1cd2 9bbe d162 89bd 3bdd 25be 4fd8 9fbe
00000170: 8319 aabe 2411 b0bd 0c20 303e 0b8c 94be
00000180: 3c4c 70be b84e a6be a912 34be c686 00be
00000190: 2512 22bc fde5 e3be 64dd a2be 3c7d 18be
000001a0: 6389 77be c115 4ebe 0732 30be 9faf 80be
000001b0: f0d2 d23c 77dc 2b3e 6b3e 5dbe 2704 29be
000001c0: 573a 903d ae29 49be 8db8 ffbd b6a8 113d
000001d0: e0f6 1dbe 1c91 5dbe ef99 f8bd e7e3 aebd
000001e0: f6f7 23be 851a 83bd 186c aabd be46 5bbe
000001f0: c2db b8bd 3b00 103e 7d1a 16be 89d2 17be
00000200: d42f b3bc 6325 cfbd c312 c0bd 8648 ccbd
00000210: c878 aabe f442 51be c81b 93be 0881 8ebe
00000220: f31d 66be c54b 78be 4372 81be e51d 2abe
00000230: cdc5 b6bd 83db 21be 9f31 0bbe 00a5 9bbe
00000240: 68d0 55be 63bf 9cbd 855e 82be dd9c c43c
00000250: a59d 85be e21f 0abe ec7b 7abe 2250 d03c
00000260: bc8d 98bd 485b 6fbe 8275 02be 8b41 20be
00000270: e840 c3be f26f 9dbe 07ec cfbc 8131 59bd
00000280: 1f8c 22bd 2cd0 33be fd11 7fbe 18f0 e4bd
00000290: 260b 20bd 2244 6cbe 99ee 8bbe 8a04 40be
000002a0: 4243 29be 4c4b 0dbe 1167 93bd 4fa3 20bd
000002b0: 6cbf 4bbe 870d 8bbe 5693 20be 8947 30bc
000002c0: 32a4 22bd ff00 85be 5fbc 73be 0b22 bfbd
000002d0: 4116 ccbc 84ea 82be 6bc9 7cbd 332b 21be
000002e0: 2eca 29be 7e28 6c3e 2f0f 3fbe 7ba6 a5bd
000002f0: 5abc 4fbe d818 47be 186f 17bd bcf7 aebd
00000300: 1edf ba3e f5c4 58be 4004 0bbe cdf0 5bbe
00000310: d91d 6bbe 4453 87be 442a 3cbe fe2c 99be
00000320: a1de 73be d3ba 393c 746c a0be 1053 c9bd
00000330: f4b5 b9bd 4205 a6be 3b47 76be 356c 54be
00000340: 93f5 6bbe bbb9 1ebe fa7d fabd 8eb5 12be
00000350: 6de7 edbd 2df9 84bd c64b 8bbe 079b 35be
00000360: 814e 093e bf08 d0be fde8 06be a4fc 3abe
00000370: f7d9 91be e17c 49be 2d97 f5be d45b 62bd
00000380: e0bb f2bd af23 88be fdde bbbd 1c9b 30bd
00000390: d088 4abe f59f 5bbe 7bd7 44be cc50 3dbe
000003a0: b66c 7d3e c56a 15be d665 c0bd 2216 40be
000003b0: e5f1 59be 6341 6bbb c4fb 9bbe 499a 66be
000003c0: 2b29 13be 0086 b7be ae77 99be 2444 13be
000003d0: 039b 31be b526 4dbe b15e 0ebc 874e e5bd
000003e0: 3822 563e 3688 15be 2b07 dcbe bc35 81be
000003f0: 8976 87be 2e3c 6fbe ba68 91bd 935c 9f3d
-0.08339248 -0.2990173 -0.10404827 -0.13365297 -0.3432903 0.16747066 -0.19051678 -0.23863211
-0.27222183 -0.21678725 -0.15972053 -0.06315837 -0.09358392 -0.34158167 0.036828794 -0.20948479
0.15253772 -0.09855024 -0.05953818 -0.45463434 -0.3340244 -0.07803938 -0.19592659 -0.35895762
-0.07947944 -0.03888753 -0.18348393 -0.16848563 0.22109622 -0.2320228 -0.1466322 -0.034083992
-0.13123594 -0.34129333 -0.2052834 -0.18887362 -0.07524787 -0.21353799 -0.11160862 -0.150827
-0.14835025 -0.29255107 -0.3665739 -0.34252647 -0.18876487 -0.09859077 -0.10513576 -0.11299354
-0.028294189 -0.22755383 -0.09102927 -0.4423487 0.08926787 -0.086316 -0.022115033 -0.3545727
-0.010180884 -0.34123272 0.1328672 -0.14654301 -0.15347181 -0.11763389 0.12767191 -0.20454216
-0.45250487 -0.25532115 0.31987038 -0.2839892 -0.11305622 -0.34138593 -0.18947734 -0.015498571
-0.12561235 -0.24256003 -0.15829274 -0.19333592 -0.26594883 0.06111686 -0.13464902 -0.17278534
-0.17428014 -0.17549507 -0.30291075 -0.26994163 -0.29321712 -0.15672934 -0.14098383 -0.18227768
-0.30433738 -0.06708301 -0.16197674 -0.31219718 -0.3322259 -0.08597019 0.17199725 -0.29013094
-0.23466581 -0.32481933 -0.17585243 -0.12551412 -0.009892021 -0.44511405 -0.31809533 -0.14891523
-0.24173503 -0.20125486 -0.17206584 -0.25133988 0.025735348 0.1678332 -0.21605842 -0.1650549
0.070423774 -0.19644806 -0.12486372 0.035561286 -0.15426207 -0.21637386 -0.121387355 -0.08539563
-0.16012558 -0.064015426 -0.083213985 -0.21413705 -0.090262905 0.14062588 -0.14658542 -0.14826407
-0.021873392 -0.10114553 -0.093785785 -0.0997477 -0.33295274 -0.20435697 -0.28732133 -0.27832818
-0.22472362 -0.24247654 -0.25282487 -0.16612966 -0.08924446 -0.15806393 -0.13593148 -0.30399323
-0.20880282 -0.076536916 -0.25462738 0.02400058 -0.26096836 -0.13488725 -0.24461335 0.025428835
-0.07448909 -0.23374665 -0.12740138 -0.15650003 -0.38135457 -0.3074947 -0.025381101 -0.053025726
-0.03968441 -0.1755988 -0.24909206 -0.11178607 -0.039073132 -0.23072866 -0.27330473 -0.18751732
-0.16529563 -0.13798255 -0.07197393 -0.039218243 -0.1989724 -0.27158758 -0.15681204 -0.010759243
-0.03970737 -0.25977322 -0.23802327 -0.09332665 -0.024912955 -0.25569546 -0.061715525 -0.15739135
-0.16581032 0.23062322 -0.18658136 -0.08088394 -0.20286694 -0.19443071 -0.03697118 -0.08543345
0.3649835 -0.21168883 -0.1357584 -0.21478577 -0.22960605 -0.26430714 -0.18375498 -0.2991714
-0.23815395 0.011336046 -0.31332743 -0.09830296 -0.09067908 -0.32425886 -0.2405061 -0.20744403
-0.23042898 -0.15500538 -0.12231059 -0.1432707 -0.116164066 -0.06492839 -0.27206248 -0.1773492
0.13408853 -0.40631673 -0.13174815 -0.18260437 -0.28486606 -0.19676544 -0.479669 -0.055263355
-0.118522406 -0.26589724 -0.09173391 -0.043116674 -0.19778752 -0.21447738 -0.19222824 -0.18487853
0.24748501 -0.1459151 -0.09394424 -0.18758443 -0.21283682 -0.0035897128 -0.3046552 -0.22519793
-0.14371173 -0.3584442 -0.2997412 -0.14381462 -0.17344289 -0.20034297 -0.008689568 -0.111966185
0.20911491 -0.14602742 -0.4297422 -0.2523631 -0.26457623 -0.233628 -0.07100053 0.07781329

bn1.running_mean f4 [600]
00000000: 61ae 033f f49b 603e 487f f0be 0837 20bf
00000010: fea5 263f be58 b13f fb75 40bf bbb2 433f
00000020: 8bd6 503e 6fbd 213f 6de6 ab3e 9f81 003f
00000030: 5961 4cbe 659d a43d 97aa 7bbd 42a4 6a3f
00000040: 7d36 ca3e 2c4a 0e3e d07f 573f df8f b1be
00000050: 4bf1 113f 300f 7d3e afd5 483e 3dd2 773f
00000060: d68c 173f 693d 9cbe a5fc c53e 51a2 6c3e
00000070: d4c5 093f 63e4 563f 207f f43d 7561 153f
00000080: d449 d83e 9808 9b3f ab60 7cbd 7425 743e
00000090: dc7a 02bf a0df 03bd 5494 cf3f 2ef9 413f
000000a0: 6c4a c33e 7f43 27bf e2dd 2cbf 7aca d73d
000000b0: aaaa 893e 533f 043f 891b 95bf ac26 5bbf
000000c0: d081 8bbe 0ae7 0abe 72ce 3cbf ba37 debf
000000d0: 47f2 b43f dfcb 3dbf c270 3b3e e568 3c3f
000000e0: cbb5 fb3e a1ef 283f 8158 97bd 3ab6 33bd
000000f0: 75e7 613e 1b6c 673f a9d1 253f 8bcf 11be
00000100: 8ec3 a2be f0ea 7ebd 9230 b2be c4ae 3c3f
00000110: a872 053f 1945 d8bd 49fb 8f3e 24b3 9d3f
00000120: 6d3f 223f 957c 883f f464 353f 4e5f 38bf
00000130: 4e48 19be 2d05 753f ae4a d13d 1a2e 973f
00000140: 9880 b3be c9c1 bf3d ef4d 8e3e f6b1 ea3e
00000150: 7bf5 0d3f a207 373f 56cd df3e c7e2 293f
00000160: 881d ae3e c306 3cbf b7e6 76be 4fdb d43e
00000170: ecf7 22bf 67a6 0dbf 0c9a e63e 4d89 be3d
00000180: d9cd 633f f965 2b3f 1319 823e 531f 53be
00000190: 9961 30bf 85c6 00bf 7a6f 01bf a108 523f
000001a0: 653c 01bf 047a b4bc e9bf eb3e ee31 6a3f
000001b0: 6b3b 9fbf 84dd a53d 7083 cd3f 5654 0f3e
000001c0: daaf 5b3f 55de f4be d4c2 933e ac19 703c
000001d0: 09cb 743f 6d04 81bf a81c 8e3e 96e8 8cbf
000001e0: a6e5 8c3f e468 963e 017b 4a3d 6cf0 893d
000001f0: 2e48 0d3e cbeb 5e3f f540 3e3f 69a8 853e
00000200: 4b45 163e 0ce0 f73d 4199 fa3e cb56 5e3f
00000210: 91a8 92be 17ce c53d e485 413e f105 abbe
00000220: f2de 553e ca7b a1bd b26b 29bf 687a ec3d
00000230: 1b63 5cbd 8f89 563d 5b18 ec3c 50b7 87be
00000240: 19f9 843e 746a 60bf f060 2e3e d319 4f3f
00000250: 70ab a0be 01bf a43d 1d54 00bf f06c 53bf
00000260: 5545 6f3e e415 85be d2c5 3f3f f96d 663f
00000270: 981d 61be 4cab bc3f f000 7a3e 7534 1e3f
00000280: c90c 6e3e 98be 253f f3a1 513e 3a6e 62bf
00000290: 3e10 613e c502 143e a281 8ebe 7f9c 0c3f
000002a0: f9b4 96be 8606 663e ceb6 9a3e 2b03 34be
000002b0: 949f 2a3e 0188 b6be c3ea 92bf c676 8fbd
000002c0: 20c6 be3e 2dcb 443f 4f12 a9be b719 db3f
000002d0: d014 993f b1c8 7d3f 9aab 65bf 301e 963e
000002e0: 2c61 a03f fce3 bcbd 2d01 933e b802 573f
000002f0: e0d6 043f aad5 82bf 072d 2f3d cc9a f83d
00000300: caaa 223f 2734 49bf c442 32be 2234 873f
00000310: 3f06 723f dad0 6b3e 56e4 523f ce6a b93e
00000320: 88f2 1b3f fe98 cc3f d7c1 e23e 6199 f7bc
00000330: 4f47 a2be 42ad 053f 68cc a23e c5b7 13be
00000340: e590 babe 622e 3b3f 5de0 b83f 20a2 0abf
00000350: 19d8 173e a545 8fbe 6ffc 803f 1821 493f
00000360: fdef e53f 35ae febe 7992 abbf 04b6 aa3e
00000370: 35f0 453e adbe 903e 206a dabe 9fb8 a23f
00000380: ef71 b7be ea7a 97be 99f7 a03f 5842 07be
00000390: 5352 10bf 01cc 4bbe a273 593f cf6b 42be
000003a0: 1daf 0e3f 1965 9abf fcb3 0f3d c605 9b3f
000003b0: f932 ff3e 6fc3 c0be 328a d8bd 239e bd3e
000003c0: 033f bbbd 041d d4be c1b9 24bf cd7a 943e
000003d0: abfb 113f e096 a1bf 1668 883f c76e 763e
000003e0: 863a 5b3d 87f1 01bf 2d57 17bf 895e b03b
000003f0: 93dc 3bbf 8801 15bc e054 f9be 7860 ac3e
0.51437956 0.21934491 -0.46972108 -0.6258397 0.65097034 1.3855207 -0.75180024 0.76444596
0.20394342 0.6317968 0.33574238 0.50197786 -0.1995901 0.08037833 -0.061441984 0.9165689
0.39494696 0.13895482 0.841794 -0.34680077 0.5700881 0.24712825 0.19612764 0.96805173
0.59199274 -0.30515602 0.38669315 0.23108794 0.53817487 0.8394224 0.1193831 0.5835183
0.42243826 1.2111998 -0.061615627 0.23842412 -0.5096872 -0.032195687 1.6217141 0.75770843
0.38142717 -0.65337366 -0.67526066 0.10536666 0.2688802 0.51659125 -1.1649028 -0.85605884
-0.27247477 -0.13564697 -0.7375251 -1.7360756 1.4136437 -0.7413921 0.18304732 0.73597556
0.49162135 0.65990645 -0.07389928 -0.043874957 0.2206095 0.9039933 0.6477304 -0.14239328
-0.3178982 -0.062235773 -0.3480268 0.7370417 0.52128077 -0.10560054 0.28121403 1.2320294
0.6337803 1.066302 0.7085717 -0.72020423 -0.14968988 0.9571102 0.10219322 1.1810944
-0.35059047 0.093631335 0.27793834 0.45838898 0.554527 0.7149602 0.43711346 0.6636166
0.34006906 -0.7344782 -0.24111448 0.4157357 -0.6365955 -0.55332035 0.45039403 0.09303532
0.88985974 0.6695247 0.25409755 -0.20617418 -0.6889892 -0.50302917 -0.50560725 0.82044417
-0.5048278 -0.022030838 0.46044853 0.91482437 -1.2440008 0.080988914 1.6055737 0.13997015
0.85815203 -0.47825876 0.2885958 0.014654558 0.9562231 -1.0079476 0.27756238 -1.100848
1.1007583 0.293769 0.049433712 0.0673531 0.13797066 0.8707854 0.74317867 0.2610505
0.1467487 0.121032804 0.48945048 0.86851186 -0.2864423 0.09658449 0.18898731 -0.3340297
0.20885828 -0.07884939 -0.66179955 0.11546785 -0.05380545 0.05237728 0.028820207 -0.26507044
0.25971296 -0.87662435 0.17029166 0.8089878 -0.31380796 0.080442436 -0.50128347 -0.825881
0.23366292 -0.25993264 0.74911225 0.90011555 -0.21983945 1.4739776 0.2441442 0.61798793
0.23247065 0.6474395 0.20471935 -0.8844944 0.21978852 0.14454181 -0.27833277 0.54926294
-0.29434946 0.22463426 0.30217594 -0.17579333 0.16662437 -0.35650638 -1.1477894 -0.07005076
0.37260532 0.7687252 -0.3302178 1.7117223 1.1959476 0.99134356 -0.8971497 0.29319906
1.2529655 -0.09223172 0.28711835 0.83988523 0.51890373 -1.0221455 0.04276755 0.121389
0.63541853 -0.78595203 -0.17408282 1.0562785 0.9454078 0.2302889 0.82379663 0.36214298
0.6091695 1.598419 0.44288513 -0.030224504 -0.3169503 0.52217495 0.31796575 -0.14425571
-0.3643867 0.7311765 1.444347 -0.54153633 0.14828528 -0.27982822 1.0077037 0.7856612
1.7963864 -0.49742284 -1.3404075 0.33341992 0.19329913 0.28270474 -0.42659092 1.2712592
-0.35829112 -0.29585963 1.2575561 -0.13208902 -0.56375617 -0.1990204 0.84942067 -0.18986438
0.5573595 -1.2062103 0.035083756 1.2111137 0.49843577 -0.37649104 -0.10573234 0.3703471
-0.09142878 -0.41428387 -0.6434594 0.2899994 0.5702464 -1.2624168 1.0656765 0.24065696
0.05352261 -0.50759166 -0.59117395 0.005382363 -0.73383445 -0.009094603 -0.48697567 0.3366735
